GSTENG_Datasets/v-net_ks=3_lr=0.002_epoch=200_tanh2.pth (torch, 45317 bytes, 20 tensors)

layer1.0.weight f4 [16, 6, 3]
00000000: f16b c6be 9bbb 14be f37f 22be 7990 c53e
00000010: ea88 963f 2950 353f 5f46 97bd 1735 66bd
00000020: 7f52 293d f7b2 56bf d1db 81bf d371 69bf
00000030: 605f 05bf 1561 78be 5bf0 acbe b72f 3540
00000040: d41b 3f40 3116 693f 1b95 913f 5f24 cb3f
00000050: c7c5 2d40 6cad 26bf cf38 fabe 696b 2b3e
00000060: 54cb bc3e 0f14 983f 854f 3e3f 635f 50be
00000070: 2059 c33c ed05 893f f3e2 88bf 50fc 16bf
00000080: 2d77 f23d 7a50 96bf 2bf6 7a3e de50 ed3f
00000090: d10e f0bb 2d5f 92bb d498 613e 32a0 f13e
000000a0: 5028 0cbf 2ae4 10bf 50c4 85bc e06e 403f
000000b0: 51d7 82bf 0ed3 f1bf 1397 a63e f6da 0140
000000c0: 472a 123f a82a 843e de91 193f f036 9dbf
000000d0: a1ae fabe 15c9 3e3c c2df 6e3e ec23 3cbe
000000e0: c288 60be 4c79 c23e ed94 fa3e ae4c 4f3e
000000f0: 7947 cdbd 2a87 c6bd 99d0 ee3d c943 513f
00000100: 1946 503f 0030 ad3f 3498 e5bf c7b3 23c0
00000110: fe37 cbbf c7e7 93bf 03f3 f6bd 9682 d23f
00000120: 588e 4b3d 4337 a83e b1fe 9d3e 284a 34c0
00000130: 0038 dec0 599c 51c0 6c50 98bc 4eb6 023e
00000140: 6621 2e3e 50eb 823e b1cf 7d3e ddea 8bbe
00000150: 1afa 233f f453 5e3d e1c0 e9be 1b62 e53d
00000160: 8311 1fbc eaaa 41be c315 e83d 5550 c23d
00000170: ba87 eb3e 58ae 5bbe a1d3 8f3f 71d0 bb3f
00000180: bdd1 6cbc 3568 5fbd 6fb2 df3d d006 563f
00000190: bc5b 2c3e 62f5 24be d1f2 333f 08a4 f83e
000001a0: a5f8 383f 13ff f1bf 281c 33c0 c66a 11c0
000001b0: 670d 483d 2273 d1bc c018 4a3d 4b87 fa3d
000001c0: 0494 043e 779b 3c3e dea1 c2bc 05f5 d8bd
000001d0: cb73 03be ba60 6cbf 3c21 88bf 1737 bbbf
000001e0: 11ec e03f cc2e 1e40 bb44 2540 2f89 55be
000001f0: 0a33 55be 0585 bebe 0127 223d 5373 48be
00000200: dcd7 febe af86 2f40 9b9e b53f a1e6 8540
00000210: 779e 7dbe 75e0 57be c62c a1be f0a2 0fbf
00000220: 7c61 94bf 8380 8fbf 8416 5c3f 024a eb3e
00000230: 0cbf 103f 123a 89be 26b7 d1be 3ca8 5abe
00000240: 2e74 2fbf 9e5b f7be 8434 92be 5cf9 d3bf
00000250: 5ec0 c7bf 6238 fcbf a163 f9bd 102d 913e
00000260: 3206 763d c6cb 42be f918 9dbf 1644 0cc0
00000270: 33be e63e e273 a43d 3d35 38bf 88cb 563f
00000280: 5d77 793f cd54 463f 435b abbf 66d5 2ebf
00000290: 86cd adbf 1717 68bd ea7a a33f 6389 ab3f
000002a0: 929a 413f 02d4 283f 87ad 9b3e e971 b93f
000002b0: 0334 323f 8aec 543f e1e2 bc3e 3d06 efbe
000002c0: 73a2 d8be 9fd8 efbe d3e0 66bf 8e1e 19bf
000002d0: 2142 b0be 661c 52be 5613 f13e 8e6c 1cc0
000002e0: 5d81 a6c0 8f34 63c0 cea8 253e 0676 80be
000002f0: 1f7d b6be 1d8c 053f fef4 18bf 8f62 abbe
00000300: 1d21 e0bd 80f5 eebe c699 1abe c9cf 3a3f
00000310: 1b00 cc3e c423 c83e 9a0f 34be eb8a a33e
00000320: 4a1e b83d 8d72 063f 31aa b93e 3c1b 6b3e
00000330: c70e 673e c641 973e 48f3 bf3b 3235 7abf
00000340: d31d 60bf 6b38 05c0 f160 113f b6ab 8e3e
00000350: d25d d0bf 4732 4440 b9c0 d1bf 0b21 6bc0
00000360: 4662 98bd b688 bbbc 4f69 a33c 66cb 84be
00000370: 99e3 dfbe 3c74 d0be ec5a 46bd c275 01be
00000380: 45fa adbd ad35 5a3f 2c33 a73f 5b7c 943f
00000390: 53ea 393d b117 253f 6078 d03e 3f0c 1fc0
000003a0: 7d80 5cc0 f65e fcbf 0de4 3c3f 4b7d 413f
000003b0: ffdc 473f e0da 9bbf a399 ccbf c2ff c5bf
000003c0: 57a1 223e 5420 803e 2552 603d a9c2 6abf
000003d0: 4273 3ebf 6805 09bf 8cff dcbe 1279 20bf
000003e0: 853b 4dbf 5ac6 e93f 1b8b cf3f 60bd a83f
000003f0: 00de 153f 58a0 32be dbad 52be 9442 a440
-0.38754228 -0.14524691 -0.15869121 0.38586786 1.1760533 0.7082544 -0.07386469 -0.056202974
0.04133844 -0.8386683 -1.0145208 -0.91189307 -0.52098656 -0.24255784 -0.33777127 2.8310373
2.9860735 0.91049486 1.1373628 1.5870475 2.7151964 -0.6510837 -0.48871467 0.16740192
0.36873877 1.1881121 0.7434009 -0.20348887 0.023846209 1.0704933 -1.069426 -0.5897875
0.11839137 -1.174331 0.24507968 1.8540304 -0.007325985 -0.0044669122 0.22030956 0.47192532
-0.5474901 -0.5659815 -0.01632896 0.7516918 -1.0221959 -1.8892534 0.32537135 2.0289893
0.5709576 0.25813794 0.599882 -1.228239 -0.48961356 0.011644621 0.23327544 -0.18373078
-0.21927169 0.37983167 0.48941746 0.20244095 -0.10023398 -0.09693749 0.116608806 0.81744057
0.8135696 1.3530273 -1.7937074 -2.5578477 -1.5876462 -1.1555108 -0.120580696 1.6446102
0.049696296 0.3285466 0.30858377 -2.8170261 -6.944336 -3.2751677 -0.018593036 0.12764856
0.17004928 0.25570154 0.24786259 -0.27327624 0.640535 0.054279283 -0.45654967 0.11200353
-0.009708765 -0.18912855 0.11332276 0.09487978 0.4600199 -0.21453226 1.1236459 1.4672986
-0.014454302 -0.05454274 0.109227054 0.83604145 0.16831869 -0.16109231 0.70292383 0.48562646
0.722544 -1.8905967 -2.7985935 -2.272142 0.048840906 -0.025567595 0.04934001 0.12232836
0.12947088 0.1841868 -0.023758825 -0.10593609 -0.1283714 -0.92335093 -1.0635142 -1.4626187
1.7572042 2.4716063 2.58232 -0.20853113 -0.20820251 -0.3721086 0.03958798 -0.19575243
-0.49774063 2.7425954 1.4189028 4.184403 -0.24767481 -0.21081717 -0.31479472 -0.56108
-1.159225 -1.1211094 0.85971856 0.459549 0.56541514 -0.26802117 -0.40960044 -0.21353239
-0.6853665 -0.48312086 -0.2855569 -1.6560473 -1.5605581 -1.9704707 -0.12177206 0.28354692
0.060064502 -0.19023046 -1.2273246 -2.1916556 0.45066985 0.080299154 -0.71956235 0.83904314
0.9744776 0.77473146 -1.3387226 -0.6829437 -1.3578346 -0.056662645 1.2771885 1.3401302
0.7562648 0.659485 0.30405828 1.4487888 0.69610614 0.8317343 0.36891845 -0.46684447
-0.4231144 -0.46844956 -0.90186805 -0.5981225 -0.34425452 -0.20518646 0.47085065 -2.4441257
-5.2032914 -3.550083 0.16177675 -0.25090045 -0.35642335 0.5216692 -0.5974883 -0.33473632
-0.10943816 -0.46671677 -0.15097722 0.72973305 0.3984383 0.39089787 -0.17584077 0.31941923
0.08990152 0.5251854 0.36262658 0.22959608 0.22564231 0.2954237 0.005857859 -0.9773742
-0.8754551 -2.0815685 0.56788546 0.2786538 -1.6278632 3.0655687 -1.6386939 -3.6738918
-0.07440619 -0.022892337 0.019947676 -0.2593643 -0.4372833 -0.4071368 -0.048426554 -0.12642577
-0.08495001 0.8523815 1.3062491 1.160045 0.045389485 0.64489275 0.4071684 -2.4851224
-3.4453423 -1.971648 0.7378548 0.75581807 0.7807159 -1.217617 -1.5984386 -1.5468676
0.15881859 0.25024664 0.05476584 -0.9170328 -0.7439462 -0.53523874 -0.43163717 -0.6268474
-0.80168945 1.8263657 1.6214327 1.3182793 0.5854187 -0.17443979 -0.20574133 5.133127

layer1.0.bias f4 [16]
00000000: ced5 0e40 d0bf 9abf 8580 b6be 6a6d 08c0
00000010: e923 82c0 e85f e2bf 331f b940 0a22 5440
00000020: 89bd 0c40 b044 a7be aaec 28c0 7c19 e43e
00000030: 53ec 9340 a608 cfbd 71b3 edbf a8a1 8abb
2.2317996 -1.2089787 -0.35644928 -2.131678 -4.0668836 -1.7685518 5.7850585 3.3145776
2.1990683 -0.32669592 -2.6394448 0.44550693 4.622598 -0.101090714 -1.8570386 -0.0042306967

layer1.1.weight f4 [16]
00000000: b638 983f 1f11 9c3f f56e 563f 26c0 6b3f
00000010: 48d5 933f d297 bc3f 3e9a 953f 4737 2a3f
00000020: 9bfa 973f 3829 b3bf 58dd a33f 59d3 6c3f
00000030: 0afe b93f 9e53 633f e67a 773f 497d 1240
1.1892307 1.2192725 0.83763057 0.9209007 1.1549463 1.4733832 1.1687696 0.66490597
1.1873354 -1.3996954 1.2801924 0.9250999 1.4530652 0.88799465 0.96671903 2.2888968

layer1.1.bias f4 [16]
00000000: ac0a 833f 27d8 b4bf 0364 9040 9ccb ae3f
00000010: 3ad5 02c0 653f 6c3f ed24 ca3f f479 0240
00000020: 14f5 0cc0 d614 9040 e94c fa3f efd8 e23a
00000030: 6f2a db3f b4f6 a4be db1f e73f 1dcd d53f
1.0237632 -1.4128464 4.5122085 1.3655887 -2.0442643 0.9228423 1.5792519 2.0386934
-2.2024584 4.5025434 1.9554721 0.0017307083 1.7122325 -0.3221947 1.8056597 1.6703221

layer1.1.running_mean f4 [16]
00000000: d281 1440 b4d4 b8bf fc67 cabe b51c 08c0
00000010: 2c6d 84c0 3210 e1bf 7b99 b940 7801 5f40
00000020: abf8 1840 950f b2be b8e2 28c0 3ad3 363f
00000030: c5d7 9140 502a d7bd d234 efbf a2e2 76be
2.3204236 -1.4439912 -0.3953246 -2.1267521 -4.1383266 -1.7583067 5.7999854 3.4844646
2.3901775 -0.34777513 -2.6388378 0.71416056 4.557589 -0.10506117 -1.8687994 -0.24109891

layer1.1.running_var f4 [16]
00000000: 1d18 7e3b bf42 303d dc83 c83b 4f23 4f3b
00000010: 4a69 4d3d 3173 3b3c e510 b33a 0fa4 c73c
00000020: 08b7 a73c cb37 333c b368 313d 705a 303d
00000030: abe3 693b ace2 d83b e9bd 913c a94a db3c
0.0038771697 0.043032404 0.0061192345 0.003160674 0.05014924 0.011441038 0.0013661651 0.024370221
0.020473018 0.010938595 0.04331274 0.043054998 0.003568868 0.0066188183 0.017790752 0.026769

layer2.0.weight f4 [32, 16, 3]
00000000: b107 7abf 9d10 e7bf 2774 a1bf ab0c 31be
00000010: 27c4 433e 0691 2b3f 492a 9bbf 8804 85bf
00000020: c378 afbe 64e0 853e 8704 a03d 358d ffbe
00000030: 0a6c 12c0 59fb 6bbf 7978 223d fca9 203f
00000040: 5ce5 ac3d 3d88 32bf 2907 d1be 4939 3c3e
00000050: 9ad9 153f 4c60 cf3e 5d45 83bf ecc6 adbf
00000060: dc6d 01c0 dafe b2bf cf30 76bf 8119 f8bd
00000070: c93d 7dbe 54ea 933e 3df0 bdbf 495d a8bf
00000080: d954 73bf 9e5f aa3e 945d 093f 1059 ce3e
00000090: 2b49 2540 f5c2 a83e 29a7 f4be da92 ca3e
000000a0: c948 a43f 4b2b 1a40 444c 7c40 295d 1140
000000b0: 3ebc 163e 527e 183f f16f e6be c152 bbbf
000000c0: 742d 1b40 884c f53f 8f36 cb3e ab4f 71bf
000000d0: 9ffc 65bf 6370 7fbf 3b7b 6140 3838 3e40
000000e0: f0f6 3640 cb1d 88bf 507c e3bf 663a 26bf
000000f0: 163e 5abe 3cdd 8cbf c91c 8dbf 4001 90bf
00000100: 1e07 33be 8d63 53be c569 6d3e a49d 8c3e
00000110: 36f5 6bbe 9b22 a53d 6a2e 7a3f 1b70 943f
00000120: f0d8 773f b8db ad3e cd96 31bd 9e4c 363f
00000130: 8746 7bbf 97c0 02c0 d6ce cfbd 9db8 8b3e
00000140: a5fa 88bf 7798 893f 579a 893f 58ab 9f3f
00000150: 6a4f ffbf 5ab1 a7be f37a 923d 1e5f cd3e
00000160: b948 303f 6f28 403f c528 5fbf 99ba e7be
00000170: 0858 d43e 25c0 62bf f738 523f e88b cb3f
00000180: 3c25 c33e 874b f6bd c6c5 0abf 0c30 a13e
00000190: 76d7 833d 2676 8c3e e17a f3be 61cd ddbe
000001a0: 82e4 7d3d 638d 553f 51dc c73e eea2 523f
000001b0: 918d 1840 d8ff 7640 ba36 8a40 bb95 5a3e
000001c0: 80a1 4b3e 61f0 fc3e 44a9 54bf 2700 a3bf
000001d0: 8f5c 77bf 10f4 96bf 5136 17c0 8f02 16c0
000001e0: a4e6 ebbe e863 bb3f 4b06 1d40 d355 6d40
000001f0: 4181 1240 e9a0 0c40 cd32 debe e1d5 09bf
00000200: 2809 05bf cfc5 3e3e 54d7 653d ee0b 143d
00000210: 5134 863f 7bd7 1a40 5865 2440 1365 013e
00000220: 5785 1bbe c9f3 873e 60b6 7e3f 1a09 b43d
00000230: 8722 f4bf a7e0 0d3f 77d1 083f c655 e13e
00000240: f2e2 be3c 63ce 3fbf 6993 65bf 7bee 2dbe
00000250: 366b 38be 168b 03bd 7940 6140 a130 8240
00000260: 5b4c 5240 45fd 6bbf c5f8 79bf 8a2d 60bf
00000270: 67f1 dfbf f2ec dabf a20c 8dbf 9f15 9b3e
00000280: 56a2 463f 932f 113f 12f4 92bf afae c3bf
00000290: 0769 adbf 6b08 fdbe 8aa5 413f fcb5 2b3f
000002a0: d361 273f 7427 d3be ea16 3cbe 3473 aec0
000002b0: 3d87 91c0 4e84 80c0 beaa d1bd 0fba 37bf
000002c0: 1b08 86bf 8779 87bf 6bee 98bf fd2a 5bbf
000002d0: bbb9 1940 5051 ee3f c71d 613f 4cc5 a3be
000002e0: 393b e8bd 92ab e03e 2b8e be3d 2c7c c83f
000002f0: 68c7 923f 6062 a7bf 2990 af3e 4dce b93f
00000300: a34c a1bf 2311 57bf 8a70 8fbf 2ff1 fe3e
00000310: 5724 8e3b a47e 45bf 12c5 7bbf 5730 2abf
00000320: f13a e8bf be76 e6bf 10c5 dfbf fcbc 65bf
00000330: 90fc 5d3d 0530 cdbf a588 0d3d fcd9 553f
00000340: 547e f03f f792 17bf 755b 5a3f 8a41 003f
00000350: b815 dbbe ccee dcbe 5109 47be 840d a1bf
00000360: 5b9c 8cbf 8642 0ec0 137c 09c0 aa9f 4bbf
00000370: 65b0 0ebf dc1f 2abf 282f 7fbf 502e 3cbf
00000380: 9687 e8bd d66f d53e af80 033f b800 8d3e
00000390: 5d8c cbbf 7b8c 16bf 46cc 193f ac8b 42c0
000003a0: 639f 36c0 6080 06c0 c74a 82bf 1a11 9fbf
000003b0: 73df 0240 9deb b3be dfdd c7bd 8fd9 c8be
000003c0: 1721 273e ee51 7dbe 0edb 3dbe 3de7 76be
000003d0: 9002 01bf f5d2 2bbf a37d bcbf 4f9a aebf
000003e0: 1fc2 92bd 0def 63bf 6095 e0bf a8ee c5be
000003f0: 7891 233e 70bf 10be 3995 dcbe f951 4b3e
-0.97667986 -1.8051945 -1.2613572 -0.17289989 0.19117795 0.67018163 -1.212228 -1.0392008
-0.3427182 0.2614776 0.078133635 -0.4991242 -2.2878442 -0.921804 0.039665673 0.62759376
0.08442184 -0.69739133 -0.40825775 0.18381228 0.5853516 0.40503156 -1.0255543 -1.3576331
-2.0223303 -1.3984025 -0.96168226 -0.121142395 -0.247306 0.28889716 -1.483894 -1.3153468
-0.9505134 0.33276075 0.53658414 0.40302324 2.5825908 0.3296124 -0.47783783 0.39565164
1.2834712 2.4088924 3.942155 2.271311 0.14720246 0.5956775 -0.4500728 -1.463463
2.4246492 1.916398 0.39690062 -0.9426219 -0.89838594 -0.99780864 3.5231464 2.9721813
2.8588219 -1.0634092 -1.7772312 -0.6493286 -0.21312746 -1.1005015 -1.102441 -1.1250381
-0.17483184 -0.20643444 0.23184879 0.2746402 -0.2304276 0.08063241 0.9772707 1.1596712
0.96815395 0.33956695 -0.043356705 0.7121066 -0.9815449 -2.0430048 -0.10146873 0.27289286
-1.0701491 1.0749654 1.0750226 1.2474165 -1.994611 -0.32752496 0.07152357 0.4011163
0.68860966 0.75061697 -0.87171584 -0.4525955 0.41473413 -0.8857444 0.8211817 1.5902071
0.38114345 -0.120261244 -0.5420803 0.3148197 0.0643758 0.2743389 -0.47554687 -0.43320754
0.0619855 0.83418864 0.39035276 0.8227986 2.3836405 3.8593655 4.3191805 0.2134618
0.19885826 0.49402145 -0.8307078 -1.2734421 -0.9662561 -1.1793232 -2.3626902 -2.3439062
-0.46074402 1.4639864 2.453509 3.7083633 2.289139 2.1973212 -0.43398133 -0.5384198
-0.51967096 0.18630145 0.056113556 0.03614419 1.0484716 2.419402 2.5686855 0.12636213
-0.15187584 0.2655318 0.9949703 0.087907985 -1.9073037 0.5542092 0.5344462 0.44010752
0.023301575 -0.74924296 -0.89678055 -0.16985504 -0.18009648 -0.032115065 3.51956 4.068436
3.2859104 -0.92183334 -0.9764522 -0.8756949 -1.7495545 -1.710356 -1.101948 0.30289933
0.77591455 0.5671322 -1.1480734 -1.5287684 -1.3547677 -0.49420485 0.7564322 0.6707456
0.6538364 -0.41241038 -0.18368116 -5.451563 -4.5477586 -4.0161505 -0.102376446 -0.7176828
-1.0471224 -1.0583962 -1.1947759 -0.8561247 2.401961 1.8618565 0.8793606 -0.31986463
-0.11339421 0.43880898 0.0930446 1.5662894 1.1467104 -1.3076897 0.34289673 1.4516083
-1.2601513 -0.84010524 -1.1206219 0.49793383 0.004337828 -0.77146363 -0.9834758 -0.6648001
-1.8142987 -1.8004987 -1.7482014 -0.8974149 0.05419594 -1.6030279 0.034554143 0.8353574
1.8788552 -0.59208626 0.852958 0.50100005 -0.42790008 -0.43150938 -0.19437148 -1.258225
-1.0985216 -2.2228103 -2.148198 -0.79540503 -0.55737907 -0.66454864 -0.9968133 -0.7350817
-0.11353986 0.41686887 0.5136823 0.2753961 -1.590221 -0.58808106 0.6007732 -3.039775
-2.8534782 -2.1015854 -1.017907 -1.2427094 2.0448883 -0.35140696 -0.097591154 -0.39228484
0.16321217 -0.24738285 -0.18540594 -0.24111648 -0.50394535 -0.6711877 -1.4725841 -1.3640841
-0.07165932 -0.8903664 -1.7545586 -0.38658643 0.1597346 -0.14135528 -0.43082598 0.19855489

layer2.0.bias f4 [32]
00000000: 3899 d43d 47eb 463c 9a29 443e b377 0a3d
00000010: a6f2 b63d 498c 723d 9578 32bc f0ea 3a3e
00000020: 839e bebd 7fa7 01be 2f72 acbd 24e4 6c3d
00000030: e6e1 4d3d 7592 f83e 35e0 953c 7c56 293f
00000040: 6ca9 3fbe 149b 583e 4e8d 2dbe a786 23be
00000050: ef2b 86be e2e7 143c 853d 363e 0e03 2dbe
00000060: 0372 24bc c52c 76bd 8bb8 173d cb82 b7bd
00000070: ffc0 66bc 84c6 06be 1234 a8bd 043e c03e
0.10380787 0.012141055 0.19156495 0.03380556 0.08933 0.059215818 -0.010893007 0.18253684
-0.093075775 -0.12661551 -0.08420216 0.05783476 0.05026426 0.48549238 0.018295387 0.6614759
-0.18716973 0.21152908 -0.16948435 -0.15969335 -0.26205394 0.009088488 0.17796905 -0.16895697
-0.010036948 -0.06010129 0.03704123 -0.08960494 -0.0140841 -0.13161665 -0.082130566 0.37547314

layer2.1.weight f4 [32]
00000000: bde8 703f f618 d13f abf5 5040 af0a a03f
00000010: c90b 753f 6c1f d63f fc8d 1340 dff5 9d3f
00000020: e9f4 b83f afac ae3f 25d9 de3f 514a 763f
00000030: ab92 b53f cc1e bb3f 21e3 c73f ba45 c23f
00000040: 2001 983f fbae 823f 07da 713f 5cfe a73f
00000050: 0dbb 803f 48f1 8b3f ba71 f73f 651f fb3f
00000060: 453c 7d3f 27fe 0d40 172f 593f 6007 313f
00000070: bc84 ea3f 8b8c 9340 1758 7b3f 6264 a13f
0.9410513 1.6335742 3.2649944 1.250326 0.9572111 1.6728339 2.305541 1.2340659
1.4449741 1.3646449 1.7410017 0.9620715 1.4185385 1.4618773 1.5616189 1.5177529
1.1875343 1.020965 0.9447331 1.3124499 1.0057083 1.0933008 1.9331582 1.9618956
0.9892009 2.2186372 0.8483748 0.6915188 1.8321757 4.610906 0.9818129 1.2608759

layer2.1.bias f4 [32]
00000000: 4944 a0bf 3c7b 12c0 84fa 303f dd76 b9bf
00000010: 5f0d 97bf dba4 f43f 83ce 23bf 88e4 743f
00000020: 1c6a d23f 44ae ddbf 29ae 9d3f 4a33 a43f
00000030: 978b b23f 8bb3 f93f 3156 9d3f 9014 7bbf
00000040: 6d87 643f 1fba 243f 79f6 11c0 2a8e b4bf
00000050: d4f3 c33f 7c2f 8b3f b590 1740 769f f73e
00000060: 77bb cf3f 7f5f e2bf 81df f7bf 945a 2ec0
00000070: 610c f23f 23d0 9fbe b8c7 8e40 d4dd ddbf
-1.2520839 -2.2887716 0.69132257 -1.4489399 -1.1800956 1.911281 -0.63986987 0.9566121
1.6438632 -1.7318807 1.2318774 1.2828152 1.394885 1.9507917 1.2291929 -0.9807825
0.89269143 0.643465 -2.2806685 -1.4105885 1.5308785 1.0873866 2.3682072 0.48363847
1.6229085 -1.7685393 -1.9365083 -2.7242785 1.8910028 -0.31213483 4.4618797 -1.7333322

layer2.1.running_mean f4 [32]
00000000: 7f88 0940 14e4 0d41 c505 eec0 2fdf c83f
00000010: 3efe c4c0 7d24 1241 b1ad 93c0 2f7f 43c1
00000020: b414 1141 d990 55c1 270a 03c1 3869 34c0
00000030: baea 46c1 91e7 8ac1 3b67 d1c0 0806 4141
00000040: 6311 6241 194a 7fc0 6e73 0cc2 8d34 0e40
00000050: 3292 3dc1 664e 2ec1 99d5 5241 d992 e4c0
00000060: a141 3641 e930 c3be 2e5a 4dc1 e489 fdc1
00000070: 7fe9 ee3f 0024 a8bf 759a 6541 e892 0c41
2.148956 8.868183 -7.4382043 1.569311 -6.1560354 9.133908 -4.6149526 -12.218551
9.067554 -13.347863 -8.189979 -2.818922 -12.432306 -17.36307 -6.5438514 12.063972
14.129245 -3.9888976 -35.112724 2.2219574 -11.848192 -10.89414 13.177148 -7.1429257
11.391023 -0.38123253 -12.834517 -31.69233 1.8665007 -1.3135986 14.350209 8.785866

layer2.1.running_var f4 [32]
00000000: b58d dc41 4e37 c041 535c 9241 58a3 4d41
00000010: 4d49 ad41 222a 1e41 973c 1541 ad63 a741
00000020: e1ea 3741 1276 3441 152d 0b42 1857 1041
00000030: 6f50 4a41 4c64 bf41 85e0 0a41 82d8 8841
00000040: 069c e741 51cf 2041 dc51 0542 c3e3 a441
00000050: 6920 a540 b223 0842 cfb6 4b41 3069 ea40
00000060: 50b0 3941 ca8b 0a41 1730 0d41 d179 0141
00000070: 9312 ec41 4118 b940 3346 9641 e14d 4541
27.569193 24.027004 18.29508 12.852379 21.660791 9.885286 9.327292 20.92367
11.4948435 11.278826 34.794025 9.021263 12.644637 23.923973 8.679814 17.105717
28.951183 10.050614 33.32994 20.611212 5.1602063 34.03486 12.732131 7.3253403
11.605545 8.659128 8.824241 8.09224 29.50907 5.7842107 18.784277 12.331513

layer3.0.weight f4 [64, 32, 3]
00000000: 2924 843f 3e3d 593f 93d2 103f 2430 a5bf
00000010: ff14 4dbf fe86 adbf 3d5c 653f 786e 4cbf
00000020: 0ee2 02c0 b314 12bf d5af 4abf b501 90be
00000030: 2afe 123f e0e8 373f d24f 063f 6cee 98be
00000040: 16c9 9dbb 23ce cc3f 1b5d 87be aa1c 0ebf
00000050: 92d5 6a3f fd0a bbbf 80d1 76bf 9489 0dbe
00000060: b62b 0140 597c 27bf 7cf9 30bd 43aa bebf
00000070: cc02 d1bf 633d 1abf b9d1 babf d3c4 a7bf
00000080: 7b07 2ebf 4a82 a5be f0d3 7a3e 9b4d e33f
00000090: 9455 633f fed7 debe 1d2d 24bd e975 b2bf
000000a0: 6b36 43bf 9960 e2bc ffc4 20c0 84d0 9bbf
000000b0: 87bb f03e 8efb 06bf c77d 493d 6138 5a3e
000000c0: fafa 32bf 2ff0 b0bf a50b e6be 9acb e13f
000000d0: 1713 013f 235c 96bf a371 3540 ecc1 3440
000000e0: d969 1440 fa82 873f a6bc 4f3f 137b 743f
000000f0: 2ee5 a7bf d7ff 5bbf c9a3 dcbe 3af7 cc3e
00000100: 5281 d13e 2afb 173f a588 413f d818 de3d
00000110: 4607 583f e6fd cbbe 757d 393b e152 793f
00000120: b6c2 033f f303 923f 37cc a23f 50de 253f
00000130: cb05 463f e58d 0840 5ce7 9dbe 16ed f1be
00000140: 6868 8ebf 17f7 5f40 461d 9040 1c6c 5a40
00000150: a085 d9be 23fd 5cbf cfac fbbe daa8 5dbe
00000160: 3ebf 863f 4590 b33e dde8 45c0 8ba0 47c0
00000170: e933 5bc0 1dc6 923d 6e16 8a3d 2b40 47bf
00000180: 17b6 0240 b0f4 833f 2e07 eabf 0204 33bf
00000190: 2b09 cfbc 3956 263e 2c18 53be 2115 df3d
000001a0: 54fe 2bbf 94f6 6abe a8f6 dc3d adc6 e4be
000001b0: b2c5 0140 a4b0 a23f 6d5a 15bf e2fc 21bf
000001c0: e470 5a3f a163 1340 ba45 8c3f 049c 833f
000001d0: f19e f73f 7403 85bf c033 29be 1286 a93e
000001e0: ff57 65bf d725 80be 43f2 96be 5ab4 b4bf
000001f0: 6e2d 41bf 75d9 c43e e7f1 ddbf 4871 9d3e
00000200: 1a13 3340 c167 6a3f 9b4e e03f c80a 1a40
00000210: baf2 8e3f 7855 11bf bae1 c4bf f448 a43e
00000220: c551 af3f 858b 433f 1480 17c0 481e f2be
00000230: efaf 433f 5b34 2fc0 baa3 61bf 7671 133e
00000240: 932e 2abf 5b4c 523e df75 0d3f 3315 31bd
00000250: e4a8 97be 2f50 fdbf 5ea9 a83f fc85 593f
00000260: 2c6a 1440 9ba4 ed3c 0cc9 adbe 32d5 713e
00000270: 17d9 e1bd a4ef c23e be35 1dbe 153a 923f
00000280: 519f 89bc 7c10 d9bf 036c 7fbf cd6d 5fbc
00000290: 245b b7be 10a8 5abf c6c9 ddbe e2b3 373f
000002a0: 60fb 26bf 56dd b3be b996 f1be 62b2 0c3e
000002b0: 3d23 2b3f fc94 a93f c0fb 213f 8e14 1d3f
000002c0: 9c57 d9be c300 6b40 f8a1 cb3f a749 833e
000002d0: 4a21 893f 5e8b 8c3f ea61 e43e f141 aebf
000002e0: 9cd5 d23d 2116 ce3f 5add 8cbf af2a 11bf
000002f0: d9d4 6dbf df9d c1bf aa55 233e e29b 893e
00000300: b914 d03e 0681 de3d 6ecc 09bf 7ec9 59bf
00000310: 9df0 8fbe 6a4c a13f c3d3 b83e 86d0 72be
00000320: 0b77 5fbf 9735 b6bf d154 c0be e12a 0b3f
00000330: cb24 963f 27f7 2a3e 1167 9ebf cbc0 fe3e
00000340: 133c d5bf b205 43c0 5a38 a0bf dbd8 e3bf
00000350: a5f4 51bf 152d 92bf dba6 06bf dab8 6bbe
00000360: 5ed3 a83f 7c53 813d c126 23bf 3b18 1b3f
00000370: afaf 423f c6c9 f7bc 509c 49bf 76d9 003f
00000380: 42db b63f 394a 643f 3534 283f 2873 b03e
00000390: 8ef5 db3e 6f87 183f a52f c33e 76f1 2040
000003a0: 823f 1e3f 2b5e dabf 7f6f 95be afa8 3dbf
000003b0: 89dd d73f eb08 ddbf 8400 983e f1fe 893f
000003c0: 6464 9d3f 03fa a53f 1b85 2abe 3ba6 0ebf
000003d0: b01f 61bf 90b2 ecbc fc26 1cc0 d083 9dbf
000003e0: dd6f 363f d72d cebf e672 c2bf 47c6 70bf
000003f0: b227 26bf 8233 e23e fbf5 0540 dc5d b7be
1.0323535 0.84859073 0.5657131 -1.2905316 -0.8011016 -1.3556821 0.8959387 -0.7985606
-2.0450473 -0.57062835 -0.7917455 -0.28126302 0.57419074 0.71839714 0.52465546 -0.298694
-0.004815231 1.6000408 -0.2643822 -0.5551249 0.9173213 -1.4612728 -0.9641342 -0.13822013
2.018293 -0.65424114 -0.043206677 -1.489571 -1.6328979 -0.6024992 -1.4595252 -1.3106941
-0.67980164 -0.32325965 0.2449491 1.7758058 0.88802457 -0.43524164 -0.040082086 -1.3942233
-0.7625491 -0.027633952 -2.5120237 -1.2173009 0.47018072 -0.5272759 0.049192216 0.2131057
-0.6991421 -1.3823298 -0.4493076 1.7640259 0.50419754 -1.1746868 2.8350608 2.824336
2.3189604 1.0586846 0.8114723 0.95500296 -1.3116815 -0.85937256 -0.43093708 0.4003237
0.40918976 0.5936762 0.7559913 0.10844582 0.843861 -0.39842147 0.0028303538 0.9739209
0.5146898 1.1407455 1.2718571 0.64792347 0.7735259 2.1336606 -0.30840576 -0.47251195
-1.1125612 3.4994562 4.5035734 3.4128485 -0.4248476 -0.86323756 -0.4915528 -0.21646443
1.0527112 0.35071006 -3.0923378 -3.1191738 -3.4250433 0.07166693 0.067425594 -0.7783229
2.042364 1.0309048 -1.8283441 -0.6992799 -0.025272926 0.16243829 -0.2061469 0.10892702
-0.6718495 -0.22945625 0.107892334 -0.44682828 2.0276914 1.2710156 -0.58341104 -0.63276494
0.8532851 2.3029559 1.0958779 1.0281987 1.934538 -1.0391679 -0.16523647 0.331101
-0.89587396 -0.2502887 -0.29481706 -1.4117539 -0.75459945 0.38447157 -1.7339448 0.3075049
2.7980409 0.91564566 1.7523988 2.406908 1.1167824 -0.5677104 -1.5381386 0.3208691
1.3696829 0.76384765 -2.3671923 -0.47288728 0.7644033 -2.7375705 -0.8814045 0.1439875
-0.66477317 0.2053694 0.5525798 -0.043233108 -0.2962104 -1.9790095 1.3176687 0.8497007
2.3189802 0.029009154 -0.3394245 0.23616484 -0.11027735 0.38073456 -0.15352532 1.1423975
-0.0167996 -1.6958156 -0.9977419 -0.013637018 -0.35811722 -0.85412693 -0.43318003 0.71758854
-0.6522732 -0.35129803 -0.47185305 0.13739923 0.66850644 1.3248591 0.63274765 0.6135949
-0.42449653 3.6719215 1.5908804 0.2564213 1.0713284 1.0980031 0.44605953 -1.3613874
0.10294649 1.6100503 -1.1005051 -0.56705755 -0.92902905 -1.5126303 0.15950647 0.26876742
0.4064081 0.10864453 -0.5382756 -0.8507308 -0.2811326 1.2601445 0.3609906 -0.23712358
-0.8729102 -1.4235104 -0.3756471 0.54362303 1.1729978 0.16695844 -1.2375203 0.49756464
-1.6658958 -3.0472226 -1.2517197 -1.7800554 -0.8201392 -1.1420008 -0.5259835 -0.23019734
1.3189504 0.063147515 -0.6373101 0.6058385 0.7604932 -0.03024758 -0.7875414 0.5033182
1.4285662 0.89175755 0.6570466 0.34462857 0.4296078 0.59581655 0.38122287 2.5147376
0.61815655 -1.7059988 -0.29186627 -0.74085516 1.6864482 -1.7268347 0.29687893 1.0780927
1.2296262 1.2966923 -0.16652338 -0.557224 -0.87938976 -0.028893739 -2.4398794 -1.2305851
0.7126444 -1.6107739 -1.5191314 -0.9405255 -0.6490432 0.44179922 2.0931385 -0.35813797

layer3.0.bias f4 [64]
00000000: 39b8 fb3d 15fe f4bc 874b 86bd 9169 21be
00000010: 958c cb3d 2c6a c3bd 6d44 34be 0f04 54bd
00000020: 9c73 0d3c 5b70 8cbe 32f2 2f3e 04f9 98bc
00000030: d922 8dbc 64be 2ebe 7d7e 9fbc e358 cabe
00000040: c92c 8abd ea5d 72bd bdd0 ba3d f02c f0bc
00000050: 5161 f83d cb54 993d 5f25 ae3c 7334 5a3e
00000060: ee5e dd3c 24ef cd3d 8e0c 89bd 6feb 3b3d
00000070: 12df acbd 9673 873b b77e 713d 3d15 a63c
00000080: e5f7 843d 6fb7 53be 4d67 0bbe 33de 113e
00000090: 29ae 06be 7da4 04be 3e3e a73d 10d9 2abe
000000a0: 0529 783e 2a29 d2bc 01cb 8bbd 7334 563c
000000b0: 798a acbd 6727 40bd f05d 1f3e 2d34 e43c
000000c0: 8932 d73d c567 f73d 1160 b3bd 440f 373d
000000d0: a88e efbd fd1b a2bb 0a6a 163e 9677 28be
000000e0: 5dc9 573e 0280 af3d 1577 dc3d 33dd 293a
000000f0: 0316 303c c1c2 07be 5564 8fbd 4c90 4dbd
0.12290997 -0.029906312 -0.065573744 -0.15762927 0.09938923 -0.09541735 -0.17604227 -0.051761683
0.00863352 -0.2742947 0.17182234 -0.018673427 -0.01722853 -0.17064816 -0.019469494 -0.3952094
-0.06746823 -0.059171595 0.09121845 -0.029318303 0.12127937 0.07486876 0.021258054 0.2130907
0.027022805 0.10055378 -0.06691848 0.045878824 -0.08440985 0.004133652 0.058958735 0.0202738
0.06492595 -0.20675443 -0.13613625 0.14244919 -0.13152374 -0.12953372 0.08166169 -0.16684365
0.24234398 -0.025654394 -0.06825829 0.013074028 -0.08424849 -0.046912577 0.15563178 0.02785691
0.10507686 0.12080339 -0.087585576 0.044692293 -0.116971314 -0.004947184 0.14688888 -0.16451868
0.21072908 0.085693374 0.107649006 0.00064797996 0.0107474355 -0.13257886 -0.07001559 -0.05018644

layer3.1.weight f4 [64]
00000000: 9578 2341 1fcb 6841 845f 2d41 8455 f640
00000010: f20d 1c41 66a8 c640 29d7 2241 fd31 2741
00000020: 1772 2d41 1a7e 4641 4230 1841 50a9 2941
00000030: 594d 1041 2ba2 2f41 3ef7 2341 cdcd 1641
00000040: 4d4e 4441 b5c8 4a41 f3a5 d240 65ca 1541
00000050: 5976 3241 ddee 2941 0c46 2541 890c 1741
00000060: d531 0a41 a869 7c41 c8a2 de40 20a8 4241
00000070: 547a a940 9d53 2841 dcf7 e240 d3b5 8140
00000080: dd0d d240 43cb e440 26e3 4241 a4e7 0541
00000090: 7b28 3841 c61d 2f41 828d 9540 61a9 2441
000000a0: ffd1 f040 adf3 f940 ff37 e440 18d7 6041
000000b0: 2fb1 3a41 1c7f c840 4100 2f41 701e af41
000000c0: 83d1 9641 810b 1541 dc9b 6e41 8286 4d41
000000d0: 7e46 3541 16fb 4041 e0ef 8241 d31b 3641
000000e0: 21c8 2541 324c 5441 f9c5 1e41 e036 4041
000000f0: f5fb b840 5d0d 1041 fb77 0a41 e8d5 dc40
10.216939 14.54959 10.835819 7.697939 9.753405 6.2080564 10.177529 10.449704
10.840354 12.4057865 9.511782 10.603836 9.018884 10.977092 10.247862 9.425244
12.269116 12.674001 6.5827575 9.361913 11.153893 10.620816 10.329601 9.44056
8.637166 15.775795 6.9573708 12.166046 5.2961826 10.520413 7.0927563 4.0534453
6.5641923 7.149812 12.180456 8.369053 11.509883 10.944769 4.673524 10.291352
7.5256343 7.8109956 7.1318355 14.052513 11.668258 6.2655163 10.937562 21.889862
18.8523 9.315309 14.913052 12.845339 11.32971 12.0613 16.367126 11.381793
10.36136 13.268602 9.923333 12.013397 5.7807565 9.0032625 8.654292 6.9011116

layer3.1.bias f4 [64]
00000000: 9122 8d3e 90ce f93d dfd3 ae3e cc27 973d
00000010: 3cd7 4e3f e031 8d3e 2acf 94bb 1db6 ba3e
00000020: af52 813e 36f2 b6be ade3 7ebe 14de 2c3e
00000030: 5bbe 25be dcd0 43be 9f49 abbe d727 f1be
00000040: 6064 acbe 2c03 86bd 8317 af3d e2bc f3be
00000050: ba1c f3be 393b b03e ed51 5c3e 28d7 13bf
00000060: e688 9f3c a453 43bd 23a3 8bbe 109b 5e3e
00000070: 0029 c23e 104f 4abe 16f4 0ebb a897 53bf
00000080: 81aa d0bd ea85 9abe 2ff0 f73e 71a3 70be
00000090: 00e3 a8be ab30 94bd 1d01 13bf 1e1f 0fbf
000000a0: 94d3 82be 0217 983e fa8d b4bd eb38 03be
000000b0: 83b4 e53d 17aa de3e 1f12 a3bd 8028 bb3d
000000c0: a02f c6bd 9eb8 713e e58c 55be a651 213d
000000d0: 9e41 a73e bdd5 2c3e c3bf 1c3e e03b 823d
000000e0: 9444 12be bfd8 703e aa56 da3e 6e47 debc
000000f0: 2f27 88be c875 33bd aef1 edbd 42bd 11be
0.27565435 0.12197602 0.3414602 0.073806375 0.8079717 0.27577114 -0.0045412974 0.36467066
0.25258395 -0.35731667 -0.24891539 0.16881591 -0.16185896 -0.19122642 -0.33454606 -0.47100708
-0.3367033 -0.06543574 0.085494064 -0.47605044 -0.47482854 0.34420183 0.21515627 -0.5775018
0.019474458 -0.047687188 -0.272729 0.21738839 0.37921906 -0.19756722 -0.0021812967 -0.82653284
-0.10188771 -0.30180293 0.48425433 -0.23499848 -0.32985687 -0.07235845 -0.57423574 -0.55906856
-0.25552046 0.29705054 -0.088161424 -0.12814681 0.112160705 0.43489143 -0.07962441 0.09138584
-0.096770525 0.23605582 -0.20854528 0.039384507 0.3266725 0.1687841 0.15307526 0.063590765
-0.14283973 0.23520182 0.42644244 -0.02713367 -0.26592395 -0.043813497 -0.11618362 -0.14232352

layer3.1.running_mean f4 [64]
00000000: 1db3 e2c1 9d1b 1ec1 4285 9d40 b3c0 1e41
00000010: 54ff 5f41 8adc 0d41 d694 24c1 ee72 a4bf
00000020: 0da5 1e42 749d d2c1 b169 87bf ba27 73c1
00000030: e8cf d7c0 120c 0441 0fa2 6541 1e6c 633f
00000040: 56f9 5bc1 419d 7bc1 6ec4 ad41 f46c 57c0
00000050: 2dc7 a0c0 28b3 ffbf 8638 50c1 f8f8 0741
00000060: ab9a 8c41 5a56 2a41 93b7 a440 0056 e33f
00000070: 1bdc c540 0f63 b140 2079 6540 2982 97c0
00000080: 637a f140 0403 61c1 4bd2 bc40 5e3f 08c2
00000090: 9512 b5c1 1c3b dcc1 9f74 653f 36d8 03c2
000000a0: 6ce0 10c0 aeff 4bc0 8cb2 f0bf aee2 9e3f
000000b0: 5d1d 2440 ad25 1ec1 9ea7 27c0 d1f8 42c0
000000c0: 89bd a0c0 b9bb c441 7d5d 1041 fdf7 c0c1
000000d0: 82a7 49c1 efff 60c1 de29 cd40 173b 62c0
000000e0: ec47 8241 5d34 c7c1 eea4 56c1 2dae 86c1
000000f0: d01f 7fc0 fc46 d041 dd00 c13f 4782 ba41
-28.337458 -9.881742 4.922517 9.922046 13.999836 8.866343 -10.286337 -1.2847574
39.661182 -26.326881 -1.057913 -15.197199 -6.744129 8.252947 14.352065 0.8883685
-13.748373 -15.725892 21.720913 -3.366025 -5.0243134 -1.9976549 -13.0138 8.498283
17.575521 10.646082 5.147409 1.776062 6.1831183 5.543342 3.585518 -4.7346387
7.54619 -14.063236 5.9006705 -34.061882 -22.634073 -27.528862 0.89631075 -32.961143
-2.2636976 -3.1874804 -1.8804488 1.2412927 2.5642922 -9.884198 -2.6196055 -3.0464365
-5.0231366 24.591661 9.022824 -24.121088 -12.603395 -14.062484 6.4113607 -3.5348566
16.285118 -24.900568 -13.415266 -16.835047 -3.9863167 26.03466 1.5078388 23.313612

layer3.1.running_var f4 [64]
00000000: 4699 fb41 de4b b342 162f 2b42 7998 0b42
00000010: 32d6 fb42 cadb 3242 54d2 4342 ed07 4742
00000020: c98a c142 09d0 8342 d2bb 8042 1572 0a42
00000030: 97ce 8742 66d1 2b42 86a8 7442 77b5 0042
00000040: f34e 9642 d446 8942 0861 d542 f404 fd42
00000050: 3d7e 8e42 586c 1342 2309 2042 d5e7 0742
00000060: af25 d142 ca78 3642 6793 b442 ddbf 5e42
00000070: d266 a942 5416 b942 88d7 1442 84a7 2b42
00000080: 7a55 6f42 bcb5 ba42 111b 8542 4d56 0242
00000090: c42a 3742 bf0c 0442 e555 5842 aa89 3a42
000000a0: 6d88 6c42 2109 c142 989e 3842 dc20 4f42
000000b0: b21e f841 49ae 7642 89a3 f341 d484 d342
000000c0: 6152 8242 ade3 8242 c5b7 6642 b595 5242
000000d0: eb21 1d43 99dd 5142 dbac 4142 ae0c 6642
000000e0: 6766 1e42 2c09 0c43 d85a 5442 9a77 1942
000000f0: d7d2 3d42 9a60 7d42 eeff 2e42 808f b542
31.44984 89.64818 42.795982 34.8989 125.91835 44.714638 48.9554 49.75774
96.771065 65.90632 64.36684 34.61141 67.903496 42.95449 61.164574 32.17721
75.1542 68.638336 106.689514 126.509674 71.24656 36.855804 40.008923 33.9764
104.5736 45.617958 90.287895 55.687366 84.70082 92.54361 37.21048 42.91359
59.833473 93.35495 66.552864 32.58428 45.791763 33.012447 54.08388 46.634438
59.13323 96.51783 46.154877 51.78209 31.014988 61.6702 30.454851 105.75943
65.1609 65.44468 57.679462 52.6462 157.13249 52.466404 48.418804 57.512383
39.600002 140.03583 53.088715 38.3668 47.4559 63.344337 43.74993 90.78027

layer5.0.weight f4 [10, 64]
00000000: 6bf6 57bf 28a1 643f b9ef 0640 8b42 7cbf
00000010: 2f1e 19c1 f163 bd3f 810a 6e3f 28cd c740
00000020: 3ee9 b040 472f 84c0 9a41 ad40 601e 21bf
00000030: 5612 fabd 72c9 c740 085b a13f f1ae 0d41
00000040: ba19 72c0 38aa 60bf 701b abbf e24b b8bf
00000050: 55dc d740 cbd3 343f 7173 9f40 0edd acbe
00000060: 7e7e 82be 210b 8dc0 90fd f8bf 5b63 ca3f
00000070: b42b 2bbf 990a 3a40 a0fb 1840 aa05 8b3f
00000080: d5d4 7440 7069 063e 9142 3dc1 7a9b 92bf
00000090: 3a62 d5c0 59c6 883b 3bcd 8a3f 6208 08c1
000000a0: fef5 a4c0 3346 ecc0 db10 5f3f 2ee5 b93e
000000b0: 9764 a33d a924 9dbf bd1d 59c0 c3d1 5840
000000c0: 8b0e 6840 c6dd 24c0 6024 17c0 0336 8940
000000d0: c0e0 b5c0 aab2 ddbf 4ac8 ad3f e292 3bc0
000000e0: b13c 453d b0ae 38c1 f16d 93c0 777e 623f
000000f0: 44a9 9b3f 2484 b93f 857f 22c0 f2d0 e040
00000100: 24fc 0e40 4023 4b3f f633 0141 ea00 74c0
00000110: 4a5f 1fbf 45c1 84c0 cdce c940 a9fd e1bf
00000120: 8d83 9b3e 6711 92c0 39c6 93c0 70f0 4ec0
00000130: a11f 8bc0 6ae3 bfbf 3519 c9c0 f032 1440
00000140: 6dd5 43bf d505 4a3f 1771 1d3f af7c 0bc0
00000150: f242 f73f 5280 1f40 6abe 82bf 4cf6 d33e
00000160: ba76 743f 1801 3a3f ce61 86bf 957c 8441
00000170: 8b8e 9b3e 4851 493f b3d6 b63f c7a5 473f
00000180: c20e 4c3f 366f d5bf 05ca f13f 4dc7 b63f
00000190: 88d3 c9be ee92 4840 816b a4bf 5de9 b540
000001a0: 6f04 c6bf 3877 1d40 1b11 0541 5d66 a5be
000001b0: f751 8bbe b40a 4640 c191 b140 2f34 4bbf
000001c0: ddb3 333f 76d4 c040 74be 5040 64bd ba40
000001d0: 6b9d 3a3f a864 f83e cdd7 0ac0 0730 95c0
000001e0: a13c 4cc1 d260 ecc0 63c6 ca40 d7aa 6c40
000001f0: cff0 a240 c236 f6c0 b968 98c0 62c6 8f3f
00000200: 0a7b 57bf d1a7 443f 295d ddc0 deea 0e3e
00000210: f4ad bac0 c38b 69c0 fe44 93c0 ae44 8e40
00000220: d548 0240 8732 853f dc13 1741 5452 0640
00000230: b02b 96bf 9b2d 443e 3a04 2bc1 f16b b2c0
00000240: 00d9 acbe c6dc cb3f 6c47 0ec0 2ea8 1abf
00000250: cc02 c740 2761 dac0 4449 ba3f ff7c 27bf
00000260: 26c1 2fbe 3dd3 76bf 84a9 4d40 7bd4 30bd
00000270: ae8c 7f3f 49ab e7c0 6eca 9940 d49a b33e
00000280: 650b bfbf 1c43 f6bf 0501 40c0 3174 a6bf
00000290: 2190 533e d4a7 8e3f 27b7 cb3c c449 bdbf
000002a0: 4866 4b40 36c1 e43f 6da8 8b3f 992a d940
000002b0: efbd d6be aef7 07c1 a68d f6bc 4b66 2940
000002c0: a0b0 72c0 540a 00be 2207 9a3f 8ebc 89bf
000002d0: b0ff 0ebf f4a3 c23c 2ec1 8cc0 1c3a 06c0
000002e0: 1a5a a5bf 4337 12c0 e692 4740 95ff 9ac0
000002f0: 5c32 5e40 7247 7ec0 67e1 1840 93cc c23f
00000300: b793 26c0 d071 a6bf d8cb 19c0 7dbe 6ebe
00000310: a329 a8c0 86fc 79c0 a1f7 b3bf 2667 b8c0
00000320: 2072 d93f 92e2 97c0 b3e7 73c0 5536 16c0
00000330: 48cb 1cc0 b40f 7dc0 60a6 1640 5c00 af40
00000340: 4199 ab3f faae 4ec0 f8bc 3ebf e35f b5bf
00000350: dc0e c5be 724f 9ac0 84ef 9a3f 791c 5fbf
00000360: 9ac2 ddc0 4ae7 09be 6355 5a40 a8dd 3a3e
00000370: 57df 223e c690 da3f c849 a33f 5941 7740
00000380: 9a3a b83f 851b 7241 597e 8ac0 69b7 e5c0
00000390: cfde 9ec0 a8be fcbf 784d f540 44d3 d840
000003a0: a6e5 a240 7cab 783e 05be 9740 ca7b dbc0
000003b0: 849f b8bf 3090 f2c0 e123 03bf af03 8cc0
000003c0: e25e 9440 a712 7dbf 374e 0ac0 3d54 e5c0
000003d0: 1eeb e3bd bb38 e540 c28b 0941 d543 cc3f
000003e0: c732 78c0 25b8 8dbf 37ec 17c0 a3f5 2c3f
000003f0: ad8e 423f b8d3 653e 0da1 16c0 d863 5140
-0.8436038 0.89308405 2.1083815 -0.98539037 -9.569869 1.4796125 0.9298478 6.2437935
5.528472 -4.130771 5.414258 -0.62936974 -0.122105286 6.2433405 1.2605906 8.85521
-3.7828202 -0.87759733 -1.3367748 -1.4398158 6.745646 0.7063567 4.982842 -0.337624
-0.2548713 -4.4076085 -1.9452381 1.5811571 -0.6686356 2.9068968 2.390358 1.0861104
3.8254902 0.13126159 -11.828752 -1.1453698 -6.6682405 0.0041740355 1.0843881 -8.502047
-5.1550283 -7.3835692 0.87135094 0.36307663 0.0797817 -1.2276813 -3.39244 3.3878028
3.6258876 -2.576036 -2.3615952 4.287843 -5.6836853 -1.7320149 1.3576748 -2.93084
0.048153583 -11.542648 -4.6071706 0.8847422 1.2161031 1.4493451 -2.5390332 7.025506
2.2341394 0.7935066 8.075186 -3.8125558 -0.62254775 -4.1485925 6.306494 -1.7655536
0.30373803 -4.5646243 -4.617947 -3.2334251 -4.347611 -1.4991276 -6.284327 2.315609
-0.76497537 0.7891515 0.61500686 -2.179485 1.9317305 2.492207 -1.021436 0.41398847
0.9549366 0.7265792 -1.0498598 16.560831 0.3038219 0.7863965 1.4284271 0.7798733
0.7971002 -1.6674564 1.8889776 1.4279572 -0.39419198 3.1339679 -1.2845308 5.6847367
-1.5470103 2.4604015 8.316676 -0.3230466 -0.27210972 3.0944033 5.549042 -0.793765
0.70196325 6.025935 3.2616243 5.835619 0.7289645 0.48514295 -2.1694214 -4.6621127
-12.764802 -7.386819 6.336717 3.6979272 5.0918956 -7.6941843 -4.7627835 1.1232417
-0.8417212 0.7681857 -6.917622 0.13956782 -5.8337345 -3.6491554 -4.602172 4.4458838
2.0356953 1.0406045 9.4423485 2.098775 -1.1732082 0.19158022 -10.688532 -5.5756764
-0.33759308 1.592675 -2.2231092 -0.6041287 6.2190914 -6.8243594 1.4553609 -0.65425104
-0.17163524 -0.96416074 3.2134714 -0.043171387 0.99824035 -7.239659 4.8059607 0.35079062
-1.4925352 -1.923923 -3.0000622 -1.3004209 0.2066045 1.1144967 0.024867607 -1.4788136
3.1781178 1.7871463 1.0910774 6.78645 -0.41941783 -8.497969 -0.03009684 2.6468685
-3.7920303 -0.1250394 1.2033427 -1.0760667 -0.558589 0.02375982 -4.3985815 -2.0972967
-1.2918122 -2.284623 3.118341 -4.843699 3.4718237 -3.9731107 2.3887575 1.5218681
-2.6027658 -1.3003483 -2.4030666 -0.23314853 -5.2550826 -3.9060378 -1.4059945 -5.7625914
1.6987953 -4.7464075 -3.8110168 -2.3470662 -2.4499073 -3.9540834 2.3539047 5.468794
1.3406144 -3.2294297 -0.74507093 -1.4169887 -0.384879 -4.822198 1.2104344 -0.8715282
-6.930005 -0.13467136 3.4114616 0.18248618 0.1590551 1.7075431 1.2756891 3.8633635
1.4392884 15.131719 -4.3279233 -7.178639 -4.9646983 -1.9745684 7.6657066 6.7757893
5.0905333 0.24284166 4.7419457 -6.858861 -1.442368 -7.580101 -0.5122662 -4.3754497
4.6365824 -0.98856586 -2.1610239 -7.166533 -0.111288294 7.163175 8.596621 1.5958201
-3.8780992 -1.1071821 -2.3737924 0.6756231 0.75998956 0.22444046 -2.3535798 3.271719

layer5.0.bias f4 [10]
00000000: 7167 0ac0 d37d 5ebf 3a14 7dbf 42e6 5bbf
00000010: 1943 bbbf d048 89bf ac57 6cbf 7999 fbbf
00000020: 5096 8ebe 1a0c 9cbf
-2.1625636 -0.8691074 -0.9885899 -0.8589822 -1.4629852 -1.0725346 -0.92321277 -1.9656211
-0.27849054 -1.2191193
