GSTENG_Datasets/v-net_ks=3_lr=0.005_epoch=200_tanh.pth (torch, 45290 bytes, 20 tensors)

layer1.0.weight f4 [16, 6, 3]
-1.4677112 -2.3338623 -2.8119628 3.5784461 3.4216008 5.656323 0.4688588 0.6095862
0.36658886 -0.8524801 -1.8455112 -1.6637824 1.4142196 1.8592544 1.866239 -0.042250738
0.075193904 0.63911295 0.74671793 0.73608816 -0.5009412 2.3322952 5.1341844 7.94132
-0.27447462 0.10025379 -0.9531551 -1.798462 0.98890615 3.481199 -0.026084147 1.4244269
3.1098862 -0.22304344 -0.49202532 0.6877322 -2.0497851 -0.27047375 0.104809314 -1.1230648
-0.48553142 0.28234798 -0.8262553 0.545608 -0.14277168 -0.4025919 1.3856913 1.596103
-1.5799863 1.6188853 2.084896 -13.018415 -5.1389503 -0.2917834 0.10832526 0.06675101
0.13267036 1.4442551 0.13270532 -0.011937083 -0.10454091 -0.27927178 -0.20040375 0.78499913
1.7663952 1.3811108 1.530837 2.3369691 2.0730348 -6.2418456 -7.146522 -5.6899776
-0.39534348 -0.25112784 0.9851488 -1.0621015 -0.07870536 -10.876102 0.74392277 1.0234817
0.15306221 0.86888725 2.7402267 2.4646633 -0.68866885 -0.14695367 -0.018574653 -2.3841288
-0.86057925 1.2035189 -0.027261544 -0.057725336 0.055612832 0.16735767 -0.1543112 -0.3471445
0.12112135 0.025561918 -0.19536464 -0.5146766 -2.756779 -3.6033337 6.741757 5.65563
6.7971897 -0.5765786 -2.2878075 -2.9177475 -1.180193 -0.52633536 0.079220824 4.4135013
2.688811 2.6852105 -0.4072427 0.51066345 -0.34682766 -0.75338084 -1.4543674 -2.478031
1.7011733 1.9972291 3.7025337 -2.503233 3.0143073 -4.5089235 -0.93205035 -0.08691968
1.0870731 -1.0603365 1.4068048 0.58557796 -0.97481334 -1.8964214 -1.146949 -1.5554811
-1.5998868 -2.7860882 0.6868571 0.8167435 0.38117343 5.4579406 5.2793617 4.394424
-0.65634894 -1.784991 -2.8286023 -0.15636979 -1.7894356 -4.3281407 1.890748 0.6056746
-1.3090602 3.6593964 -1.788819 -3.01782 1.357313 -1.9456927 -1.391142 2.2905297
0.5231373 3.0930293 -1.257098 -2.4324942 -3.0892391 2.4057963 2.3260412 5.1415415
1.9669157 0.04146113 -0.17624426 0.6363154 1.9675239 2.491837 -0.5074051 0.77395386
0.6674315 0.97603476 1.2411579 0.09303142 -0.95045644 -1.0205469 -1.4296923 2.3861654
-0.3225409 6.4877825 -1.344114 -0.7073875 2.2701895 -3.9837933 -2.5496874 -2.3645535
0.38326538 1.2323805 1.0739053 2.0428874 3.4737616 3.5451255 0.22005871 2.1455517
3.0758593 -1.3749532 1.0778432 -1.1584315 -0.57690334 -0.6016353 -0.9112618 -1.5294816
-3.1233842 -2.197287 -0.0068128947 -0.91812134 -0.61281705 6.1153455 4.8657913 1.2973515
0.1332423 -0.20419987 -0.2750651 0.41272324 0.634 0.6564958 0.26837778 0.18862553
0.20898059 2.4197495 3.71459 3.9574602 -2.5665033 -2.2005463 -2.1271124 -3.8939545
-4.4531074 -2.910299 0.4644581 1.3027406 0.90605265 -0.30024827 0.11899916 -4.7359533
1.3523462 -0.23915817 0.47517896 -1.2735276 -2.8643012 -1.7062286 -1.7051154 -4.433705
-3.639148 4.834057 3.1254191 1.6984901 0.009382172 1.4338093 1.2630646 -0.415429
00000000: f6dd bbbf 005e 15c0 33f7 33c0 4305 6540
00000010: 82fb 5a40 9900 b540 430e f03e d70d 1c3f
00000020: 89b1 bb3e 233c 5abf b639 ecbf d2f6 d4bf
00000030: 2605 b53f 0cfc ed3f ebe0 ee3f 1c0f 2dbd
00000040: 43ff 993d e89c 233f e828 3f3f 4670 3c3f
00000050: af3d 00bf 5344 1540 3d4b a440 4b1f fe40
00000060: f087 8cbe dc51 cd3d f901 74bf 0134 e6bf
00000070: f428 7d3f f7cb 5e40 6cae d5bc 9f53 b63f
00000080: 6008 4740 8065 64be beea fbbe 380f 303f
00000090: ae2f 03c0 897b 8abe 44a6 d63d 96c0 8fbf
000000a0: 9397 f8be ea8f 903e 7885 53bf f7ac 0b3f
000000b0: bd32 12be 8720 cebe 555e b13f 1a4d cc3f
000000c0: fe3c cabf a237 cf3f f06e 0540 6e4b 50c1
000000d0: 4872 a4c0 a264 95be a2d9 dd3d c1b4 883d
000000e0: bdda 073e 5add b83f e7e3 073e c193 43bc
000000f0: 8b19 d6bd b6fc 8ebe a436 4dbe b4f5 483f
00000100: 3d19 e23f 3dc8 b03f 78f2 c33f e790 1540
00000110: 9aac 0440 33bd c7c0 4fb0 e4c0 4c14 b6c0
00000120: 766a cabe d493 80be b632 7c3f f1f2 87bf
00000130: 4730 a1bd 8404 2ec1 b971 3e3f 7301 833f
00000140: 57bc 1c3e 656f 5e3f e05f 2f40 0bbd 1d40
00000150: 9a4c 30bf 067b 16be df29 98bc 9195 18c0
00000160: ec4e 5cbf e80c 9a3f 9a53 dfbc 6771 6cbd
00000170: 48ca 633d cf5f 2b3e c103 1ebe edbc b1be
00000180: 780e f83d 3a67 d13c ab0d 48be d8c1 03bf
00000190: 116f 30c0 059d 66c0 79bc d740 ecfa b440
000001a0: 9482 d940 a89a 13bf 706b 12c0 60bc 3ac0
000001b0: 9010 97bf eabd 06bf 873e a23d 673b 8d40
000001c0: 7b15 2c40 7dda 2b40 1d82 d0be d7ba 023f
000001d0: 6593 b1be 91dd 40bf b628 babf 0f98 1ec0
000001e0: 0cc0 d93f 34a5 ff3f 50f6 6c40 f834 20c0
000001f0: 69ea 4040 1a49 90c0 da9a 6ebf f202 b2bd
00000200: 3625 8b3f 1bb9 87bf 2e12 b43f 70e8 153f
00000210: 5e8d 79bf f0bd f2bf 3acf 92bf 011a c7bf
00000220: 17c9 ccbf 454f 32c0 ded5 2f3f 1a16 513f
00000230: 2a29 c33e 73a7 ae40 88f0 a840 1f9f 8c40
00000240: 7c06 28bf 967a e4bf d207 35c0 671f 20be
00000250: 3a0c e5bf 2180 8ac0 0804 f23f 7e0d 1b3f
00000260: 498f a7bf 8d33 6a40 05f8 e4bf f623 41c0
00000270: 6fbc ad3f 750c f9bf f110 b2bf 0a98 1240
00000280: 53ec 053f 31f4 4540 96e8 a0bf fcad 1bc0
00000290: 18b6 45c0 91f8 1940 dcdd 1440 8287 a440
000002a0: e5c3 fb3f 25d3 293d 6079 34be 91e5 223f
000002b0: d3d7 fb3f 427a 1f40 4de5 01bf d721 463f
000002c0: cadc 2a3f 6add 793f 43de 9e3f 4287 be3d
000002d0: 1d51 73bf 48a1 82bf 2800 b7bf efb6 1840
000002e0: 1524 a5be ea9b cf40 ed0b acbf 5917 35bf
000002f0: c94a 1140 78f6 7ec0 142e 23c0 d854 17c0
00000300: 5c3b c43e a5be 9d3f bb75 893f abbe 0240
00000310: 1c52 5e40 56e3 6240 1257 613e b850 0940
00000320: e1da 4440 77fe afbf c4f6 893f 7c47 94bf
00000330: f0af 13bf c504 1abf 7448 69bf 0ec6 c3bf
00000340: 87e5 47c0 5aa0 0cc0 b43e dfbb 000a 6bbf
00000350: 94e1 1cbf e9b0 c340 90b4 9b40 9d0f a63f
00000360: ab70 083e c519 51be 55d5 8cbe 7650 d33e
00000370: d34d 223f 1c10 283f d068 893e 0d27 413e
00000380: 02ff 553e 2ddd 1a40 d8bb 6d40 0747 7d40
00000390: 9741 24c0 c0d5 0cc0 9c22 08c0 8d36 79c0
000003a0: db7f 8ec0 5742 3ac0 74cd ed3e 34c0 a63f
000003b0: 11f3 673f 24ba 99be d5b5 f33d ee8c 97c0
000003c0: ae19 ad3f e1e5 74be a84a f33e f402 a3bf
000003d0: b650 37c0 b365 dabf 3941 dabf e9e0 8dc0
000003e0: cde7 68c0 98b0 9a40 de06 4840 2068 d93f
000003f0: aeb7 193c 1087 b73f 1aac a13f 1cb3 d4be

layer1.0.bias f4 [16]
-3.2242095 5.8923917 1.0158799 -3.146716 -5.323619 7.6513934 -0.015369413 -2.4501698
0.3904205 -0.89040875 -1.7978683 2.1293888 -3.4195545 0.478612 -0.97903824 -1.0407965
00000000: 7359 4ec0 798e bc40 5a08 823f cc63 49c0
00000010: 165b aac0 37d8 f440 fecf 7bbc 95cf 1cc0
00000020: 32e5 c73e d4f1 63bf 8c20 e6bf e847 0840
00000030: fbd9 5ac0 a20c f53e 40a2 7abf d238 85bf

layer1.1.weight f4 [16]
3.020284 2.109458 1.5651085 3.2011867 4.018348 2.468048 1.3990813 1.7559776
2.5768492 0.84085083 1.127499 2.0992653 0.97870505 1.152239 4.7153826 1.4185388
00000000: 554c 4140 5c01 0740 7a55 c83f 3ee0 4c40
00000010: 4f96 8040 80f4 1d40 1915 b33f e0c3 e03f
00000020: 19eb 2440 0042 573f e351 903f 5d5a 0640
00000030: 6a8c 7a3f 917c 933f 6ae4 9640 ae92 b53f

layer1.1.bias f4 [16]
3.6931427 -2.1014948 -0.9917695 3.3195662 -1.1800807 4.0039234 -4.347143 4.3987317
-1.4137329 -1.0767324 3.272716 -4.8608103 -0.5048451 -0.8838795 1.9410512 5.1224422
00000000: 735c 6c40 e47e 06c0 9be4 7dbf c673 5440
00000010: e20c 97bf 2420 8040 cc1b 8bc0 69c2 8c40
00000020: 33f5 b4bf 5ed2 89bf 2e74 5140 c28b 9bc0
00000030: 873d 01bf ed45 62bf 5e74 f83f 0ceb a340

layer1.1.running_mean f4 [16]
-2.9170575 5.6330485 1.2293652 -3.178979 -5.660474 7.596731 0.18559308 -2.3989162
0.5443706 -1.0235685 -1.4223841 2.1724603 -3.5695348 0.78032595 -1.2995726 -0.7716827
00000000: 12b1 3ac0 ef41 b440 d75b 9d3f 6474 4bc0
00000010: 9a22 b5c0 6c18 f340 1d0c 3e3e d887 19c0
00000020: df5b 0b3f 4b04 83bf af10 b6bf 9709 0b40
00000030: 4273 64c0 71c3 473f 6558 a6bf ff8c 45bf

layer1.1.running_var f4 [16]
0.037430417 0.1073997 0.06156365 0.026006034 0.102686256 0.013869399 0.030502973 0.044683777
0.10660545 0.09971625 0.044413615 0.03920893 0.02260825 0.07056625 0.10006074 0.043180156
00000000: a350 193d 60f4 db3d 2a2a 7c3d 9b0a d53c
00000010: 2c4d d23d 7a3c 633c 5fe1 f93c 5606 373d
00000020: f553 da3d 0938 cc3d 0deb 353d 8b99 203d
00000030: f034 b93c 0a85 903d a5ec cc3d addd 303d

layer2.0.weight f4 [32, 16, 3]
0.81678367 -1.627937 -2.498008 1.1824021 1.2466626 1.1944053 0.61668783 0.48595515
1.3115747 1.6378397 -0.77631843 -2.509185 -0.1777435 0.009430467 -1.0274162 -1.529483
-1.1446754 -2.965621 -4.3924522 -4.1261945 -3.1957443 6.6074724 4.85132 4.92826
-0.15628079 -0.8567639 -1.1333737 -1.7324989 -0.36376074 -1.3902488 -6.7693086 -7.501838
-9.838624 -3.455754 -1.7480193 -0.97938025 -2.142891 -2.6561043 -0.6331871 1.9261268
1.4616737 1.419501 -1.1648962 -0.59882635 0.6214761 -19.451326 -21.054178 -22.431524
1.315869 -0.9100673 -3.455315 -0.10249493 0.4075708 0.33594152 6.420044 2.3873966
-0.021956436 2.2776902 0.7460509 4.5432773 1.4888176 0.62035704 0.46834502 3.4519343
6.8502846 5.2044296 -6.7861853 -7.0205317 -3.517306 -1.9203378 -0.52791625 2.5484533
1.0223905 -0.48260424 0.90193176 2.0277379 1.4296322 -1.9727412 4.936092 2.4406977
-0.30939716 1.9078306 -3.6958253 -3.7969718 0.6226852 2.4646444 3.4013085 0.55548054
-1.3446114 1.0203001 -0.46909037 1.2738602 1.3289398 -4.137173 -4.119336 -2.650315
-2.9034262 -3.185612 -1.1241572 4.7497416 2.933364 0.28748462 -1.2075467 0.07745044
0.8594135 -1.0996034 3.1988823 2.300572 0.885318 2.7066076 3.2773647 3.3292794
1.8068676 -4.551638 3.5052013 -2.0636084 -3.3568478 -0.5806289 1.2524534 0.4234248
-1.0388771 -0.2240405 1.0501926 2.2207768 1.2753643 -1.160372 1.0345174 2.7651458
2.6658752 5.125146 5.433676 7.827286 4.0681643 5.2512674 3.3394175 -1.8793027
-0.5252547 1.0232276 2.4144194 0.7556245 -0.6462747 6.812253 5.724304 8.397573
-0.3052546 -0.83486176 -1.3108675 0.76356834 0.45689183 -0.047402043 0.59036934 0.11219312
0.7038991 0.72853 1.4561871 1.6503161 -1.0749851 -0.18543261 -0.7346096 0.3149164
0.45571434 -0.14414774 0.70130324 -0.061796803 -0.58529925 -0.92142004 -0.7697566 -0.9659245
0.73128694 0.774661 0.3676313 -1.241079 -1.371017 -1.3254702 -1.0317856 -1.3102204
-0.9133696 0.09032416 0.32286823 0.647649 -1.2017554 -0.49395028 0.24269971 1.5292377
1.7663519 1.5465636 -0.71422803 -0.8655897 -0.49056455 -0.33409393 -0.053601112 -0.87576264
-0.39400446 0.6466406 1.3433235 0.19091235 -0.120590724 -0.76059234 0.68276405 -0.37831467
-1.1121887 -1.866344 -2.526674 -1.9820284 2.3058496 0.5872208 -0.058706637 -0.0003939282
0.27917928 0.13428025 -0.05893432 -0.39788157 -0.5296243 0.4164859 0.56446517 0.31765822
0.7043892 0.2875576 -0.07278112 -0.27273977 0.47436154 1.2881558 -0.94409144 -0.055099037
0.78849876 -1.357385 -1.2650999 -0.3018669 -0.57237536 -0.9983036 -1.062665 -0.9049033
-1.7404342 -1.2851026 -1.2063748 -0.5767292 0.39731994 -1.2847382 -0.5442977 0.59288603
1.978702 2.319868 1.1853008 -1.8791858 -0.48679352 -0.3331438 -1.4357338 0.11391595
-0.98890024 -2.2679389 -2.177322 -3.1069045 1.1890209 0.52788085 0.3889986 -0.031506207
00000000: bc18 513f 3d60 d0bf 5ddf 1fc0 f458 973f
00000010: a492 9f3f 46e2 983f 41df 1d3f 1dcf f83e
00000020: aee1 a73f bba4 d13f cebc 46bf 7d96 20c0
00000030: 6402 36be 3f82 1a3c 6082 83bf 19c6 c3bf
00000040: b984 92bf bccc 3dc0 f88e 8cc0 c909 84c0
00000050: 1387 4cc0 6a70 d340 033e 9b40 4eb4 9d40
00000060: 1208 20be e154 5bbf 6412 91bf 86c2 ddbf
00000070: d93e babe acf3 b1bf 2d9e d8c0 0f0f f0c0
00000080: 016b 1dc1 132b 5dc0 19bf dfbf aab8 7abf
00000090: 2025 09c0 9dfd 29c0 8d18 22bf 538b f63f
000000a0: 2018 bb3f 35b2 b53f 521b 95bf af4c 19bf
000000b0: 0f19 1f3f 519c 9bc1 f56e a8c1 c373 b3c1
000000c0: 656e a83f 2cfa 68bf e223 5dc0 dde8 d1bd
000000d0: 1fad d03e 8700 ac3e 0071 cd40 1bcb 1840
000000e0: fcdd b3bc adc5 1140 31fd 3e3f 8762 9140
000000f0: 9391 be3f b8cf 1e3f ebca ef3e 7eec 5c40
00000100: 8835 db40 b08a a640 6e28 d9c0 32a8 e0c0
00000110: 8b1b 61c0 a1cd f5bf 8525 07bf dc19 2340
00000120: b1dd 823f e717 f7be 00e5 663f 75c6 0140
00000130: 30fe b63f c982 fcbf 77f4 9d40 6434 1c40
00000140: 4e69 9ebe cb33 f43f 6788 6cc0 9601 73c0
00000150: 4c68 1f3f bcbc 1d40 0aaf 5940 f933 0e3f
00000160: 3a1c acbf 3299 823f 9d2c f0be da0d a33f
00000170: b31a aa3f b963 84c0 9ad1 83c0 c39e 29c0
00000180: bcd1 39c0 11e1 4bc0 62e4 8fbf e2fd 9740
00000190: 3cbc 3b40 2f31 933e e490 9abf 569e 9e3d
000001a0: 8602 5c3f cebf 8cbf 7dba 4c40 923c 1340
000001b0: 33a4 623f 0f39 2d40 58c0 5140 ea12 5540
000001c0: 7047 e73f 05a7 91c0 3855 6040 2912 04c0
000001d0: 98d6 56c0 18a4 14bf 6550 a03f 23cb d83e
000001e0: edf9 84bf df6a 65be b66c 863f 3521 0e40
000001f0: 233f a33f 1287 94bf 116b 843f 26f8 3040
00000200: b39d 2a40 3201 a440 ace0 ad40 2079 fa40
00000210: 672e 8240 620a a840 04b9 5540 fe8c f0bf
00000220: 1877 06bf 1ff9 823f d985 1a40 9b70 413f
00000230: 4272 25bf fafd d940 802d b740 765c 0641
00000240: 554a 9cbe 80b9 55bf 82ca a7bf 3779 433f
00000250: baed e93e a528 42bd 7222 173f 82c5 e53d
00000260: bb32 343f f180 3a3f 5764 ba3f 8f3d d33f
00000270: 1d99 89bf 0ce2 3dbe 600f 3cbf b93c a13e
00000280: 6453 e93e 779b 13be 9c88 333f a51e 7dbd
00000290: 2cd6 15bf 2fe2 6bbf c50e 45bf d446 77bf
000002a0: 9f35 3b3f 2f50 463f 2b3a bc3e addb 9ebf
000002b0: 7c7d afbf 02a9 a9bf 8d11 84bf 4db5 a7bf
000002c0: 97d2 69bf e0fb b83d fc4e a53e 53cc 253f
000002d0: 1fd3 99bf 0de7 fcbe 4686 783e 10be c33f
000002e0: d217 e23f ccf5 c53f a6d7 36bf 4997 5dbf
000002f0: 472b fbbe 5c0e abbe d78c 5bbd fb31 60bf
00000300: f4ba c9be 3d8a 253f 06f2 ab3f 877e 433e
00000310: 45f8 f6bd 2eb6 42bf a0c9 2e3f 76b2 c1be
00000320: 335c 8ebf 5ce4 eebf 07b5 21c0 1bb3 fdbf
00000330: 0a93 1340 1a54 163f 5f76 70bd 2688 ceb9
00000340: 96f0 8e3e c380 093e 1d65 71bd 22b7 cbbe
00000350: 7595 07bf a43d d53e ca80 103f 19a4 a23e
00000360: da52 343f c03a 933e 450e 95bd 8ca4 8bbe
00000370: 84df f23e 4ae2 a43f faaf 71bf 87af 61bd
00000380: 0edb 493f cbbe adbf cbee a1bf 4c8e 9abe
00000390: 3187 12bf d390 7fbf 6805 88bf bea7 67bf
000003a0: 8cc6 debf 3e7e a4bf 7d6a 9abf 86a4 13bf
000003b0: 856d cb3e 4d72 a4bf 1857 0bbf 61c7 173f
000003c0: 1b46 fd3f b878 1440 f0b7 973f 2989 f0bf
000003d0: 003d f9be d391 aabe 20c6 b7bf c44c e93d
000003e0: 9128 7dbf e925 11c0 3e59 0bc0 86d7 46c0
000003f0: d631 983f 3323 073f d32a c73e a70c 01bd

layer2.0.bias f4 [32]
0.1769613 0.18393533 0.21616137 -0.05350415 0.06713937 0.01619652 -0.40721357 -0.010739979
0.15188852 -0.23279086 -0.4468335 -0.057906866 -0.1998301 0.35038406 0.11457374 0.11225076
-0.030090388 0.07219396 0.23760898 -0.1311317 -0.05300967 0.039808203 0.19481874 -0.030871253
0.031169526 -0.40089607 0.13093582 0.061212044 0.06992657 -0.23939237 -0.0056166733 0.7694206
00000000: 5835 353e 8b59 3c3e 6859 5d3e 2b27 5bbd
00000010: 5e80 893d 90ae 843c 4c7e d0be bdf6 2fbc
00000020: aa88 1b3e ba60 6ebe 5cc7 e4be c02f 6dbd
00000030: 43a0 4cbe 8a65 b33e a3a5 ea3d bae3 e53d
00000040: 1e80 f6bc 6dda 933d c54f 733e 6347 06be
00000050: ab20 59bd ed0d 233d 907e 473e b6e5 fcbc
00000060: 3c57 ff3c 4042 cdbe 0a14 063e 7bb9 7a3d
00000070: a935 8f3d 4623 75be 120c b8bb c0f8 443f

layer2.1.weight f4 [32]
2.4336321 1.7243823 2.5636945 0.061205674 0.13441987 2.083404 5.365325 10.308956
3.6898785 1.3109909 2.7212915 5.513812 2.069447 1.3377386 1.6863005 2.329518
2.3547919 2.547972 2.0118656 1.1984667 1.564196 2.2411335 1.4165714 -2.5006945
1.7795453 8.9157915 1.4861364 1.8070145 3.5076742 4.06059 5.657763 5.162946
00000000: a1c0 1b40 8fb8 dc3f 9213 2440 cdb2 7a3d
00000010: 5da5 093e 7e56 0540 beb0 ab40 7cf1 2441
00000020: f826 6c40 8dce a73f a429 2e40 2671 b040
00000030: d271 0440 053b ab3f b2d8 d73f d316 1540
00000040: e9b4 1640 f911 2340 68c2 0040 5b67 993f
00000050: 9337 c83f bb6e 0f40 3652 b53f 610b 20c0
00000060: 24c8 e33f 15a7 0e41 b839 be3f 404c e73f
00000070: bc7d 6040 5af0 8140 650c b540 db36 a540

layer2.1.bias f4 [32]
-2.6743188 -1.3436091 2.4989886 8.168566 7.99972 -5.1647334 -0.29991573 -0.15958257
-0.19580603 -6.456411 2.6945662 -0.71402556 4.041891 -3.416613 0.7349041 2.4594967
-2.2872267 0.5738166 -1.0820386 -1.1725559 0.50816464 2.614584 4.284934 -5.869209
5.5130506 0.012708914 -3.8623676 -6.2387066 1.1507964 -1.0276855 -0.22897208 -0.849279
00000000: 0a28 2bc0 62fb abbf 6eef 1f40 72b2 0241
00000010: b5fd ff40 7f45 a5c0 8e8e 99be 9d69 23be
00000020: 6081 48be eb9a cec0 c673 2c40 61ca 36bf
00000030: 2c57 8140 caa9 5ac0 ad22 3c3f 6568 1d40
00000040: ec61 12c0 a5e5 123f 3e80 8abf 5016 96bf
00000050: 1417 023f 5855 2740 2e1e 8940 8fd0 bbc0
00000060: e96a b040 0c39 503c 0831 77c0 7ca3 c7c0
00000070: 4c4d 933f 338b 83bf a877 6abe 596a 59bf

layer2.1.running_mean f4 [32]
-62.33337 27.873426 0.070604764 -8.784628 1.4354663 6.970021 -61.61984 18.956808
34.966232 -15.080765 -166.10832 26.904564 6.899638 -55.332336 4.2533 32.5675
23.710659 -28.621384 -54.77739 83.39468 13.266791 -6.9284554 26.99464 8.3431
-19.085518 19.436794 -10.165493 7.2844586 -8.972656 -35.16892 -18.352396 -6.8861585
00000000: 5f55 79c2 c7fc de41 3b99 903d d68d 0cc1
00000010: 5cbd b73f 690a df40 b77a 76c2 8ba7 9741
00000020: 6cdd 0b42 d04a 71c1 bb1b 26c3 8c3c d741
00000030: d6c9 dc40 5054 5dc2 091b 8840 1f45 0242
00000040: 6eaf bd41 98f8 e4c1 0c1c 5bc2 13ca a642
00000050: c744 5441 e8b5 ddc0 06f5 d741 567d 0541
00000060: 24af 98c1 8e7e 9b41 dca5 22c1 491a e940
00000070: 0090 0fc1 f9ac 0cc2 b5d1 92c1 695b dcc0

layer2.1.running_var f4 [32]
52.95194 78.19466 155.90126 36.450256 56.581448 200.14017 126.38265 146.0282
106.158424 111.147026 108.68239 248.74599 81.02369 55.34229 135.05186 74.69493
293.83746 29.316721 85.207306 112.23819 300.66245 60.649345 84.688965 54.499527
63.90274 87.51726 56.61415 41.47302 293.6474 189.87555 357.84277 84.3087
00000000: c9ce 5342 aa63 9c42 b9e6 1b43 10cd 1142
00000010: 6753 6242 e223 4843 ebc3 fc42 3807 1243
00000020: 1d51 d442 474b de42 625d d942 f9be 7843
00000030: 210c a242 815e 5d42 470d 0743 ce63 9542
00000040: 32eb 9243 a588 ea41 246a aa42 f479 e042
00000050: cb54 9643 ee98 7242 c060 a942 84ff 5942
00000060: 689c 7f42 d608 af42 e474 6242 5fe4 2542
00000070: ded2 9243 24e0 3d43 e0eb b243 0e9e a842

layer3.0.weight f4 [64, 32, 3]
6.703328 4.841174 2.1859899 -0.046657912 -1.2042189 -2.1772223 0.8421436 -1.8877815
-2.5606265 -0.6191382 -0.4289278 -0.722578 -0.16947743 0.008938331 0.27305362 -2.7610264
-5.161153 -4.434805 -1.4190099 -1.2351675 -1.387659 -0.16804738 -0.93301183 -1.9055734
-3.9497297 -2.4491503 -1.2348254 -0.56711096 -0.8214907 -1.4015682 -1.5731444 0.3843095
2.3068137 1.4613218 2.3401866 2.8958347 1.1508855 -1.6702694 -7.088761 -2.269386
-2.8521073 -1.5231735 1.6522397 3.1682062 2.6437976 0.60258657 -0.7279319 -0.9205586
0.48578423 -0.8605519 -2.0521963 0.03604772 0.5258291 0.1748718 4.304549 3.417301
1.1641093 -0.6921574 -2.2015507 -1.7202276 0.112772614 -1.6359777 -2.9185212 -0.91905564
-1.637291 -1.4476591 1.5742729 -2.978279 -7.7257013 3.4081745 1.7800716 1.9423842
1.6977121 1.3498269 -0.5682654 2.546039 3.887545 2.0134876 -2.9598665 -1.6873757
-1.8663968 -9.254567 -9.11072 -7.941863 -1.3360832 -1.1539539 -2.009765 1.4879004
1.331142 0.44252494 -3.621033 -3.7142386 -2.2673688 -4.590387 -3.3939867 -1.1614563
-4.1672425 -0.82834125 2.0354867 1.5739516 1.3269202 2.1409602 1.5139502 -0.24703598
-0.86716044 1.2267429 0.55327946 0.42974982 -0.61600727 -0.16599183 -0.12032991 0.6098615
0.5354943 2.035764 -1.2298027 -4.413317 -3.3809006 0.3956222 -0.6176649 -1.3301
-0.6722096 -4.107396 -3.1512833 -1.0152256 -0.21355794 0.30742726 -3.510746 -0.83455074
-0.22612073 1.6132268 2.706247 1.4371343 -10.193196 -8.717261 -8.750944 3.3104222
0.42863712 1.5353746 -6.0533185 -3.1611133 -2.3654406 -0.4820138 -1.965728 -1.5851935
3.1034913 1.9736236 1.8223981 2.4157104 3.409059 2.7686987 1.375481 -0.16863166
1.1918333 0.52409935 -0.5692181 -2.3788278 0.96918243 1.4247003 -0.026250536 1.5878654
-0.85981786 -4.020862 1.9001498 1.3810376 1.4041345 1.7188864 -0.10734969 -0.7703904
-2.2625554 -0.19188946 0.0680133 0.19875795 2.664349 2.54258 -2.6172078 -2.388834
-2.3947952 3.5827274 2.831489 2.1805806 2.077686 1.6965783 1.7800779 -0.48824576
1.9665128 2.1350951 2.2251973 3.5774732 3.0789661 -2.9042604 -4.0643277 -1.1456774
-4.8434134 -4.842396 -3.4916775 3.6553285 4.507451 2.3378112 0.61832184 0.301607
-1.4590017 -0.35644248 -0.8312535 -0.6475348 -0.013149227 0.4771535 0.34530184 0.22578092
-0.7516051 0.4314775 -1.284431 -0.93430585 -2.2218332 -0.044729013 -0.97620124 -1.6844902
-3.9423327 -2.9630716 -1.0313901 6.535034 7.0223613 4.6439934 -5.507923 -3.3529818
-2.5365872 1.5752267 1.3403199 2.5564487 -10.516504 -11.731901 -9.973744 8.039275
4.97548 2.074108 -2.4742203 -1.1701149 -0.69902027 2.9493637 1.5427433 1.659346
2.2967181 1.7857418 2.454102 2.6985462 3.46953 0.9339983 -1.8035581 -1.0093768
-0.86643875 -4.0971847 -3.8212168 -3.7856634 0.87755805 1.0391606 0.79349905 1.1098068
00000000: aa81 d640 e6ea 9a40 42e7 0b40 5e1c 3fbd
00000010: d823 9abf 9c57 0bc0 b996 573f d3a2 f1bf
00000020: 4ee1 23c0 d77f 1ebf 6d9c dbbe dffa 38bf
00000030: 7e8b 2dbe 1472 123c afcd 8b3e a8b4 30c0
00000040: 2a28 a5c0 ece9 8dc0 1ea2 b5bf f819 9ebf
00000050: cf9e b1bf 9d14 2cbe ddd9 6ebf d4e9 f3bf
00000060: 5fc8 7cc0 e1be 1cc0 c20e 9ebf 2f2e 11bf
00000070: 374d 52bf 9666 b3bf cc5c c9bf 37c4 c43e
00000080: d6a2 1340 980c bb3f 9ec5 1540 5b55 3940
00000090: 3750 933f 63cb d5bf 21d7 e2c0 9f3d 11c0
000000a0: ed88 36c0 59f7 c2bf 977c d33f e4c3 4a40
000000b0: fb33 2940 1d43 1a3f bf59 3abf baa9 6bbf
000000c0: b6b8 f83e 214d 5cbf 2f57 03c0 c6a6 133d
000000d0: bc9c 063f 9811 333e debe 8940 0fb5 5a40
000000e0: 8901 953f 3a31 31bf 35e6 0cc0 6b30 dcbf
000000f0: 54f5 e63d b867 d1bf 0dc9 3ac0 3b47 6bbf
00000100: c092 d1bf e54c b9bf c681 c93f 209c 3ec0
00000110: f238 f7c0 881f 5a40 63d9 e33f 0ca0 f83f
00000120: a14e d93f 21c7 ac3f d779 11bf 4ef2 2240
00000130: 8acd 7840 fbdc 0040 746e 3dc0 edfb d7bf
00000140: 17e6 eebf b512 14c1 82c5 11c1 be23 fec0
00000150: c604 abbf c3b4 93bf fd9f 00c0 8573 be3f
00000160: dc62 aa3f a192 e23e 01bf 67c0 16b6 6dc0
00000170: 921c 11c0 73e4 92c0 1437 59c0 9aaa 94bf
00000180: 0d5a 85c0 2c0e 54bf 6a45 0240 3f77 c93f
00000190: 85d8 a93f 7e05 0940 1fc9 c13f 00f7 7cbe
000001a0: 3afe 5dbf e905 9d3f b9a3 0d3f 2b08 dc3e
000001b0: a7b2 1dbf c3f9 29be 876f f6bd e21f 1c3f
000001c0: 2816 093f f549 0240 2d6a 9dbf e539 8dc0
000001d0: ad60 58c0 fe8e ca3e 491f 1ebf b840 aabf
000001e0: ee15 2cbf ca6f 83c0 a0ae 49c0 eaf2 81bf
000001f0: efae 5abe 1b67 9d3e 10b0 60c0 1ea5 55bf
00000200: 318c 67be 377e ce3f 2733 2d40 04f4 b73f
00000210: 5517 23c1 e779 0bc1 de03 0cc1 f5dd 5340
00000220: 5376 db3e 2887 c43f c9b4 c1c0 ae4f 4ac0
00000230: 6163 17c0 83ca f6be fa9c fbbf 9fe7 cabf
00000240: 9a9f 4640 b39f fc3f 5744 e93f 009b 1a40
00000250: 062e 5a40 5c32 3140 c30f b03f c7ad 2cbe
00000260: fe8d 983f 602b 063f 47b8 11bf b73e 18c0
00000270: 571c 783f 945c b63f 5d0b d7bc 2c3f cb3f
00000280: 061d 5cbf e7aa 80c0 1c38 f33f d7c5 b03f
00000290: aeba b33f 7804 dc3f 27da dbbd 4e38 45bf
000002a0: b5cd 10c0 ac7e 44be 8f4a 8b3d 3487 4b3e
000002b0: b284 2a40 a1b9 2240 5580 27c0 a8e2 18c0
000002c0: 5344 19c0 684b 6540 1e37 3540 a28e 0b40
000002d0: cff8 0440 7a29 d93f 98d9 e33f 59fb f9be
000002e0: b1b6 fb3f 66a5 0840 a269 0e40 52f5 6440
000002f0: c80d 4540 67df 39c0 f90e 82c0 8fa5 92bf
00000300: 3efd 9ac0 e8f4 9ac0 a577 5fc0 e7f0 6940
00000310: 0a3d 9040 b39e 1540 574a 1e3f 3c6c 9a3e
00000320: 91c0 babf a17f b6be 08cd 54bf d7c4 25bf
00000330: db6f 57bc 774d f43e 67cb b03e 1d33 673e
00000340: 3169 40bf 9eea dc3e 3c68 a4bf ab2e 6fbf
00000350: 8432 0ec0 c535 37bd 53e8 79bf 609d d7bf
00000360: 2e4f 7cc0 f7a2 3dc0 9704 84bf 001f d140
00000370: 2fb7 e040 989b 9440 e840 b0c0 4197 56c0
00000380: 7257 22c0 07a1 c93f 9a8f ab3f db9c 2340
00000390: 9a43 28c1 deb5 3bc1 7594 1fc1 dfa0 0041
000003a0: 2237 9f40 2fbe 0440 a059 1ec0 53c6 95bf
000003b0: fef2 32bf 60c2 3c40 9d78 c53f 7365 d43f
000003c0: 6efd 1240 3093 e43f 0210 1d40 fbb4 2c40
000003d0: c80c 5e40 831a 6f3f feda e6bf 4233 81bf
000003e0: eece 5dbf 231c 83c0 d18e 74c0 4f48 72c0
000003f0: a5a7 603f 3703 853f c122 4b3f 260e 8e3f

layer3.0.bias f4 [64]
-0.10882898 -0.011568769 -0.26848885 -0.070842154 -0.103099056 -0.1743886 -0.022994567 0.025184814
0.019688014 -0.118588634 0.05728688 0.01758841 0.005455417 -0.011394455 0.3968642 -0.04368426
-0.11986886 0.080586895 -0.04568683 0.13728754 -0.4160344 -0.12295046 -0.059466794 -0.040663473
-0.036305573 -0.1353299 -0.24248694 -0.041680675 -0.07083046 0.2501709 -0.06814765 -0.012020025
0.09202408 0.12957425 -0.047932755 0.16578649 -0.019026624 -0.2537579 0.09933277 0.2042649
0.15179968 -0.18669643 -0.13754833 -0.18150717 -0.12752472 -0.011704364 -0.0918585 -0.051807612
0.21155222 0.14706688 -0.28270322 0.18779165 -0.100764245 0.18701749 0.016216518 0.04473423
-0.035300095 -0.032585453 0.3244246 0.16546898 0.09054952 -0.05172333 -0.11630871 0.13383809
00000000: bae1 debd ef8a 3dbc 5f77 89be b115 91bd
00000010: 9925 d3bd ed92 32be 1a5f bcbc 6250 ce3c
00000020: c248 a13c 99de f2bd a6a5 6a3d 9215 903c
00000030: 5bc3 b23b cfaf 3abc c931 cb3e 44ee 32bd
00000040: ce7d f5bd be0a a53d 1d22 3bbd 1b95 0c3e
00000050: 7602 d5be 73cd fbbd 7493 73bd be8e 26bd
00000060: 27b5 14bd ec93 0abe 7f4e 78be 5bb9 2abd
00000070: 8f0f 91bd 6616 803e ff90 8bbd a4ef 44bc
00000080: 1f77 bc3d 1daf 043e 2355 44bd efc3 293e
00000090: b9dd 9bbc 8eec 81be fb6e cb3d d12a 513e
000000a0: 6071 1b3e 592d 3fbe 78d9 0cbe 04dd 39be
000000b0: d795 02be a9c3 3fbc 4f20 bcbd 3834 54bd
000000c0: 25a1 583e b398 163e 7abe 90be 744c 403e
000000d0: 7c5d cebd 8381 3f3e 81d8 843c 3d3b 373d
000000e0: d596 10bd 5378 05bd fb1a a63e b370 293e
000000f0: 0772 b93d d8db 53bd 4333 eebd da0c 093e

layer3.1.weight f4 [64]
14.783781 32.03917 17.100035 26.32291 10.759718 27.082647 27.305088 20.834305
11.116539 27.182589 15.341798 30.313128 25.258015 14.868504 12.072694 17.672379
7.873689 20.153826 18.335106 40.255665 17.347189 11.129116 23.147038 32.450623
29.75283 35.406784 29.180805 13.53936 28.861437 33.765907 11.737509 11.140407
21.36373 32.5481 7.054615 19.576786 24.214674 28.646832 29.762177 32.865814
20.977621 14.157815 12.212469 16.650297 32.39321 13.508212 23.262268 25.905546
35.62952 23.700968 30.00195 26.4259 9.4738865 11.320413 14.511978 17.310923
15.82977 37.233498 19.686804 18.31871 8.799974 8.845935 15.849079 14.236727
00000000: 5e8a 6c41 1c28 0042 dfcc 8841 5295 d241
00000010: ce27 2c41 43a9 d841 d270 da41 a8ac a641
00000020: 58dd 3141 f175 d941 0178 7541 4981 f241
00000030: 6a10 ca41 64e5 6d41 c129 4141 0861 8d41
00000040: 43f5 fb40 093b a141 4cae 9241 cd05 2142
00000050: 0bc7 8a41 dc10 3241 222d b941 70cd 0142
00000060: cc05 ee41 8ca0 0d42 4a72 e941 38a1 5841
00000070: 39e4 e641 4a10 0742 d6cc 3b41 1b3f 3241
00000080: ebe8 aa41 4131 0242 68bf e140 429d 9c41
00000090: a7b7 c141 b62c e541 f018 ee41 9876 0342
000000a0: 2bd2 a741 6986 6241 4666 4341 cf33 8541
000000b0: a692 0142 a321 5841 2019 ba41 8f3e cf41
000000c0: a184 0e42 959b bd41 fe03 f041 3e68 d341
000000d0: 0a95 1741 6920 3541 1031 6841 c57c 8a41
000000e0: bd46 7d41 1aef 1442 937e 9d41 b88c 9241
000000f0: b2cc 0c41 f388 0d41 d495 7d41 a2c9 6341

layer3.1.bias f4 [64]
-0.27324262 0.23922221 1.1915717 0.23047689 0.66042435 -0.4373285 1.0425036 -0.36353022
-0.3104857 0.3473297 0.71284866 -0.21381588 -1.3431193 0.27990082 1.2427347 -1.3932743
0.5694914 -0.40724105 -0.25816932 -0.16772793 0.9756758 1.1626182 0.33816335 0.13842744
-0.10224385 -0.009130064 0.26100907 0.6170752 0.18776317 0.023424104 -0.5180907 0.4095483
-0.20790046 0.6022403 1.4209805 0.45515674 -0.36655027 0.23356573 0.3228227 0.2808572
0.7245507 0.4145818 1.5301397 -1.1668637 -0.20569363 0.05774125 -0.34870198 0.05214006
-0.23451167 0.5033261 0.07364057 -0.04945889 0.8126704 -0.615458 0.0718848 -0.49024487
1.0519836 -0.03995036 0.32261005 -1.0026976 -0.30673304 0.74125886 -0.38552737 0.76959854
00000000: 75e6 8bbe abf6 743e 6c85 983f 2202 6c3e
00000010: 9211 293f 85e9 dfbe c270 853f a220 babe
00000020: fbf7 9ebe 33d5 b13e 407d 363f 8df2 5abe
00000030: 55eb abbf 294f 8f3e ee11 9f3f d056 b2bf
00000040: 30ca 113f e681 d0be c52e 84be dfc0 2bbe
00000050: e4c5 793f acd0 943f bf23 ad3e ecbf 0d3e
00000060: 3965 d1bd 4496 15bc fba2 853e a4f8 1d3f
00000070: fd44 403e e8e3 bf3c 98a1 04bf 51b0 d13e
00000080: dce3 54be 6c2c 1a3f b0e2 b53f 4e0a e93e
00000090: 7aac bbbe db2b 6f3e 0449 a53e 84cc 8f3e
000000a0: 287c 393f 1144 d43e 9edb c33f ca5b 95bf
000000b0: 5aa1 52be 1782 6c3d 1189 b2be d190 553d
000000c0: d423 70be fbd9 003f ded0 963d 6895 4abd
000000d0: 2b0b 503f a88e 1dbf 5738 933d 6001 fbbe
000000e0: 66a7 863f fda2 23bd 252d a53e 6558 80bf
000000f0: 1d0c 9dbe 24c3 3d3f d863 c5be 6904 453f

layer3.1.running_mean f4 [64]
18.857296 -47.8054 -83.29537 1.0780864 -33.83954 -43.590084 -47.472385 33.68043
57.731815 127.8329 -2.8664467 13.55562 -146.14981 14.251583 149.30293 -141.06618
34.499672 106.458145 -44.473446 23.329481 -32.232376 -35.076015 -57.922806 -30.163319
3.2786222 -137.22961 -36.70399 45.64723 11.064401 -29.62543 -107.129135 -47.58469
106.15808 42.771305 107.66034 23.25162 -9.299689 -88.99564 98.01836 -15.696731
-35.756447 13.251559 1.3997366 -17.2044 -89.432465 4.9552097 -2.693697 -135.90277
43.933346 -29.042128 -118.005035 -14.555949 -67.17188 -23.364876 -4.3148437 41.827953
-4.9209466 90.28004 18.510273 83.17835 -3.0053234 46.362637 -72.29057 -11.929555
00000000: bedb 9641 bb38 3fc2 3b97 a6c2 bcfe 893f
00000010: b05b 07c2 3f5c 2ec2 b9e3 3dc2 c3b8 0642
00000020: 61ed 6642 72aa ff42 dd73 37c0 d2e3 5841
00000030: 5a26 12c3 7c06 6441 8d4d 1543 f110 0dc3
00000040: aaff 0942 92ea d442 cfe4 31c2 c7a2 ba41
00000050: f4ed 00c2 d74d 0cc2 f4b0 67c2 7a4e f1c1
00000060: f2d4 5140 c83a 09c3 e3d0 12c2 c396 3642
00000070: c907 3141 e100 edc1 1e42 d6c2 b956 3ec2
00000080: f050 d442 d115 2b42 1852 d742 5103 ba41
00000090: 87cb 14c1 c5fd b1c2 6609 c442 cf25 7bc1
000000a0: 9a06 0fc2 6306 5441 922a b33f 9ca2 89c1
000000b0: 6cdd b2c2 1491 9e40 8865 2cc0 1ce7 07c3
000000c0: bfbb 2f42 4756 e8c1 9402 ecc2 2be5 68c1
000000d0: 0158 86c2 44eb bac1 3313 8ac0 d34f 2742
000000e0: 6578 9dc0 618f b442 0a15 9441 515b a642
000000f0: 3857 40c0 5773 3942 c694 90c2 75df 3ec1

layer3.1.running_var f4 [64]
1149.5605 573.66266 404.37195 908.35724 331.41394 1068.2937 455.27942 901.39343
516.44727 616.9972 477.64816 596.7574 88.76892 350.2383 119.361786 211.38957
269.97687 393.08752 611.93115 919.34094 380.66663 769.51965 511.9392 797.8805
364.4753 401.21637 975.98944 326.92792 573.8076 1184.232 334.1787 533.7835
661.68567 1090.5671 125.47055 532.63385 467.48306 567.8274 558.2202 433.0094
433.16132 485.3475 415.8128 582.8585 811.9757 319.15448 733.99896 365.59457
542.2413 1331.747 534.98474 363.4192 705.8453 298.8418 461.95056 354.22723
677.1655 607.6378 537.3427 568.63416 543.64716 370.37173 311.6305 749.26074
00000000: f0b1 8f44 696a 0f44 9c2f ca43 dd16 6344
00000010: fcb4 a543 6689 8544 c4a3 e343 2e59 6144
00000020: a01c 0144 d23f 1a44 f7d2 ee43 7930 1544
00000030: b089 b142 811e af43 3cb9 ee42 bb63 5343
00000040: 0afd 8643 348b c443 98fb 1844 d2d5 6544
00000050: 5455 be43 4261 4044 38f8 ff43 5a78 4744
00000060: d73c b643 b29b c843 53ff 7344 c676 a343
00000070: b073 0f44 6d07 9444 e016 a743 2572 0544
00000080: e26b 2544 2652 8844 ecf0 fa42 9128 0544
00000090: d5bd e943 f4f4 0d44 188e 0b44 3481 d843
000000a0: a694 d843 7bac f243 0ae8 cf43 f2b6 1144
000000b0: 72fe 4a44 c693 9f43 ef7f 3744 1bcc b643
000000c0: 718f 0744 e777 a644 06bf 0544 a8b5 b543
000000d0: 1976 3044 c06b 9543 acf9 e643 161d b143
000000e0: 984a 2944 d2e8 1744 ef55 0644 9628 0e44
000000f0: 6be9 0744 952f b943 b4d0 9b43 b050 3b44

layer5.0.weight f4 [10, 64]
3.2002554 -7.120094 -10.38578 -8.030676 -1.0395045 -20.679533 -8.910626 -0.67108876
1.0317657 4.124236 2.584889 0.04508197 -13.495487 -4.38862 5.9169636 -12.482801
-9.655708 6.785898 -4.1134667 1.6101017 2.4773455 4.7466884 3.8413987 0.22505789
6.367094 2.0970004 0.8055472 2.781689 2.8964097 2.9565194 -7.8814096 -1.8209615
0.72263986 5.126644 5.333356 6.2840996 3.7110598 -0.020175137 17.011103 -5.4134145
0.8559448 1.0445606 3.836739 -3.0476987 -14.538777 1.1677068 -2.316104 1.3733597
3.7758102 3.0171044 0.7069765 -8.304398 -4.228748 5.498705 -0.2848522 -1.9586854
-1.5217654 -0.016340338 -1.4766489 4.856559 12.259627 -5.6357036 1.9450673 8.658711
3.5331593 -6.057822 -6.930352 -7.5212097 4.2635903 0.51819104 8.397309 5.837994
-0.7998126 -5.4833755 9.289914 -4.53385 -3.321485 5.8690906 -3.0110528 3.0042405
-1.1428643 3.9592462 7.1099305 5.4676895 22.87728 0.6166401 1.6826141 -8.268623
-2.310426 5.6113114 -4.151675 4.640972 -0.63899106 -3.0338104 1.0419036 4.0510607
-10.298107 -3.6859398 -0.4737556 -1.770131 -2.8147302 0.011902629 -7.9850454 -0.86510545
4.820406 1.791337 -1.58247 -6.458274 4.2271223 7.196011 6.6163464 9.778863
3.0506768 -5.3973966 17.549414 -1.6221273 2.2744086 4.790278 -0.13806672 -25.325352
-13.836579 1.0349263 1.7710582 -3.0729272 -0.237689 1.4215859 -6.197133 -2.3983307
10.394994 -8.471636 2.3954685 -12.167706 -2.4269943 -0.943785 -9.312339 -2.4643798
5.2087073 3.4899871 -14.141301 1.2299376 0.320897 -0.18332519 1.4319127 -5.394214
-1.2921854 -4.9890447 -5.94884 -8.601304 -7.9744334 6.2914047 8.1470995 -4.285451
-1.2423577 -0.31442136 3.101781 0.7066715 4.736032 1.3208004 -2.4738889 -1.0408335
-6.902286 -7.190055 -0.72705513 7.632569 7.0001564 -4.155197 -2.098833 2.5904992
-0.7454765 -2.2224996 2.2522862 -11.084628 2.2942297 -10.075255 -4.5903883 -2.219543
-7.2638226 -4.7712846 7.1459394 0.9711807 -1.8052157 0.41718978 -0.093894124 5.776057
10.149046 -1.9112201 6.1090055 -6.610036 -0.25601554 -2.043274 -5.096677 -4.992914
-8.341613 11.995654 -2.9137182 3.6622841 -5.086629 -6.9309287 -10.125499 6.2816033
-1.0248289 4.0427604 -0.09605769 -6.26117 -2.9436362 -2.0908525 -2.7694407 0.7164149
3.4310694 3.2686214 -5.589071 -9.534018 -1.4849883 1.9224418 -8.756227 -7.0139427
1.8867971 -2.8350618 6.598972 -4.3358207 -11.762509 3.2791173 2.1191556 2.6658664
3.5577855 3.7583194 -2.7842453 8.20197 0.5257276 -13.667163 2.2225893 -7.6026525
6.7028437 3.3020208 13.815058 -4.396113 -0.009373254 0.94865394 3.0954351 -4.4550242
-4.122182 1.7256237 -2.6571321 -5.2891216 3.4593103 6.9950914 2.6230361 3.2890778
-2.3419297 19.541819 -4.50858 1.6052034 4.5421014 -7.5100393 4.8496513 6.439973
00000000: fcd0 4c40 cfd7 e3c0 282c 26c1 a67d 00c1
00000010: 7c0e 85bf af6f a5c1 ed91 0ec1 79cc 2bbf
00000020: e610 843f bef9 8340 d26e 2540 dfa7 383d
00000030: 84ed 57c1 936f 8cc0 c457 bd40 8eb9 47c1
00000040: c87d 1ac1 1426 d940 85a1 83c0 d017 ce3f
00000050: d48c 1e40 dfe4 9740 7ad9 7540 9375 663e
00000060: 3cbf cb40 4135 0640 5738 4e3f 3107 3240
00000070: c75e 3940 9d37 3d40 8234 fcc0 4415 e9bf
00000080: edfe 383f 780d a440 daaa aa40 5817 c940
00000090: 0182 6d40 5446 a5bc bd16 8841 b13a adc0
000000a0: 331f 5b3f 29b4 853f 228d 7540 7f0d 43c0
000000b0: d59e 68c1 6b77 953f 0c3b 14c0 40ca af3f
000000c0: e0a6 7140 3d18 4140 69fc 343f d0de 04c1
000000d0: e751 87c0 64f5 af40 26d8 91be 34b6 fabf
000000e0: 35c9 c2bf 2cdc 85bc d502 bdbf ee68 9b40
000000f0: 6f27 4441 af57 b4c0 f7f7 f83f 158a 0a41
00000100: 481f 6240 aed9 c1c0 72c5 ddc0 c0ad f0c0
00000110: 556f 8840 2ba8 043f 615b 0641 d9d0 ba40
00000120: 85c0 4cbf d077 afc0 7da3 1441 4d15 91c0
00000130: 3693 54c0 97cf bb40 17b5 40c0 7a45 4040
00000140: 6149 92bf 4a64 7d40 8d84 e340 50f7 ae40
00000150: ab04 b741 20dc 1d3f e65f d73f 484c 04c1
00000160: 05de 13c0 dd8f b340 86da 84c0 d882 9440
00000170: eb94 23bf f329 42c0 195d 853f 4aa2 8140
00000180: 0cc5 24c1 70e6 6bc0 1890 f2be a793 e2bf
00000190: 8a24 34c0 3f03 433c 7e85 ffc0 8d77 5dbf
000001a0: c440 9a40 884a e53f 618e cabf 2eaa cec0
000001b0: 9644 8740 b945 e640 1cb9 d340 3976 1c41
000001c0: 4a3e 4340 79b7 acc0 3365 8c41 dea1 cfbf
000001d0: e98f 1140 f549 9940 5d61 0dbe 529a cac1
000001e0: a162 5dc1 7778 843f 09b2 e23f d7aa 44c0
000001f0: bf64 73be 87f6 b53f ea4e c6c0 407e 19c0
00000200: e551 2641 d28b 07c1 5b4f 1940 ecae 42c1
00000210: e053 1bc0 e59b 71bf 57ff 14c1 66b8 1dc0
00000220: bbad a640 f35b 5f40 c542 62c1 986e 9d3f
00000230: 9d4c a43e 99b9 3bbe ea48 b73f 679d acc0
00000240: 5566 a5bf 41a6 9fc0 e65c bec0 f19e 09c1
00000250: 8f2e ffc0 3053 c940 855a 0241 6a22 89c0
00000260: 9405 9fbf d6fb a0be 9483 4640 6ce8 343f
00000270: 938d 9740 fd0f a93f 3254 1ec0 083a 85bf
00000280: 87df dcc0 ee14 e6c0 4920 3abf 013e f440
00000290: 4801 e040 60f7 84c0 4853 06c0 bdca 2540
000002a0: 8cd7 3ebf 6f3d 0ec0 7525 1040 a35a 31c1
000002b0: a9d4 1240 3f34 21c1 76e4 92c0 fe0c 0ec0
000002c0: 3c71 e8c0 5dae 98c0 89ab e440 4c9f 783f
000002d0: 4f11 e7bf e699 d53e 904b c0bd 75d5 b840
000002e0: 7e62 2241 dca2 f4bf f97c c340 6a85 d3c0
000002f0: 7814 83be 00c5 02c0 fa17 a3c0 f4c5 9fc0
00000300: 3f77 05c1 33ee 3f41 5c7a 3ac0 dd62 6a40
00000310: aac5 a2c0 2bca ddc0 0b02 22c1 e502 c940
00000320: 982d 83bf 4b5e 8140 e5b9 c4bd 815b c8c0
00000330: 8964 3cc0 87d0 05c0 843e 31c0 f866 373f
00000340: a496 5b40 1831 5140 abd9 b2c0 568b 18c1
00000350: 1914 bebf 9312 f63f 8119 0cc1 3872 e0c0
00000360: 9182 f13f a771 35c0 c72a d340 0bbf 8ac0
00000370: 3d33 3cc1 0fdd 5140 3fa0 0740 8e9d 2a40
00000380: c2b2 6340 4e88 7040 1331 32c0 453b 0341
00000390: 1696 063f b3ac 5ac1 e73e 0e40 ee48 f3c0
000003a0: b27d d640 4f54 5340 7a0a 5d41 f5ac 8cc0
000003b0: 4792 19bc fcda 723f 9c1b 4640 8f8f 8ec0
000003c0: eae8 83c0 3de1 dc3f 740e 2ac0 7c40 a9c0
000003d0: 5765 5d40 cad7 df40 d3df 2740 4080 5240
000003e0: 2de2 15c0 a555 9c41 4a46 90c0 4e77 cd3f
000003f0: e558 9140 3e52 f0c0 5830 9b40 4214 ce40

layer5.0.bias f4 [10]
-3.9640787 -0.95507133 -2.3513517 -3.066307 -2.346365 -2.5001307 -2.0810015 -3.6777902
-1.8072402 -2.6233895
00000000: 77b3 7dc0 8e7f 74bf 8c7c 16c0 603e 44c0
00000010: d82a 16c0 2402 20c0 212f 05c0 ea60 6bc0
00000020: a653 e7bf 9de5 27c0
