GSTENG_Datasets/v-net_ks=3_lr=0.002_epoch=100_tanh.pth (torch, 45290 bytes, 20 tensors)

layer1.0.weight f4 [16, 6, 3]
00000000: d262 c8bd d32f e6bd b9ec 99bd 71ba 3b3f
00000010: 287a 353f e47a 8f3e ae6d bb3b 7ddd 153d
00000020: faff 373c e16c 1dbf a7b8 76bf 34a6 01bf
00000030: c004 10bf ff37 03bf 28f1 9fbe 0eb5 0e40
00000040: 78db 1140 fde7 623f 84d0 a13f 4887 453f
00000050: ad05 0740 d128 0ebf c1e4 e1be fb94 303e
00000060: ea03 01be 7dc0 913f d2ad 6a3f db10 cebd
00000070: db5c 6c3e 04e3 8e3f fecb 15bf 4532 a4be
00000080: c2e8 20b9 7b73 b7be e735 a7bd 2a69 363f
00000090: 70ca f23e d3ba 1dbe 733c 55bf ac44 853f
000000a0: d805 0b3e 6e8d b3be e81e 533f d62b 6b3e
000000b0: a382 2fbf c4df 20c0 52c5 d6be 29b7 f83e
000000c0: d75f 6cbf 7d26 793e 5fb2 813f 8b55 59bf
000000d0: 2a41 df3d ea7a 993f 3b43 183e e84c a73d
000000e0: 64ae 1ebe d34f 263e 0dad dc3c 8326 bd3d
000000f0: 3c52 8b3d b083 1dbe c3f9 233d 37fa ab3d
00000100: b0b1 973f 6d42 c03f 31e1 81bf 8cf9 98bf
00000110: 8eaf 31bf d0eb dfbf 5f0c 45bf a25e d43e
00000120: b881 183e 2158 cd3d 45dd b73d b784 ccbf
00000130: c33f 58c0 6284 72c0 d895 943d fb06 40bd
00000140: 7a61 0fbe bbe4 8f3e c5eb d23d 428d 04be
00000150: 9050 8e3e c0f4 87be c2f1 10be 0c23 373e
00000160: 2974 b53b fbd2 7bbd 9c92 403e 9241 0d3e
00000170: 288b 583e 4368 b33e 1c6d 8e3f eefe 643f
00000180: 6929 8cbd f9dc 5c3c 2cbb d23d 19b5 423f
00000190: cfe0 a03e 8884 58be 2860 073f 7e97 883e
000001a0: 569a c13e facb b7bf eb62 0ac0 b58e febf
000001b0: b089 873c bd3a 2a3d ae2f ea3c 588d 0b3e
000001c0: 0b8f e43d c6cd 2c3e 3a96 3ebd f9f0 62bd
000001d0: eb50 c03c d6a9 4cbf aa0f 81bf 3061 99bf
000001e0: d581 ad3f 2f9c e73f 0245 f23f 5788 74bd
000001f0: 4f21 b0bc 8db1 b2bd 949c 1a3f 871e d83e
00000200: 23f7 c73e a33a 8d3e c52d e3be 923a c83f
00000210: 80f8 243e 0df8 7cbe 6ea7 98bd 9404 2fbf
00000220: 3967 b2bf ae28 b2bf 4937 8b3f 9008 c23e
00000230: e3ba e83e c368 073e f0d9 233c e4f8 463d
00000240: a931 8ebe 365c 96be 536b 8bbe 0b02 60bf
00000250: 9c17 9abf 827a 89bf d9cb 7ebd e47b 523d
00000260: 9604 69bd 28bd b2be 9cee c5bf cf56 d1bf
00000270: e086 963e 0b0b f73d c816 7f3e 20aa 033f
00000280: f3c7 3b3f e7a2 5a3f d83d 6ebf 7766 20bf
00000290: 9d51 2dbf 3076 c7be 4b56 d73f 58c4 67bf
000002a0: 20a3 0e3f 36bd 293e 2aea ec3c 09d2 83be
000002b0: d290 cb3c bd37 cf3e 32b6 86bf 342a 21bf
000002c0: 4b47 2abe 77ca acbe da82 2ebe 02dc be3e
000002d0: 4df7 b7bd b91b dc3d 94b7 b43e 2cde 21c0
000002e0: a922 83c0 2f4a 16c0 25f8 9ebc 81d6 5abe
000002f0: 387a 1dbe ed93 5f3e a6fb d6be 7052 973d
00000300: be50 f13d daa6 fe3d 3c54 2b3f 99ba fe3e
00000310: ea75 a93e 365a 183f 74d8 88be f2d4 3dbd
00000320: 3d78 bb3b 19ea 113f 63b9 843e 6cf3 9a3e
00000330: 5fcc 89be 14b3 c73d 92f2 d53d 75e7 b0bf
00000340: 4735 1dc0 cdfc a3bf 57dd 05be 4a32 1ac0
00000350: a836 c5bf 9eca 233f 171f bfbf 8f0c b0bf
00000360: d52f 31bd 1d14 91bc 3f73 31bd a74b 35be
00000370: 4d6f 82be c4c0 95be e7f7 afbc b013 29bd
00000380: bd81 babd dd48 6d3f 3740 803f f9a1 693f
00000390: 2ec3 f13d d67e 9c3e 8fa4 743d 213a d6bf
000003a0: 968e 1ac0 47bf e5bf a2ba 193f 1fe4 233f
000003b0: 7c82 4d3f 8987 9ebf 1516 9fbf c38f a4bf
000003c0: 922c 3c3e e423 853e b036 a83e 878e 00bf
000003d0: a8f1 e8be 69d1 dfbe 777e b2be 1750 04bf
000003e0: 81bc 36bf bb06 c13f 221a 7b3f 818b 1f3f
000003f0: acd4 823e 2cf8 f3bd 92ce ecbe b2a0 1341
-0.097844735 -0.112395905 -0.075158544 0.7333136 0.7088952 0.28023446 0.005719862 0.03658818
0.011230463 -0.6149426 -0.9637551 -0.5064423 -0.5625725 -0.5125732 -0.31238675 2.2298007
2.2790203 0.88635236 1.2641759 0.7715955 2.1097214 -0.5553103 -0.44119838 0.17244332
-0.1259915 1.1386868 0.9167148 -0.10061809 0.23082297 1.116303 -0.5851439 -0.32069603
-0.00015345498 -0.35830292 -0.08164578 0.7125422 0.47420073 -0.15403299 -0.83295363 1.0411582
0.13576448 -0.3506884 0.82469034 0.22965941 -0.6855871 -2.5136576 -0.41947418 0.4857724
-0.9233374 0.24331088 1.013256 -0.84896153 0.10901101 1.1990635 0.14869396 0.081689656
-0.15496212 0.16241388 0.026937986 0.09235861 0.06802794 -0.15382266 0.040033113 0.08397334
1.1851101 1.5020272 -1.0146848 -1.1951156 -0.694085 -1.7493839 -0.76972 0.4147845
0.14893234 0.10026575 0.08977751 -1.5978001 -3.3788917 -3.78933 0.07255143 -0.046881657
-0.14002028 0.28104195 0.10298876 -0.1294451 0.2779584 -0.26553917 -0.14154723 0.17884463
0.005537529 -0.061480504 0.18805927 0.13794544 0.21146834 0.35040483 1.1127048 0.8945149
-0.06843836 0.013480418 0.102896065 0.76057583 0.31421515 -0.21144307 0.528811 0.2667808
0.3781306 -1.4359124 -2.1622875 -1.9887301 0.016545147 0.041559923 0.028587189 0.13628137
0.11160096 0.16875371 -0.046529986 -0.05540559 0.023476085 -0.7994665 -1.0082905 -1.1982784
1.3555247 1.8094538 1.892731 -0.059700336 -0.021500258 -0.087252714 0.6039517 0.4221079
0.39055738 0.275838 -0.44370857 1.5642874 0.1611042 -0.24703999 -0.0745381 -0.6836636
-1.3937751 -1.3918664 1.0876247 0.37897158 0.45455083 0.13223557 0.010000691 0.048577204
-0.27772263 -0.29367226 -0.2723032 -0.8750312 -1.2038455 -1.0740511 -0.062206123 0.051387683
-0.05688914 -0.3490994 -1.5463443 -1.6354617 0.29399776 0.12062653 0.24911034 0.51431465
0.73351973 0.8540482 -0.93063116 -0.6265635 -0.67702657 -0.38957357 1.682321 -0.9053397
0.5571766 0.16576084 0.028920252 -0.25746182 0.02484933 0.40472212 -1.0524352 -0.6295502
-0.16628759 -0.33748218 -0.17042103 0.37277228 -0.08982716 0.10747475 0.3529631 -2.5291853
-4.097981 -2.3482778 -0.019405434 -0.21370889 -0.15378654 0.21833773 -0.41988868 0.073887706
0.117829785 0.12434168 0.66925406 0.49751738 0.33097774 0.5951265 -0.2672764 -0.04634566
0.0057211206 0.5699783 0.2592269 0.3026384 -0.26913735 0.09750953 0.10446657 -1.3820635
-2.4563768 -1.2811524 -0.13072716 -2.4093194 -1.5407305 0.63981044 -1.4931363 -1.3753833
-0.043258507 -0.017709786 -0.043322798 -0.1770464 -0.2547554 -0.2924863 -0.021480514 -0.04127854
-0.09106777 0.92689306 1.0019597 0.91262776 0.11804806 0.30565518 0.059727248 -1.673649
-2.4149528 -1.7948998 0.60050404 0.6401996 0.8027723 -1.2385112 -1.2428614 -1.2856373
0.18376377 0.26003945 0.32854223 -0.5021748 -0.4549687 -0.43714455 -0.3486211 -0.5168471
-0.71381384 1.5080179 0.9808675 0.6232224 0.2555288 -0.119125694 -0.4625135 9.226732

layer1.0.bias f4 [16]
00000000: 5ce1 d43f 5cb8 e23e 8312 8e3e dd85 e2be
00000010: 1dd5 5cc0 bcbe 9c3f a763 2040 424f 8ebf
00000020: f5af 6d3f ba34 703c 8c95 0140 1d4b 1f3f
00000030: c91f 7b40 36b8 f4bf 6429 5040 0f4b b5bf
1.6631274 0.4428128 0.27748498 -0.44242755 -3.4505074 1.2245708 2.5060823 -1.1117938
0.92846614 0.0146610085 2.0247526 0.6222399 3.923815 -1.9118717 3.2525263 -1.4163531

layer1.1.weight f4 [16]
00000000: 5b35 703f 0109 a33f 1bbc 063e b693 463f
00000010: f09a 6d3f c78f bc3f 5cc4 9d3f 8c82 c53e
00000020: fdc6 a53f 2e83 903f e048 a23f 32ce 6c3f
00000030: 8221 ad3f 4824 673f 83f0 ae3f 2760 ff3f
0.93831414 1.2737123 0.13157694 0.7756914 0.9281454 1.4731377 1.2325549 0.38576162
1.2951351 1.1290033 1.267849 0.9250213 1.3525851 0.90289736 1.3667148 1.9951218

layer1.1.bias f4 [16]
00000000: 0fd8 553f 1a56 afbf 37ff 9d3f 1d39 8e3f
00000010: 6b5f f0bf 5621 963f 0c32 bc3f 1583 0b40
00000020: daf0 03c0 963b 7940 d1bc ce3f e4e2 01be
00000030: bcdf da3f 8d34 27bf af5a fd3f 1530 eb3f
0.83532804 -1.3698151 1.234351 1.111118 -1.8779119 1.1728923 1.4702773 2.1798756
-2.0615754 3.8942618 1.6151372 -0.12684208 1.7099528 -0.6531456 1.97933 1.8374048

layer1.1.running_mean f4 [16]
00000000: 3d7d dd3f b69d 6b3e 5a24 d13e 04c0 f3be
00000010: 2a6d 5fc0 eadd 9d3f 1f06 2240 0770 82bf
00000020: 204e 8b3f 0143 fd3d 0f24 fa3f a2a6 893f
00000030: e364 7740 866e f7bf b9ca 4f40 5a3b babf
1.7303845 0.2300938 0.40848047 -0.47607434 -3.4910378 1.2333348 2.5316236 -1.0190438
1.0883217 0.123662956 1.9542254 1.0753977 3.8655326 -1.9330604 3.2467482 -1.4549363

layer1.1.running_var f4 [16]
00000000: 78af 023b 13b4 bf3c 59e4 253c adcd 793b
00000010: 5a29 be3c d74e f63b 313e 7f3a 98bb 523c
00000020: a9f8 113c 5edf 663b 5110 e03c 0116 a43d
00000030: 92b6 f23a db80 b03b 25e1 4f3d 620b 4f3b
0.0019941013 0.023401296 0.010125243 0.0038116977 0.023213077 0.0075167227 0.0009736745 0.012862109
0.008909383 0.0035228352 0.02735153 0.080120094 0.0018517545 0.0053864545 0.050751824 0.0031592478

layer2.0.weight f4 [32, 16, 3]
00000000: 5e0d 8cbf 96b2 acbf ea36 aebf 0a03 0a3f
00000010: a85c 893e d081 473f c39a 473e 873c aa3e
00000020: 4fef a13e 8ff7 0d3f e435 da3e f2ad fabe
00000030: f9f9 3abf dd1c e03d 1d01 103f 62da b53d
00000040: cd06 b6be 91e0 0ebf 862e 7dbf cab6 e0be
00000050: 1003 e53c 0ac6 5f3f a156 013f c142 52be
00000060: 909e 85bf 6c56 59bf f1ca f9bd b9b4 0ec0
00000070: 42bc b4bf 1fea adbf 05e9 96bf d209 94bf
00000080: 8250 22bf efe2 e9be f1fc 05be 9b83 073e
00000090: 1ce3 98bc b67e 7bbe d408 18bf ce80 6c3f
000000a0: 096a 523e 30eb 083e 5f9f ca3f a021 a73f
000000b0: 3855 4e3f ecc4 2cbe 097e 6cbf a093 b2bf
000000c0: 433c cf3f ae3f 893f a271 c03e c083 03bf
000000d0: ff10 3cbf 1562 96bf 5409 6a3f 3ac9 2f3f
000000e0: da38 d53c a2e9 403f 907e 3b3e 9fe7 22bf
000000f0: b3c8 08bf 56b9 99bf 91a0 7bbf b1ca 17bf
00000100: 0779 16be acfd 6a3e 7aa3 a83e 535e 533e
00000110: 0293 2cbf 36dd 103e fa3f 733e fc69 293c
00000120: 9f3a 993f 4b8b b73e ac49 5e3e a25e 6040
00000130: 5b53 2d40 1b13 e93f 487c 80be b7e9 09bf
00000140: 4370 55bf f728 b93f 67ba 0b3f 1b2d f43e
00000150: 9f6f 55bf f253 9dbd b5ad 84bd 326d 90bd
00000160: f4fe 273f 8ec1 403f 920d 5fbf e128 62be
00000170: b365 013f 9a04 d43e 27e0 7f3f 3125 1a40
00000180: 50f6 2c3f e283 0cbf 5268 68bf 7257 2bbe
00000190: 3159 ffbe 0843 75be 84d8 683e 253b 953d
000001a0: 3175 afbc 7f80 773f 8cdf 473f 1f81 083f
000001b0: 37e5 d53f 0fce af3f 32bb 8e3f a34d f63e
000001c0: 0b6b 9d3e ac42 403f 8548 3fbf d24d bbbf
000001d0: 8dca eabf 214b b6bd 1b53 5f3d b97a 7dbd
000001e0: 9f27 6bbd 56c5 583f 7630 ec3f 9e47 a4bc
000001f0: b7e5 173f a926 1a3f 8bec 2cbf 3697 48bf
00000200: 0590 94be f5a2 8abe a5fa b3be ae0b 14be
00000210: 13d1 98be 6fd2 cc3f 8b2f 0f40 24e1 843f
00000220: dc51 413f aab2 ef3e 7dcf cd3e f52c 9f3d
00000230: 79ad dabf a48a b5be 852f ed3d 70d8 0d3f
00000240: d8f9 01bd 9e5a 92bf 3836 fabf ef42 2c3f
00000250: 915e 873e 9217 fbbe 7845 a13e 0c12 a9be
00000260: b11c 44bf 9d08 8fbf e14e 92bf e2b0 75bf
00000270: b5f7 a9be 7e05 01bf abf2 5abf 2fca d8be
00000280: 7139 0b3f 1db3 063f 57f9 78be b9e9 35bf
00000290: 86c5 a3bf 27a5 82bf c8de d3be 3c0a 03bf
000002a0: 97ab f73e eeb7 833e 25ad a33b ac7f 833e
000002b0: eae6 0c3f 40ca 8d3f 8fe3 d6be d7bb 68bf
000002c0: 6c79 05bf d753 4abf a1dd 78bf 5afa 40bf
000002d0: 4a6c 823f 6216 8b3f 7fe7 913f 35f1 033e
000002e0: 633a 09bd 4a2c 313e a8f3 01bf db20 2a3f
000002f0: a46c 4c3f a39a bcbf 3ef6 01bf eb32 ad3e
00000300: e0cd 50bf 51a1 afbf 711b adbf ba6b 443d
00000310: 69b5 96be cec3 57bf 6409 353f 16f1 913e
00000320: 07f9 833e 08ad 1a3f eebc ea3d 39f7 a6be
00000330: fabc 5fbf 994d bbbf c6bd 5bbf 6915 323d
00000340: 8f1a e33c 9826 cabc 78ee 383f d6ca 183f
00000350: 155c 313e 3cc1 50bd 6804 5b3e 007d 733e
00000360: 7da4 1dbf 819e dbbf d806 03c0 cfbf 653e
00000370: 2562 5e3e adef 003e 619b babe 3c8e 7bbe
00000380: 86ea 883d 2a81 123f 1e4a 7b3e 6a39 bb3d
00000390: 8031 813f 7f91 0c40 84e5 cf3f 9010 76bf
000003a0: 7fca 4dbf 1858 11bf 5d06 01bf 3f0e b93c
000003b0: b5cb 0440 ad90 97be e1dd d6be 20e4 03bf
000003c0: f736 753f 065d 503e 25ed d7be 2a03 c33f
000003d0: ee9b 5b3f ff79 8b3e a5eb 67bf a895 1bbf
000003e0: 2e87 99be 89a3 02be a0c2 c6be 1f9d 8ebd
000003f0: 72cf aa3f 642f 553f deef 073f 6f1e 1b3f
-1.0941579 -1.3492 -1.3610508 0.5391089 0.26828504 0.77932453 0.1949263 0.33249304
0.3162789 0.5545587 0.4261924 -0.48960835 -0.7303768 0.10943005 0.562517 0.08879544
-0.35552064 -0.5581141 -0.98899114 -0.43889457 0.027955562 0.8741156 0.5052281 -0.20533277
-1.0439014 -0.84897494 -0.12196911 -2.2297804 -1.4119952 -1.3587073 -1.1789862 -1.1565497
-0.63404095 -0.4568095 -0.1308477 0.13233797 -0.018662982 -0.24560055 -0.5938847 0.9238404
0.20548262 0.13370967 1.5829886 1.3057137 0.80598783 -0.16871995 -0.92379814 -1.3951302
1.6190265 1.0722558 0.37586695 -0.5137291 -0.73463434 -1.1748682 0.91420484 0.6866642
0.026028086 0.75356495 0.18309999 -0.63634676 -0.5343124 -1.2009685 -0.9829188 -0.5929366
-0.14694606 0.2294833 0.32937223 0.2064145 -0.67411816 0.14146885 0.23754874 0.01034021
1.1971015 0.3584846 0.21707791 3.505776 2.7082126 1.8208956 -0.2509482 -0.53872246
-0.8337442 1.4465626 0.545813 0.47690663 -0.83373445 -0.07682027 -0.064784445 -0.07052077
0.656234 0.7529534 -0.8713008 -0.22085907 0.50545806 0.4140976 0.99951404 2.40852
0.67563343 -0.5488874 -0.9078418 -0.16732576 -0.49872735 -0.23951352 0.22738844 0.072866715
-0.021418186 0.96680444 0.7807548 0.53322023 1.6710576 1.3734759 1.1150877 0.48106107
0.3074573 0.75101733 -0.7472003 -1.4633124 -1.8343064 -0.089010485 0.054522615 -0.061884616
-0.057410832 0.8467611 1.8452289 -0.020053681 0.5933489 0.6021524 -0.67548436 -0.7835573
-0.29016128 -0.2707745 -0.35152164 -0.1445758 -0.2984701 1.6001719 2.2372768 1.0381207
0.7551553 0.46815997 0.40197363 0.07772247 -1.708419 -0.35457337 0.11581329 0.5540838
-0.03173241 -1.1433904 -1.9547796 0.6728963 0.26439336 -0.4904142 0.31498313 -0.3302158
-0.7660628 -1.1174504 -1.1430322 -0.95973027 -0.33196798 -0.50399005 -0.8552653 -0.42341754
0.54384524 0.52617055 -0.24313866 -0.7105976 -1.2794654 -1.020665 -0.41380906 -0.5118749
0.483731 0.25726265 0.0049950057 0.25683343 0.55039847 1.1077347 -0.41970488 -0.9091162
-0.521384 -0.7903418 -0.9721318 -0.75382006 1.0189297 1.0866206 1.1398772 0.12884982
-0.033502948 0.17302051 -0.50762415 0.66456383 0.7985327 -1.4734691 -0.5076636 0.3382791
-0.8156414 -1.3721105 -1.3524 0.0479543 -0.2943528 -0.8428315 0.70717454 0.28504246
0.2577593 0.60420275 0.11461817 -0.3261049 -0.8739773 -1.4633056 -0.85836446 0.04347745
0.027722625 -0.024676606 0.72238874 0.59684503 0.17320283 -0.050965533 0.213884 0.23778152
-0.61579114 -1.7157747 -2.0472927 0.2243645 0.21717127 0.12591429 -0.3644667 -0.24565977
0.06685357 0.5722834 0.24539992 0.0914181 1.0093231 2.1963804 1.6241918 -0.9611902
-0.8038711 -0.56775045 -0.50400335 0.0225898 2.0749333 -0.29602566 -0.41966155 -0.51519966
0.95786995 0.20347986 -0.42173114 1.523534 0.85784805 0.27241513 -0.9059394 -0.6077523
-0.29985946 -0.12757696 -0.38820362 -0.06963562 1.3344557 0.8327544 0.53100383 0.6059331

layer2.0.bias f4 [32]
00000000: dc74 b03d 5b54 95be 8214 d0bb 811c 69be
00000010: aa0c 303e 1ca8 05be f738 7c3d b791 063e
00000020: 3379 2c3d 83b3 dcbd c076 0b3d b530 bbbc
00000030: 1684 a53e bb1e ddbe 34b2 0a3e 8afa 3d3e
00000040: f7c6 3fbd 5fe9 833d 2fcd 3cbd d6fe 8ebe
00000050: 5b27 90bd 43ce fd3c 2fa8 323e 6c74 50be
00000060: 13eb e5bd 45e5 34be 06c7 a13d e088 f3bd
00000070: b1f6 b13d af0a d2be a4f1 c0bd ba43 183e
0.08616039 -0.2916592 -0.006350101 -0.2276478 0.17192331 -0.1305241 0.061577763 0.13141523
0.042107772 -0.10776427 0.034048796 -0.022850374 0.32327336 -0.43187508 0.13544542 0.18552604
-0.046820607 0.064409964 -0.046094116 -0.279288 -0.070387565 0.030982142 0.1744697 -0.20356911
-0.112264775 -0.17665584 0.07899289 -0.11891341 0.08689631 -0.41023776 -0.09421089 0.14869586

layer2.1.weight f4 [32]
00000000: 7a14 493f c46b 903f 7ea8 1f40 499a bc3f
00000010: 8f39 923f 815a a13f 052d 1040 2633 b53f
00000020: 9f66 903f 0280 0740 6819 d93f 4859 903f
00000030: d84f 9d3f a58c b23f 5d24 bf3f f073 d03f
00000040: 580b db3f abb0 0b3f 32ed 5e3f 0bfe 8b3f
00000050: eba5 e23e 1dc7 a13f 1e6c b03f d9b3 a83f
00000060: e815 b33f 310f df3f 9e77 303f 9a38 f03e
00000070: 9f99 973f 01a1 e83f 4d64 fd3d 0617 8e3f
0.7854687 1.1282887 2.494659 1.4734584 1.1423815 1.2605745 2.2527478 1.4156234
1.1281317 2.117188 1.6960878 1.1277246 1.2289991 1.3949171 1.4932972 1.6285381
1.7112837 0.5456645 0.8708068 1.0936903 0.4426721 1.263889 1.3782995 1.3179885
1.399106 1.7426511 0.6893252 0.46918184 1.1843756 1.8174134 0.123726465 1.1100776

layer2.1.bias f4 [32]
00000000: c31e ebbf 2ac2 06c0 6f72 723f 0c2e 75bf
00000010: 7b58 5ebf d2f7 1a40 d6eb 87bf 2f1e 633f
00000020: faeb c83f 7989 55bf 7e56 e33f 156e ab3f
00000030: 85e6 bb3f 2e22 f63f 0497 3a3f ac1a 2bbf
00000040: d6d3 693f b87a 0c3f 4aff 10c0 85ea 82bf
00000050: 14cd df3f 08f7 a33f 6729 0040 2b87 9a3f
00000060: 56c9 533f 5a82 70bf d034 78bf 4a50 22bf
00000070: 0e53 fe3f f4db 10bf 97fe 6240 c305 a5bf
-1.8368763 -2.1056008 0.9470586 -0.95773387 -0.8685376 2.4213758 -1.0618846 0.8871793
1.5697014 -0.8341289 1.776077 1.3392969 1.4679724 1.9229181 0.7288668 -0.66837573
0.9133886 0.54874754 -2.2655816 -1.022782 1.748446 1.2809763 2.002527 1.20725
0.8272909 -0.939489 -0.96955585 -0.6340376 1.9869096 -0.5658562 3.546789 -1.2892383

layer2.1.running_mean f4 [32]
00000000: d0d4 f2c0 ee3d 4a41 7701 a5c0 c0ba 8ec0
00000010: db37 5c41 b743 75bf f12f 10c0 dbe4 5dc0
00000020: 3afc 05bf 481a 8640 7513 75c1 adf2 443f
00000030: 66d5 3b40 6485 80c1 6a05 e3bf b809 2a3f
00000040: 80c8 2d41 c687 9dbf 7931 1dc0 249d 3d40
00000050: e8ea bfbf f982 73c0 9e82 0d41 7f56 2c40
00000060: 7b30 27c1 0d59 a3c0 6d5e 6fc0 ec0e 8040
00000070: 0f7a 3840 7d15 00c1 32a3 1ec1 779a 8b3f
-7.588478 12.64012 -5.156429 -4.4602966 13.763637 -0.9580645 -2.252926 -3.4670932
-0.5233799 4.190708 -15.31725 0.76932794 2.9348998 -16.065132 -1.7736027 0.6642108
10.86145 -1.230706 -2.4561446 2.962716 -1.4993563 -3.804869 8.844389 2.6927793
-10.449336 -5.1046205 -3.7401383 4.0018215 2.8824499 -8.005246 -9.914843 1.0906514

layer2.1.running_var f4 [32]
00000000: b836 7141 b6d4 4341 d7ab df40 0686 be40
00000010: 7ad0 6841 f3ff 9040 876e 8740 834b 6f41
00000020: a7dc 6840 edb9 9d41 7041 a640 78d1 4d41
00000030: fc94 9440 2c16 eb40 d475 3241 7219 5241
00000040: 7a3a 8841 5844 3140 5431 cf40 51e0 7a40
00000050: 284b 6241 3a46 4a41 f071 1d41 6a1e 8740
00000060: 8cc6 6b41 8675 cf40 2b87 6240 05e8 3641
00000070: 1062 3040 a6ab 4540 064b 7940 d119 b740
15.075859 12.239431 6.9897265 5.9538603 14.550898 4.531244 4.232242 14.9559355
3.6384676 19.715784 5.195488 12.86364 4.6431866 7.3464565 11.153767 13.131212
17.028553 2.7697964 6.4747715 3.9199412 14.143349 12.642145 9.840317 4.2224627
14.735973 6.483096 3.5395 11.431645 2.7559853 3.0886016 3.895204 5.7219014

layer3.0.weight f4 [64, 32, 3]
00000000: 6869 7c3f f150 a43f e091 e73f d7b5 063e
00000010: d7b4 89bf 466b cfbf 7e30 403e 8d94 81be
00000020: 81a0 80bf 4079 ef3c bc30 e4be 1761 2bbf
00000030: 6386 f93d 7821 173f 9414 903f 8bbd 15c0
00000040: 5879 c1bf 6100 9e3e 19bf f43d c87c 54be
00000050: 0ff5 1c3f d4f4 eabe 6e0c fdbe c172 2abe
00000060: eaf4 3b3f fd28 b53f 2735 b83f 0341 45bf
00000070: 29ac 83be 9bb4 df3d f269 ebbe 9d55 203e
00000080: ffbd eb3e 5555 ecbe fa66 17bf 06d2 a0be
00000090: 2562 8f3e bbfa 08be edf6 afbe b5e0 debe
000000a0: 68b5 16be 392b 9bbe 7042 a7bf c0b6 32bf
000000b0: 38c2 103f 0fd9 303f dcb4 4e3e d846 f3bd
000000c0: 8c8b 9bbe 46f5 05bf 3a4f c53e 6c97 743f
000000d0: 5171 dd3e 7a30 d3be f3d2 5fbd 7cf5 963d
000000e0: 2668 d93e 0ba0 47bf fc80 a73e 48a7 9c3f
000000f0: d76d 02bf c593 123f b4ba 433f b0c6 c6bd
00000100: a271 89bd da4c 9d3c b2b3 463f aa63 adbe
00000110: 4290 9cbf 9054 be3e 922e babe 1af5 85bf
00000120: a82b 2c3e 2df9 613f 5b4c 6f3f 23d7 6a3f
00000130: 6c0c 9e3f 9bf2 2b3f 0597 1540 f32f 4d40
00000140: e0f9 1240 55a6 dc3e f6e7 cdbe c98c 94bf
00000150: 33e5 95bd 9b1a afbd 77de 123f 24e8 243d
00000160: e8e9 c63e a9f2 e43e 0446 c83e 0c0e b23f
00000170: baf1 b33f 68b4 4b3f 5490 793f 5072 853f
00000180: 357d b7be 7bc1 09bf 3ae6 b13e 5202 2040
00000190: ea6d f93f f116 9f3f ccc6 d03e fa76 083f
000001a0: 2588 6cbc 2f72 c13f 29af d13f 92f0 b63f
000001b0: c455 e53e 6565 85be 32cd 35bf 8bdd d3bd
000001c0: 4a59 cf3d 2327 48bf 42fe 6a3f 400f a33f
000001d0: c4b4 3c3f fde0 20bf 23aa adbe f950 653c
000001e0: 476b 9fbe cd4b debe ae02 8dbf d0e5 08bc
000001f0: 650b 663e 8f6c 7e3e d734 e1bd 1d79 df3e
00000200: 82e9 a23e e1d6 5d3f bd7d 753f 0aab c23f
00000210: b07d b23f 176e 463f b421 1cbe 4ff5 673f
00000220: c30e d2bc a7c5 83be 2f49 12be f7e5 163d
00000230: 7b22 9bbc 1b0a 483f adb5 083f 93c2 d6bd
00000240: 02a7 33bf 8ee7 f5be 4b70 1f3e 0c71 98be
00000250: 6e22 19be cdfc 4b3d 56ea 033e a975 d23e
00000260: b9eb c23f 065c d43f c621 b93f 3eb0 2d3f
00000270: 722b ce3e 643d 133e 2b5a d9be 6929 71bf
00000280: 7588 08bf 0f8e 21bf 07df 9cbf 9980 f0bf
00000290: ff03 90bf b24a 8c3f dcfd b43e 81c1 47be
000002a0: fc91 72bf 262d c4bc 810b 293f ab85 c3be
000002b0: 5e81 9a3e c439 263f c0c9 cd3f 9d7f 4b3f
000002c0: 2e52 343f 02d2 70be 705c 82bd ef38 e23c
000002d0: c23b d8be ee2f 91be 28ba 683e d26c 4f3f
000002e0: bc12 003f 1cc6 45be d91c d53f 82f5 2a3f
000002f0: d295 04bf 97cf 0abf edf4 50bf 6db7 e4be
00000300: 14e0 15bf 6767 9cbf 0bf1 29be 6209 e1be
00000310: 41cb 393f 64a1 9d3e 519a 143e 9c3d c93d
00000320: be7f 6d3e 6d19 b9be bea2 e6be 2d9a 4ebd
00000330: 6f09 913f f8d4 293f cfa7 70be 468b 95be
00000340: 5860 1fbf c3ab d6bf 1ff7 a53e 8f7e 62bf
00000350: 354f 8ebf d869 8abf a03e 0bbf 7cbe cbbe
00000360: e7dc 8f3f a467 423e c767 81be f126 b03d
00000370: c242 b3be 1792 dabe 5c87 de3d 4469 f83e
00000380: b690 f93c 77d0 ad3e ef05 08be 80b1 95be
00000390: 511d 77be f529 e63d 4c64 393f c4a6 d63f
000003a0: 7884 9c3f aa49 9f3e 976b 183e 1329 a1be
000003b0: c0fb c9be ca06 ddbf da42 85bf 25e7 46be
000003c0: 7303 293f 7066 27bf ff93 b8bf dd9b 863e
000003d0: cdfe bc3e 7345 0f3d f5d5 4bbd 9a4f 98ba
000003e0: 538a 8e3f 78a8 a3bf 44c4 32be 7a44 c73e
000003f0: 2ae4 b33e 9edf 7c3f 8e90 c43f 84ad cdbe
0.9859834 1.2837201 1.8091393 0.13155304 -1.0758313 -1.6204612 0.18768498 -0.25308648
-1.0048982 0.029232621 -0.4456843 -0.6694502 0.12183835 0.59035444 1.125628 -2.3396938
-1.5115156 0.30859664 0.119505115 -0.20750725 0.6131143 -0.45889914 -0.49423546 -0.16645338
0.73420584 1.4153134 1.4391221 -0.77052325 -0.25717285 0.1092312 -0.45979267 0.15657659
0.46043393 -0.46158853 -0.59141505 -0.31410235 0.28004566 -0.13376896 -0.34368077 -0.43530813
-0.14717638 -0.30306414 -1.306715 -0.69810104 0.56546354 0.69081205 0.2018618 -0.11878747
-0.30379903 -0.5232738 0.38537008 0.9554355 0.43250516 -0.41247922 -0.054644536 0.07371041
0.4246227 -0.7797858 0.32715595 1.223855 -0.5094885 0.5725673 0.7645676 -0.097058654
-0.06711127 0.019201685 0.77617943 -0.338651 -1.2231524 0.3717389 -0.36363655 -1.0465424
0.16813529 0.8827084 0.93475884 0.9173452 1.2347541 0.6716706 2.3373425 3.2060516
2.2965012 0.4309565 -0.40216035 -1.1605464 -0.07319107 -0.085499965 0.57370704 0.04026045
0.3885033 0.44716385 0.39115918 1.3910537 1.4058144 0.79572153 0.9748585 1.042551
-0.35837713 -0.5381085 0.3474596 2.5001416 1.9486668 1.2428876 0.4077667 0.53306544
-0.014436756 1.5112971 1.638158 1.4292166 0.44791996 -0.2605392 -0.7101623 -0.1034499
0.101244524 -0.7818472 0.91794217 1.2739029 0.73713326 -0.62843305 -0.33918867 0.013996356
-0.31136534 -0.43417206 -1.1016443 -0.008355573 0.22465284 0.248461 -0.109964065 0.4364709
0.31818777 0.86656004 0.95894986 1.5208447 1.3944607 0.77511734 -0.15247232 0.90608686
-0.025641805 -0.25736734 -0.1428573 0.036840405 -0.01893734 0.7814042 0.53402215 -0.10486331
-0.7017671 -0.48028225 0.1557018 -0.29773748 -0.1495454 0.049801636 0.12882361 0.41105393
1.5228187 1.6590583 1.4463432 0.6784705 0.4026752 0.14378887 -0.42451605 -0.9420381
-0.53333217 -0.6310739 -1.2255563 -1.8789245 -1.125122 1.0960295 0.3534993 -0.1950741
-0.94754004 -0.02394731 0.6603318 -0.38187918 0.30176824 0.64931893 1.6077194 0.794916
0.70437896 -0.23517612 -0.06365287 0.027615039 -0.42233092 -0.2835688 0.22727263 0.8102542
0.50028586 -0.19313854 1.6649429 0.66780865 -0.5179111 -0.54223007 -0.8162373 -0.44671193
-0.5854504 -1.2219056 -0.16595857 -0.4395247 0.72575766 0.30787194 0.14511992 0.09826204
0.23193261 -0.3615221 -0.45046037 -0.050440002 1.1331004 0.6634059 -0.23501514 -0.2920782
-0.62256384 -1.6771168 0.324151 -0.88474363 -1.1117922 -1.0813551 -0.54392433 -0.39793766
1.1239289 0.18984848 -0.25274488 0.086011775 -0.3501187 -0.42689583 0.108656615 0.4851781
0.030464511 0.3394811 -0.13283513 -0.29236984 -0.24132277 0.112384714 0.72418666 1.6769643
1.2227926 0.3111089 0.14884792 -0.3147665 -0.39449883 -1.7267697 -1.0411026 -0.19424112
0.6602089 -0.6539068 -1.4420165 0.2629079 0.36913148 0.03497834 -0.049764592 -0.0011620403
1.1135963 -1.2785788 -0.17457682 0.3891943 0.35135013 0.9877871 1.5356615 -0.40171444

layer3.0.bias f4 [64]
00000000: 1e4a d6bc 0708 023d b8a2 b13d 93f0 533e
00000010: 44ab b2bd 1d04 a5bc 1c95 b03d 2188 16be
00000020: 300c 70bc 1222 123d 2485 ecbd c4cf 4a3e
00000030: afc4 563d d0e1 953b 0d70 c2ba 03d5 fcbd
00000040: 7198 7bbd e524 103e d8d3 a73d 0ae1 a4bc
00000050: be1f 0fbe 26f6 d1bd 5771 93bd e35d 493e
00000060: bff8 713d 37c0 82bd e6c0 27be 3f1d 3abe
00000070: 9c14 00be 5098 4e3e 8bb4 303d b2a4 293e
00000080: 05a9 4ebb 1a76 d6bd 4017 87bd 99e3 983e
00000090: 0f3b ebbc 98d5 a6bc cd19 2f3d e60c 7fbc
000000a0: 309c 3d3e cc3c 13bd 67ff 28be 12bc 1f3d
000000b0: e20d 153d 47e0 2fbd d5e5 783d 913d bb3d
000000c0: 3e82 0b3e 9e6c 59be 5a68 babd 8a81 5c3d
000000d0: 6f3d 003c b418 003e 87d4 303d 2134 e8bd
000000e0: 6084 b73d 1ccb 7abd dd02 e13d e293 abbd
000000f0: a57f f63c 89d9 85bd 8910 c53c ee29 ff3d
-0.026158389 0.031745937 0.08673614 0.2069724 -0.087240726 -0.020143563 0.0862219 -0.14700367
-0.014651343 0.035677023 -0.11548832 0.19805819 0.052433666 0.004574038 -0.0014834419 -0.12345316
-0.061424676 0.14076574 0.08194703 -0.020126838 -0.13976952 -0.10252027 -0.07199352 0.19664721
0.059075113 -0.06384318 -0.16382179 -0.18175219 -0.12507862 0.2017529 0.04314093 0.16566733
-0.003153385 -0.10471745 -0.065962315 0.29861143 -0.028714685 -0.020365521 0.042749215 -0.01556704
0.18516612 -0.035946652 -0.16503678 0.038997717 0.036390193 -0.042938497 0.06076606 0.09142602
0.13623902 -0.2123284 -0.09101935 0.053834476 0.007827147 0.12509423 0.043171432 -0.11338068
0.089607954 -0.061228856 0.10986874 -0.08377816 0.030090163 -0.06535632 0.024055736 0.12459169

layer3.1.weight f4 [64]
00000000: eb4b 3741 fc16 a540 f921 3c41 7962 9f40
00000010: fbce cd40 44c0 8340 28ae 1541 10fe 5041
00000020: 6ae7 1141 82e5 cb40 1258 2c41 2497 2141
00000030: 8b2c bc40 86b3 5741 d4b6 3841 3fa3 f340
00000040: 8e93 f940 1707 2041 88f1 9140 41b6 1541
00000050: 1ebc 5b41 0774 2041 ef42 8540 2369 b440
00000060: df21 ec40 d00a 1541 97cc 8140 d6d0 6741
00000070: 4964 bf40 3e7b 0141 24fd 8b40 7fe6 9140
00000080: db72 9240 2c69 0541 566d 2941 c7e6 2741
00000090: 84f4 ce40 ede9 e840 52ad 8540 8843 6b41
000000a0: 6bfd a840 83d4 ca40 4fcc 0041 2e76 1341
000000b0: c181 ee40 1673 b640 6762 8e40 314c 0041
000000c0: d49e 0041 5db1 e440 5126 5d41 d9ed 0d41
000000d0: 8e00 cc40 d3ff 1241 d4df fb40 73ed 0e41
000000e0: b7c9 c440 f9a4 0641 8d32 b140 8cdb aa40
000000f0: 6c04 8f40 002c cf40 883b 9b40 13ed a340
11.456035 5.1590557 11.758294 4.9807706 6.431516 4.11722 9.355019 13.062027
9.118998 6.371766 10.771502 10.0994 5.8804374 13.481329 11.544636 7.6136775
7.799262 10.001731 4.560734 9.356996 13.733427 10.028327 4.1644206 5.637834
7.3791347 9.31514 4.0562243 14.488485 5.980992 8.092588 4.374651 4.5593867
4.5765204 8.338177 10.589193 10.493842 6.467348 7.2785554 4.1774073 14.703987
5.280935 6.3384414 8.04988 9.216352 7.453339 5.7015486 4.449512 8.018601
8.038776 7.146651 13.821855 8.870568 6.3750677 9.187457 7.871073 8.932971
6.1496234 8.415277 5.5374207 5.3393 4.46929 6.474121 4.851017 5.1226897

layer3.1.bias f4 [64]
00000000: 5b2f 9e3d 4c0c 14be c407 8c3d 0cff e93d
00000010: cf30 e23e 48a0 133f 8f42 05be 8973 513d
00000020: aca3 b3be 6925 013e c094 ec3c 82d1 913c
00000030: 6e95 4fbe 1ccd 263d dade c5bd 85c3 28bf
00000040: 33f9 f7be ff2b d1be a8e9 003f 1718 563e
00000050: 61f7 623d be0a 8b3e 6014 61be 5dbf 553e
00000060: 52e0 403d 9afd 66bd af1d 57be 3201 233d
00000070: b0be 693e 79d8 0e3d 3b74 88be 10e7 ccbe
00000080: 151d f2be 3d3b 00be 89c2 313d c3bb f83b
00000090: 686d 903e 2c0f 4fbe 9b4e e2be fecd c1bd
000000a0: 7a99 e0be fc19 463e 1d8e 38be 4c98 863e
000000b0: b365 603e 0ae3 1f3e b327 9e3e d675 46bc
000000c0: 8019 9fbe 62bb 873d 8735 783d 9090 b0be
000000d0: 84ea a53e c65b d0be 1891 56be 7c97 f93c
000000e0: e666 f23e 5b52 be3e 1657 58be 1987 fa3e
000000f0: 7990 02bf 095f 603e 10ba 093e 7cf9 45be
0.07723876 -0.14457816 0.06837419 0.114255995 0.44177863 0.57666445 -0.13013671 0.051135574
-0.3508581 0.12611927 0.028879523 0.017800096 -0.20271847 0.04072295 -0.09661646 -0.6592334
-0.4843231 -0.4085388 0.5035653 0.20907627 0.0554117 0.27156633 -0.21980429 0.2087378
0.04708893 -0.056394197 -0.21007417 0.03979606 0.22826648 0.034874413 -0.26651177 -0.40020037
-0.47287813 -0.12522598 0.043398414 0.0075907423 0.2820847 -0.20220631 -0.44200596 -0.09463118
-0.43867093 0.1934585 -0.18022962 0.26288068 0.21913795 0.15613952 0.30889663 -0.012113055
-0.31074142 0.06627537 0.060597923 -0.34485292 0.32405484 -0.40695018 -0.20953786 0.030467741
0.4734413 0.37172207 -0.2112697 0.48931196 -0.510017 0.21911253 0.13449883 -0.19333452

layer3.1.running_mean f4 [64]
00000000: 8c3a 1cc1 5372 60c1 4b51 0041 23b0 6cc0
00000010: ad67 a43f b727 1941 bf8a 2b41 f6d6 7d3f
00000020: 31ea ad3f 0d02 3241 f0f5 88bd 94d4 023d
00000030: cd4f 03c1 37ef 9141 97ff 13be 2d20 adc0
00000040: 94c2 63c0 6f7d a1c1 9758 da40 6114 d03f
00000050: 397a 6e41 058c 1140 a183 07c1 991a c941
00000060: 36c6 1d3f 64eb 1b41 c1e3 2ac1 6e44 0cc0
00000070: 2fba b940 945f 5cc1 6a37 a9c0 cba4 5bc1
00000080: 1f03 34c1 3911 4240 d241 e5bf d0a0 ffc0
00000090: 3b4d 07c1 e3c6 91c0 4364 fac0 c16a 1ac1
000000a0: b0a7 b240 8804 2741 10bc bec0 414b 0941
000000b0: de31 2b3f 7382 28be c7cb c0bf 0124 35c0
000000c0: 0173 2dc1 1542 1340 23ca a140 bc31 8fc0
000000d0: 0390 e33d 571a bbc1 aab5 8340 092c 88c1
000000e0: 25de 60bf 404c c3c0 95db a040 a8e7 1040
000000f0: 0897 cf40 09e5 b041 e757 b440 3c7a 4741
-9.764294 -14.027911 8.019847 -3.6982505 1.2844139 9.572196 10.721374 0.9915613
1.3587095 11.125501 -0.06687534 0.03194101 -8.206983 18.241804 -0.14452969 -5.4101777
-3.558751 -20.186247 6.823314 1.6256219 14.9048395 2.274171 -8.469636 25.137987
0.6163057 9.744968 -10.680604 -2.1916766 5.8039775 -13.7733345 -5.2880144 -13.727733
-11.250762 3.0323012 -1.7910712 -7.9883804 -8.456355 -4.555528 -7.824739 -9.651063
5.5829697 10.438606 -5.960457 8.580873 0.66872966 -0.16456012 -1.5062188 -2.8303225
-10.840577 2.3009083 5.055925 -4.474821 0.111114524 -23.387861 4.115926 -17.021502
-0.87838966 -6.103058 5.0268044 2.2641392 6.4871864 22.111834 5.6357303 12.467342

layer3.1.running_var f4 [64]
00000000: 58cd 2f42 4165 b241 6655 9241 ad1f c341
00000010: cd27 0d42 dd67 df41 ed74 3842 fc79 e941
00000020: b67f c641 1321 4e42 d185 4042 e213 cc41
00000030: 9512 2842 5c4c 3542 34b8 1c42 7fe6 6142
00000040: ec2b 4642 673b fd41 50a2 fb41 c813 0942
00000050: 9183 ff41 fdb7 ef41 d963 c641 de68 0a42
00000060: 70e9 c241 b43f d641 5a7f 3242 43d6 6642
00000070: fd2e e541 f448 c641 1c25 ce41 529f dd41
00000080: d772 1d42 1eb2 3642 44b9 3442 a368 b441
00000090: 4af1 9242 7e14 f341 ec9a ef41 2e42 9241
000000a0: feec 0242 c6e6 2042 46e5 2342 0d9e 0642
000000b0: 00dc f341 b31a 0c42 0b44 5442 6d6d 0d42
000000c0: 2db2 2342 b1e7 0742 b8ff f741 e851 1c42
000000d0: b5e7 9542 ad30 e941 7ddb ec41 f82a 3742
000000e0: 01ff 9441 fed7 0742 561a c741 c302 4c42
000000f0: 8647 b541 98e6 7b42 0c4e 5a42 debc b441
43.95053 22.29944 18.291698 24.390467 35.288868 27.925714 46.114185 29.184563
24.812359 51.5323 48.13068 25.509708 42.018147 45.32457 39.179886 56.475094
49.542892 31.654005 31.454254 34.269318 31.939241 29.964838 24.798754 34.60241
24.363983 26.781105 44.624367 57.70924 28.647943 24.785622 25.76812 27.702793
39.36215 45.673943 45.180923 22.551092 73.47127 30.385006 29.950645 18.282314
32.731438 40.225365 40.9739 33.654346 30.482422 35.026073 53.06645 35.35686
40.924 33.97626 30.999863 39.079987 74.95255 29.148767 29.607172 45.79196
18.624514 33.96093 24.88786 51.002697 22.659924 62.97519 54.576218 22.59222

layer5.0.weight f4 [10, 64]
00000000: 2020 3dbf 060a 09bf 1fdf fc3f 35ff b0bf
00000010: c442 82c0 88b0 843f 65af 2140 ed26 e43f
00000020: a8bc 8f3f ed4b 4abf 8aa7 1440 f179 49bd
00000030: a88c 82bf 0c93 6c40 ea66 febf 679d c340
00000040: 3fc9 3240 1d21 35c0 0598 31c0 fcd4 87c0
00000050: a36c 1441 0eb8 da3e 1da9 a040 7109 45be
00000060: eef8 d4bf 07eb 65c0 f905 8fbf 49e3 de3f
00000070: ae86 2740 7686 1ac1 5138 ac3f 647d 153f
00000080: 1157 1f40 b4e2 0440 5267 87bf ea51 483f
00000090: e7bf 08bf eaa4 b4bd f275 4c3f 2c45 24c1
000000a0: 6662 13c0 29df fabf 7795 57bd 03ab 1cbf
000000b0: 1cea b9be 363a 7c40 e332 753f 2696 c5bf
000000c0: fe8d 823f f78e 6540 d602 f3be cbce 1840
000000d0: dc8f 58c0 138f 00c0 a10f 7a3f 8bfb a3c0
000000e0: a9d4 80bf f8a8 91c0 8db9 3140 1664 e6be
000000f0: b465 0740 c2eb 09be 4374 42c0 1b24 2241
00000100: 47b3 183f 20d9 1340 f02f a040 6151 c2bf
00000110: 72c1 15c0 406a b7bf 4224 8440 ebe9 0040
00000120: 9869 0b40 1dce 8cc0 cb74 5a3f ad51 93bf
00000130: dbbd 08c0 b29b 71be e51f e5c0 7f02 a5bf
00000140: c593 5bc0 7a12 ce40 5caa 1440 823a 2f3f
00000150: cad7 bc3f 3b35 e13f 975e 603d 6bda e3bf
00000160: a693 0140 b2df 7c3f d56f c5bf 6311 5e41
00000170: 2c4f c93f d1c1 0a41 cc64 a93e e0f8 a63f
00000180: 0f58 1dbf 768b 06c0 5a4a e6be 821e 38c0
00000190: fd21 98c0 7587 4f40 68b6 a3be b6fe 4140
000001a0: 155c 80bf ce1e 743f 755f be40 377a 52be
000001b0: 776d 3f40 7cd6 0f3e 8fda 2d40 cf32 c53f
000001c0: f8f0 a73f 2a36 9240 f72c a33f 4545 6040
000001d0: cc77 933f 099b 223f 0c42 453f 8d62 a3c0
000001e0: aec1 3bc0 6145 fbbd 70c3 c940 8603 803f
000001f0: 7dcf 8f40 69a7 e2bf 2022 95bf a2c3 c93f
00000200: 10d3 d3bf d380 fe3f 13ff 03c0 9bf1 82bf
00000210: 81c2 0a3e 52ff 9ec0 410a 4140 2fc7 ee3f
00000220: 4c82 be40 462d a53c 4052 7d40 671b 343f
00000230: 981b 89bf 5e9e 5340 86cb 9c3e b5b4 acc0
00000240: bcc2 35c0 0eba 953e 1fef 2ec0 e811 3ac0
00000250: 3a92 a73f dd41 a3c0 6536 a13f 95a6 1ac0
00000260: aa45 dbbf cdf0 97bd 814a 8a3f 8c91 b5bc
00000270: ea9a 3640 3522 a43f 0ae2 9a40 c471 90bf
00000280: c10a 82bf 26da 05c0 12d9 4ebf fd5e 9abf
00000290: fdd2 8bc0 4b6b f53f 96ad 27be f19d f8bf
000002a0: 5140 c640 3489 d53f 30f1 08c0 088c 853f
000002b0: 7d7c 9abf 65a2 edc0 5217 1ec0 5865 e3be
000002c0: a12e 13c0 dcae 87be 8c4f 263e dce3 d13e
000002d0: 7aaf c03f e903 953f 8dd5 89c0 f59e e2bd
000002e0: 7e81 90bf 735e adbf 58d8 ac3f 9450 98c0
000002f0: d752 3a3f db63 96c0 567a f3be 3328 953f
00000300: 7a84 8d40 9f49 92be 4d51 17bf 29e8 72bf
00000310: 4877 c23e 17b5 9fc0 f390 4b3f a59e 84c0
00000320: d23b 7740 6bac e5be 916b c9c0 f0f8 a2c0
00000330: bfd6 063f 5125 a4c0 b002 98bf a6b7 0840
00000340: cae2 cb3f bf79 8b3f 1f47 cfbe afe3 f6bf
00000350: 9f74 b6be b264 40c0 2acd 253f 1a40 03bf
00000360: f619 a4c0 d364 0ebf 07fe 7240 3b24 3a3d
00000370: ff9a 04c0 ac07 653f d894 b13f 6df8 5c41
00000380: aed2 15bf b4fc 8e40 297a f9bf d953 b6c0
00000390: 41ff c33f 777d e2bf e89a 2c3f 8be9 8d40
000003a0: 5723 9640 cbcb 9ebf 6404 8d40 6b61 8dc0
000003b0: 6604 f9be e0e4 46c0 5468 383f b2cf b0bf
000003c0: be9c 4240 947f 5dbd 3075 dcbf cdf7 a7c0
000003d0: e93b cabe 2d03 ad40 2180 9540 18bd 5ebf
000003e0: b582 833c 8074 e7bf 248e 16be 1cb8 a83f
000003f0: d79d 8bbe d1a6 74bf 90ac c6bf fbfe 823f
-0.73877144 -0.5353092 1.9755591 -1.3827883 -4.07065 1.0366373 2.5263302 1.7824379
1.1229448 -0.79022104 2.3227258 -0.049188558 -1.0199175 3.696475 -1.9875157 6.112964
2.793533 -2.830146 -2.7749035 -4.244749 9.276523 0.42718548 5.0206437 -0.19241883
-1.6638467 -3.59247 -1.1173698 1.7413112 2.6175952 -9.657827 1.3454686 0.58394456
2.489689 2.0763369 -1.0578406 0.7824999 -0.5341782 -0.08820517 0.7986747 -10.266888
-2.3028808 -1.9599353 -0.052632775 -0.61198443 -0.36311424 3.941053 0.9578077 -1.5436447
1.0199583 3.586851 -0.474631 2.3876216 -3.3837805 -2.0087326 0.976801 -5.124456
-1.0064899 -4.551876 2.7769501 -0.44998235 2.1155825 -0.1346884 -3.038346 10.133815
0.59648556 2.3101273 5.0058517 -1.5181085 -2.339932 -1.43293 4.129426 2.0142772
2.17832 -4.4001603 0.8533446 -1.15093 -2.1365879 -0.2359455 -7.1601434 -1.2891387
-3.4308941 6.4397554 2.322898 0.6844865 1.4753354 1.759437 0.054777708 -1.7801031
2.0246367 0.9877883 -1.5424753 13.879245 1.5727286 8.672318 0.33084714 1.3044701
-0.6146249 -2.102262 -0.449786 -2.876862 -4.754149 3.2426426 -0.31975102 3.0311713
-1.0028101 0.95359504 5.9491525 -0.20554434 2.9910562 0.14046663 2.7164648 1.540613
1.3120413 4.569112 1.2748097 3.5042279 1.1520934 0.63517815 0.77053905 -5.10578
-2.9336963 -0.12269092 6.305107 1.0001075 4.494078 -1.770734 -1.1651039 1.5762827
-1.6548786 1.9883064 -2.0624435 -1.0229982 0.1355076 -4.968667 3.0162508 1.8654536
5.9534054 0.02016319 3.9581451 0.7035431 -1.0711546 3.306541 0.30624026 -5.397059
-2.8400106 0.2924351 -2.7333448 -2.907343 1.30915 -5.10179 1.2594725 -2.4164174
-1.7130635 -0.07418976 1.0803987 -0.022164129 2.8532052 1.2822939 4.8400927 -1.1284719
-1.0159532 -2.0914397 -0.80799973 -1.2060238 -4.3695054 1.9173368 -0.16374812 -1.94232
6.195351 1.6682496 -2.139721 1.0433359 -1.2069241 -7.4260736 -2.4701734 -0.44413257
-2.299721 -0.26500595 0.16241282 0.40994155 1.5053551 1.1641818 -4.307318 -0.11065475
-1.1289518 -1.3544449 1.3503523 -4.759836 0.72782654 -4.6996894 -0.47554272 1.1652893
4.4224215 -0.28571793 -0.5910843 -0.948855 0.3798163 -4.9908557 0.7951805 -4.144366
3.8630261 -0.44858107 -6.2943807 -5.092888 0.52671427 -5.129555 -1.187582 2.136209
1.5928586 1.0896529 -0.4048395 -1.9288234 -0.3563585 -3.006146 0.6476618 -0.51269686
-5.128169 -0.55622596 3.7967546 0.04544471 -2.0719602 0.8946483 1.3873549 13.810651
-0.58524597 4.4683475 -1.9490405 -5.6977353 1.5312272 -1.7694539 0.6742387 4.4347587
4.691814 -1.2405943 4.406786 -4.418142 -0.48636168 -3.1077194 0.7203419 -1.3813384
3.0408168 -0.054076746 -1.7223263 -5.248999 -0.39498833 5.4066377 4.6718907 -0.87007284
0.016053537 -1.8082428 -0.1470266 1.3181186 -0.2726886 -0.9556704 -1.5521412 1.0234064

layer5.0.bias f4 [10]
00000000: 360c cdbf 1e76 eabe 452b 47bf 5e74 15bf
00000010: 0ca7 96bf 9856 52bf 962a 0dbf dd7a babf
00000020: 6cd9 3cbe 3ff3 8bbf
-1.6019351 -0.4579324 -0.778004 -0.5838069 -1.1769729 -0.8216338 -0.55143106 -1.4568745
-0.18442315 -1.0933608
