GSTENG_Datasets/v-net_ks=3_lr=0.001_epoch=200_tanh.pth (torch, 45290 bytes, 20 tensors)

layer1.0.weight f4 [16, 6, 3]
00000000: c61f 8b3c 3ba2 223d 8db7 9b3c 9240 e23d
00000010: 359a 0a3e 2cb1 dd3d 369f 42bb 010e 933c
00000020: cef3 ea3c 23cf 51bf 3b76 15bf 9351 01bf
00000030: a724 1bbe 18f7 393e c2c9 19be faba 6c3f
00000040: 3852 c03f 9307 603f 78d4 033f d527 3a3f
00000050: cf44 c53f b2b4 9fbd 5692 22bd a0e2 213e
00000060: b227 863e d671 af3e a597 073f 048a dbbe
00000070: ae82 c3be 1c67 cdbe 0d0d f3bd 9633 173e
00000080: f0cb a5be 52f3 9c3e 0f40 26be 6106 20bf
00000090: 4036 443d 7b2b 033d 453c 66bd 5144 823d
000000a0: 78c9 cdbc 1622 bbbd 6d44 9b3d ecda dd3c
000000b0: 4c47 1cbd c699 26bf 2067 adbe f75f 083e
000000c0: 6e93 98bf 0669 3b3e 4dec ae3f 7488 a1bf
000000d0: 909d 9cbe 4560 183f e038 f63d 0724 543d
000000e0: 54eb dabc 0d7d b3bc 5093 023d 4c30 2bbd
000000f0: b870 5f3d d254 d23c 7e6b ccbb 39ef 6a3e
00000100: 6dd9 1d3f 2047 993f edcf 52bf 0ec0 92bf
00000110: 3190 d9be 8169 9ebe c598 17bf 47e6 60bd
00000120: 0f43 bdbe d642 0ebe 1dcc 80be caf6 5fbf
00000130: 076f 44bf ffa9 a7bf a8b3 d4bd 68ee 803d
00000140: fca2 31bd 8181 90bd 48d3 253f 2aad 773f
00000150: 4bd1 2d3e fc8d 5ebd 801b 4b3e 926c 563e
00000160: 4247 e43e 16c9 0c3f 0779 22be 8f94 92be
00000170: 70b8 51be 68dc 7b3f 8708 993f 4814 5c3f
00000180: dd81 9abc 52a4 bebd ed36 cfbd b7a2 1e3f
00000190: 84db a13e dad1 debe 942a 8b3e 5462 2ebe
000001a0: 99d9 d8be 3f70 9f3e 5af0 01bf a520 84bf
000001b0: e0ed 4e3e 091e ba3e 4db5 6f3e 3afc 98bf
000001c0: 3cbe aabf fb6a 9abf 3374 79bd fd40 7abc
000001d0: c118 93bd 4668 7d3d 3ff4 7b3d 6c36 20bf
000001e0: f478 d93e b837 4a3f 7480 223f 185a c13e
000001f0: 65ef f83d 9a06 42be 5dbb 26bf 609f 923e
00000200: ba57 2c3f 4a24 7ebe 0d67 e9bd fb2b 5f3d
00000210: 156b 86be 8184 f33d 9dba a73e 054c af3e
00000220: 3657 97be 3f13 bcbe 63c2 0f3f f5d3 4ebd
00000230: c484 a33e 0bcc ba3f d7e3 d93d a862 1dbf
00000240: 1b94 96bd fafd 6a3c 6541 993d aec3 e0bf
00000250: 1fed d1bf 49b1 8cbf 4aaa f9bd 7d8d ecbd
00000260: f05c 493c 7af7 c73d 7ca6 5cbe a067 a9be
00000270: 2006 a7be 1467 29bf e56e 21bf d085 aa3e
00000280: 1645 943e 29b6 6a3e d5f9 eebd a0a5 19be
00000290: bcf1 06be c748 963f 7cd2 b73f 981e a33f
000002a0: e466 813d 564d ed3c 71f3 4fbc d366 b1be
000002b0: 3dab 113d 1208 313f c6da 4dbe 57cf f83e
000002c0: 76f5 4b3f 633e 24be 446d 983d d5f1 223e
000002d0: 496c dfbe f0d2 9abe c3f8 c7be c5f0 f73e
000002e0: 6639 943f 971c 863f fd8d 39be e9f7 993c
000002f0: 0be9 18bd 52b2 49be e904 3abf 6ca0 f9be
00000300: aa97 c23e f235 2c3f 8ea4 2d3f b5e3 cd3e
00000310: f1e1 9c3e f2ac 993e 19de 52bd a173 5abd
00000320: a729 413c d78d 89bc 7287 febc a8ae f3bc
00000330: b105 05bd e723 38bd e4fd babc a92f 12be
00000340: cd2c df3e 7b2f 1bbe 6ab9 5a3e 091b a23f
00000350: 3b06 fa3e 71ef 68bf 6b17 1cc0 62b0 85be
00000360: 615d 5cbd 94c5 bdbc 32cb cdbc 790b 23bd
00000370: 2716 86bb 8412 43b9 4817 0bbd 4bce bdbb
00000380: cc06 1d3c f2f6 043f 51ff 513f a4ea 0a3f
00000390: 9560 97bf 772d a1bf ce6d ddbf 9ee5 ed3b
000003a0: 8a1f 543e b1a0 983e 290f 81be 26d3 3fbb
000003b0: 785c 2b3e f451 dcbc bc4d fd3c e15b f13d
000003c0: 0fc6 8cbd e3dd b23b 32de 8b3d 1b7c 933e
000003d0: 7e8f 413f a9ed 913f 3b25 45bf 1d68 24bf
000003e0: 7fd9 babe 3321 51be 973a 6abf abb2 dabe
000003f0: 69ff f83e 4cd6 e43e c1fa d43e 069d 39bf
0.016982924 0.039705496 0.019008422 0.11047472 0.13535388 0.108248085 -0.0029696948 0.017951014
0.028680708 -0.8195669 -0.5838353 -0.505151 -0.151507 0.18160665 -0.15018371 0.92472804
1.5025091 0.8751156 0.51496077 0.7271703 1.5411624 -0.07798137 -0.039690338 0.15809107
0.2620216 0.34266537 0.52965766 -0.42878735 -0.38185638 -0.4011773 -0.118677236 0.14765772
-0.32382154 0.3065439 -0.16235374 -0.62509733 0.0479033 0.032023888 -0.05620982 0.063606866
-0.025120482 -0.09137361 0.075814106 0.02708193 -0.03815393 -0.6507839 -0.3386774 0.13317858
-1.1919992 0.18301782 1.3665863 -1.2619767 -0.3058896 0.59521896 0.12022567 0.05179217
-0.026723541 -0.021910215 0.03187877 -0.041794106 0.054550856 0.025675211 -0.0062384 0.22942819
0.6165989 1.1974831 -0.8234852 -1.146486 -0.42492822 -0.30939868 -0.5921748 -0.05490711
-0.36965224 -0.13892683 -0.25155726 -0.87485945 -0.76731914 -1.3098754 -0.10385829 0.062954724
-0.043368325 -0.07055951 0.64775515 0.967486 0.1697437 -0.054334626 0.19834709 0.20939854
0.44585615 0.5499433 -0.15866481 -0.28628966 -0.20480514 0.9838319 1.1955727 0.85968447
-0.018860752 -0.09308685 -0.10117898 0.61967033 0.3161279 -0.4351948 0.27180922 -0.17029697
-0.42353514 0.31140324 -0.5075737 -1.0322462 0.2020793 0.3635104 0.23409005 -1.1951973
-1.3339305 -1.2063898 -0.06090183 -0.0152742835 -0.07182456 0.06186702 0.061512228 -0.6258304
0.42475092 0.7899127 0.63477254 0.3776405 0.12155036 -0.18947831 -0.65129644 0.28637218
0.6732136 -0.2481853 -0.113966085 0.054485302 -0.26253572 0.118905075 0.32759562 0.34237686
-0.29558724 -0.36733434 0.56155986 -0.050495107 0.3193723 1.4593519 0.1063916 -0.6147866
-0.073524676 0.014342779 0.07483176 -1.7559717 -1.6400489 -1.0991603 -0.12190683 -0.11550424
0.012290224 0.09763999 -0.21547884 -0.33086872 -0.3262186 -0.6617291 -0.63059837 0.33305216
0.28958958 0.22921051 -0.116687454 -0.15004587 -0.13178152 1.174096 1.436111 1.2743711
0.06318453 0.02896754 -0.012692318 -0.3464876 0.035563696 0.6915294 -0.20102987 0.48595688
0.7967142 -0.16039424 0.07442716 0.15912564 -0.43637303 -0.30239058 -0.39056978 0.4842588
1.1580017 1.0477475 -0.1812057 0.01879497 -0.037331622 -0.1969693 -0.7266374 -0.48755205
0.38006335 0.67269814 0.67829216 0.4021279 0.3064113 0.3001476 -0.05148134 -0.05333293
0.011789716 -0.016791267 -0.031070445 -0.029746369 -0.03247613 -0.044956114 -0.022826143 -0.14275993
0.43588868 -0.15154831 0.21359792 1.26645 0.48832878 -0.9099036 -2.4389293 -0.26111132
-0.05379999 -0.023165502 -0.025121305 -0.039805863 -0.0040919962 -0.00018603547 -0.03395775 -0.0057924143
0.00958414 0.5193931 0.82030207 0.54264283 -1.182635 -1.2592 -1.7299135 0.0072600385
0.20715156 0.29810098 -0.2520688 -0.0029270141 0.16734493 -0.026894547 0.030920856 0.11785103
-0.06873714 0.00545858 0.0682949 0.28805622 0.75609577 1.1400653 -0.77009934 -0.64221364
-0.3649406 -0.20422821 -0.9149565 -0.42714438 0.48632362 0.44694746 0.4159756 -0.72505224

layer1.0.bias f4 [16]
00000000: fc72 f03f c117 6f3d fbb1 71bf 2bdc 883f
00000010: 3ee1 58bd 422a 6d3f 2fe5 0c40 6bdd 333f
00000020: 4220 d03f f347 28c0 a50d bebe 9698 c33f
00000030: 7af4 2a40 ecd4 bfbf 4529 a33e 65fe a6bf
1.878509 0.058372263 -0.944122 1.069219 -0.052949183 0.92642605 2.2014883 0.7025973
1.6259844 -2.6293914 -0.37119785 1.528094 2.6711717 -1.4986854 0.31867424 -1.3046385

layer1.1.weight f4 [16]
00000000: 6169 563f 8ce6 193f 60b8 6d3f 49ab 013f
00000010: a6c9 413f df39 003f 7b37 8c3e 1838 a23e
00000020: 6cb9 423f e788 2f3f 69a8 d43e eb7f 443f
00000030: b899 ec3e 68f5 033f 3694 183f 2b86 da3f
0.83754545 0.6011741 0.9285946 0.50651985 0.75698316 0.50088304 0.27386078 0.3168342
0.7606418 0.6856827 0.41534737 0.7675769 0.46211028 0.51546335 0.5960115 1.7072195

layer1.1.bias f4 [16]
00000000: 63f5 8abf 0d09 9abf a743 973f 5367 723f
00000010: 3f42 a7bf 8f73 4fbe d014 03be 1c06 383f
00000020: 34eb aabf 5d9f 76bf 5781 2e3f c5e4 3ebf
00000030: 7385 0a3d a349 083f 0d78 e13f 37a3 ba3f
-1.0856136 -1.2034012 1.1817521 0.9468891 -1.3067092 -0.20258926 -0.12800908 0.7188432
-1.3353028 -0.9633692 0.68166107 -0.74567825 0.033818673 0.5323736 1.7614762 1.4581059

layer1.1.running_mean f4 [16]
00000000: ad4c f63f 3472 123d d103 64bf 8290 843f
00000010: 702a 19be 600a 763f 1bea 0840 bb7f 2a3f
00000020: b447 d63f 0b63 2ac0 d268 a1be 3b8b c43f
00000030: bf77 2b40 16d3 c4bf 81f9 4d3e a310 aebf
1.924215 0.035753444 -0.89068323 1.03566 -0.14957595 0.9610958 2.1392887 0.6660115
1.6740632 -2.662295 -0.31525284 1.535499 2.6791837 -1.5376918 0.2011471 -1.3598827

layer1.1.running_var f4 [16]
00000000: 4eeb 3b3a 562e 943c c6bc 5a3b 556a a83a
00000010: c1e0 543c d326 103b d2c0 923b 6979 003b
00000020: 3fe9 d83b ecb9 ab3b 8e60 ed3a eca0 593a
00000030: 0f81 ec39 3961 8c3a 7c17 163b 4388 8f3b
0.0007168547 0.018088501 0.0033376678 0.0012849072 0.012993039 0.0021995797 0.0044785524 0.0019603616
0.006619602 0.0052406695 0.001811044 0.00083018723 0.00045109584 0.0010710127 0.0022902181 0.0043802573

layer2.0.weight f4 [32, 16, 3]
00000000: 70c9 863f 8f35 91be bf1d 31bf 96c3 0cbf
00000010: f783 a03d e676 023f 3df3 54be 0412 83be
00000020: 11ea cbbd 640b 70be c760 5c3e 5199 553e
00000030: bc27 fc3e 9c3f bb3e 01e8 c63e 3a0f fabc
00000040: 2fd0 0e3e 9ac9 f03e 298f 983e 9b32 4d3e
00000050: 6547 57bd 4b09 0a3f 450e 9e3d 1fa7 54bd
00000060: 4dd4 a7be dfd4 94be 21ee 2c3f 18d7 81bd
00000070: 5735 44bf 77b3 8dbf cca3 a83e 88fb 24bf
00000080: 6243 19bf 1ce0 97bf 0dfa b5be 6d64 ad3d
00000090: b4a0 7cbf 945a 9fbe 3e67 bf3e fbef 3bbf
000000a0: 41a7 86bc fe64 e53e 2624 253f d407 f5bc
000000b0: c0a8 d1be d0ea 75bd b3b3 0bbf 2545 57bf
000000c0: 9809 793e 385f ecbd 707d 4fbf ac26 82bd
000000d0: acdc 793e 3932 4c3e a84c 9c3f 891a c43e
000000e0: c29c 97be ab9c 4bbf bc32 37bf 4c1b f5be
000000f0: 2c65 46be 8f48 d43e d173 9c3e f639 a1be
00000100: 7407 5cbd 3ce0 193e 9be9 c03e 9fcb 033f
00000110: 45d2 893f f8f7 003f 3bd3 a83e 89ad 963d
00000120: e9e6 75bf f1c4 48bf 5e11 1fbf 3e9a fd3e
00000130: a2ad 073f b4e2 cc3e c3a9 703e d38e a53e
00000140: 6709 063f 1f13 173f 8309 553f a551 993f
00000150: 4e63 e63e 0045 723e cf8e 693e e74a 35bf
00000160: 9327 24bf 9828 08bf 4ac5 c7bd f68a 4d3e
00000170: 94d5 873e d017 913e 477e bf3d 57c5 513e
00000180: 50c9 d0be b6af dbbe f3c4 243e 8ff0 8dbe
00000190: 61a8 bf3e 7b6d 1e3f b41e 60be 03a0 37bd
000001a0: 5eff a33e 8555 dbbe 967c 73be bace 1f3f
000001b0: 0c3c d83e 9b1e 003f fc42 463f ac5f 57bf
000001c0: 06ae 21bf 0aa6 823e 1326 483d 1bbe 533e
000001d0: 62c7 843f 9f5e 263f 7046 923c 34f2 23bf
000001e0: 153a 96bf 5f9c 23bf 622e f6bd 1fc0 733f
000001f0: 50d1 6d3f 4425 5e3e b9fb 983d 8d8d 7c3e
00000200: 881a 4e3e ca03 b03e e2c9 403f f09f 383f
00000210: 4aed 203f 7847 233f 0bc8 0b3f e07f 3dbe
00000220: 2eed 86bd 0821 103e a5a9 ac3e fe4f 11be
00000230: e1f0 e1be 7818 8c3e 8259 de3e 1aa3 9ebd
00000240: d975 893f a11e 523e 3ed6 6cbf 3232 973f
00000250: 214a 143f 26d2 07be b2cf 80be f32c c7be
00000260: 90e5 adbd 401d c03d 627a a7be cfc7 e1be
00000270: 030a bdbe 9449 cebe 87cf 33bf c8d8 c2be
00000280: 8755 6dbe 7e12 01bf d5c2 6ebf 20b1 59bf
00000290: 30a2 33bf b177 9cbc ce85 82bd 641a 88be
000002a0: 4cb7 a83f 7b9d 1c3f 395b 003f c6f4 28bf
000002b0: b6b2 04be cdfb 433e 2ee2 6abe e274 2abf
000002c0: caed 85be 367a 99bf fb30 64bf b3a7 9ebd
000002d0: 6348 a7be ce3e cd3d c053 713e 390b 37be
000002e0: 16be 563e 7317 1a3f e7d3 63bf 76b7 0abf
000002f0: 35e8 573a c094 423c f09f 763e 6990 a8be
00000300: cf7e b8be e592 35bf cb85 23bf 79aa a1be
00000310: 6b8d afbe 8f6f 23bf e09c a63e d729 b33d
00000320: d423 063f 7270 aebd b26f 58be 3608 31be
00000330: 2b4d 583d 6d92 08be 0139 9abd 1f5a 653e
00000340: cf88 233f ac29 b63c 0838 4a3f df7d c53e
00000350: 1e18 d1bc 57e6 113f b017 323f fd56 d43e
00000360: 04e9 1abf 3257 dbbe 948d 973d 9cf6 993e
00000370: 0a25 28bf 2224 99be faf8 46be 3410 2dbe
00000380: be32 ae3e 527c 7fbf ed4e 5dbf 441c a1be
00000390: 35ed a33c 9642 c73e aead 08bf b590 d9bd
000003a0: 9ed5 35be 8e92 37be 2501 c63e 6338 723e
000003b0: cc5e 1c3e 2fe3 d5be 0d24 36bf 876a 4cbf
000003c0: a481 253f dba6 643f e979 be3f 83a1 343e
000003d0: 35ae a7be fdc9 23bf 6062 d8bc 4b91 0fbf
000003e0: a455 02bf efae a7bf d728 9ebe 6d54 5d3f
000003f0: 694a f53e 2dac 183e 6380 a3bd fcd6 c53e
1.0530224 -0.28361174 -0.69186014 -0.5498594 0.0783767 0.50962675 -0.20795913 -0.25599682
-0.09956754 -0.23441845 0.21521293 0.20859267 0.49249065 0.36571968 0.3884888 -0.030524839
0.13946603 0.4702881 0.29796723 0.20038836 -0.05255832 0.5392043 0.077175654 -0.05191719
-0.3277916 -0.29068658 0.67550856 -0.06339854 -0.7664389 -1.1070393 0.32937467 -0.64446306
-0.59868443 -1.1865268 -0.35542336 0.0846642 -0.98682714 -0.31123793 0.37383455 -0.73413056
-0.016437175 0.44803613 0.64508283 -0.02991096 -0.4094906 -0.060038388 -0.54571074 -0.8408988
0.24320066 -0.11541599 -0.8105078 -0.06355032 0.24400586 0.19941033 1.2210894 0.38301495
-0.29611784 -0.7953593 -0.7156179 -0.47872388 -0.19374532 0.41461608 0.3055711 -0.31489533
-0.053718045 0.15026945 0.37678227 0.51482576 1.0767294 0.5037837 0.32973656 0.07357318
-0.96055466 -0.7842551 -0.62135875 0.4953174 0.5299932 0.4001671 0.23502259 0.3233553
0.52358097 0.5901355 0.8321764 1.1978041 0.44997638 0.23659134 0.22808383 -0.70817417
-0.64122885 -0.5318694 -0.09754427 0.2007254 0.26530135 0.2833848 0.09350257 0.20485435
-0.4077859 -0.42907494 0.16090755 -0.27722594 0.3743315 0.61885804 -0.21886712 -0.044830333
0.32030767 -0.42838684 -0.23777995 0.62424815 0.42233312 0.500467 0.7744596 -0.8413036
-0.63156164 0.25517303 0.048864435 0.20677988 1.0373347 0.6498813 0.017855853 -0.6404145
-1.1736475 -0.6391048 -0.120205656 0.9521503 0.9289751 0.21693903 0.07469887 0.24663372
0.20127308 0.3437789 0.7530805 0.72119045 0.62862074 0.6378093 0.54602116 -0.18505812
-0.06588207 0.140751 0.33723179 -0.14190671 -0.4412909 0.27362418 0.43427664 -0.07745953
1.0739089 0.20519497 -0.9251441 1.1812193 0.5792561 -0.13263759 -0.2515846 -0.3890148
-0.08491051 0.09380579 -0.32710558 -0.44097754 -0.369217 -0.4029051 -0.70238537 -0.38056016
-0.23177157 -0.5041884 -0.9326604 -0.85035896 -0.70169353 -0.019100042 -0.063731775 -0.26582634
1.3180938 0.61177796 0.50139195 -0.65998495 -0.12958798 0.19139023 -0.22937843 -0.665846
-0.2615798 -1.1990421 -0.8913724 -0.0774683 -0.32672414 0.10021745 0.23567104 -0.17875375
0.2097095 0.6019203 -0.8899521 -0.5418619 0.00082362007 0.011876285 0.24084449 -0.32922676
-0.36034247 -0.7092727 -0.63876027 -0.31575373 -0.3428758 -0.638421 0.3254156 0.08748215
0.5239842 -0.08517541 -0.21136358 -0.17288288 0.052807968 -0.13337107 -0.07530404 0.2239766
0.6388063 0.022236668 0.78991747 0.38572595 -0.025524195 0.56992096 0.69567394 0.41472617
-0.60511804 -0.42839962 0.07400051 0.3007096 -0.6568152 -0.2991038 -0.19430915 -0.16900712
0.34023088 -0.9979907 -0.86448556 -0.31466877 0.02001057 0.3891799 -0.53390014 -0.10623304
-0.1775727 -0.17927 0.38672748 0.23654322 0.15270537 -0.4177489 -0.7114876 -0.7985005
0.6465094 0.893171 1.4880954 0.17639737 -0.32750097 -0.63980085 -0.026414096 -0.56081074
-0.5091193 -1.310026 -0.30890533 0.8645695 0.47908333 0.1490943 -0.07983472 0.38640583

layer2.0.bias f4 [32]
00000000: 3d80 0a3e 94cd 063e 5eec 0cbd 6df4 ddbc
00000010: f055 a83e b050 23bd 57ed 95bd 829e d33d
00000020: 588b 94be 1038 88bd e2ad 16be a410 8abb
00000030: 07e7 d63d 938d 34be 6238 c63d ca88 d33d
00000040: f918 7ebd a648 133e b118 623d d35e ebbd
00000050: 6c4f cf3c 580d c63d 7a68 a93c 4634 603d
00000060: e2cc 15be 2631 02be ca51 dfbc 91c3 f4bd
00000070: aca3 873d e5dd c8bd 67b0 07bd 310d 0c3e
0.13525482 0.1316436 -0.034405105 -0.02709409 0.32878065 -0.03987187 -0.073206596 0.10332967
-0.2901256 -0.06651318 -0.14714769 -0.0042134095 0.10493284 -0.17632131 0.09678723 0.10328825
-0.062035535 0.14383182 0.05519933 -0.11492696 0.025306426 0.09670514 0.020679701 0.05473735
-0.14628938 -0.12714061 -0.02726068 -0.11951364 0.06623015 -0.09807948 -0.033127215 0.13676907

layer2.1.weight f4 [32]
00000000: 581d 883f d87a b23f c363 9c3f 09d4 a43e
00000010: 7d07 cd3f 7d2d a03f d929 0640 2e15 943f
00000020: 94e0 613f 302c ba3f eba0 843f 0026 303f
00000030: 5d79 813f 7a54 8a3f f12b aa3f 4d68 4a3f
00000040: adc3 9c3f c05b 9c3f 1168 233f c063 0240
00000050: b359 583f d6e4 603f 0621 9d3f 8b5a b73f
00000060: ea8f 0140 b52e 9f3f cfac e83e 3b35 623f
00000070: 6eeb b53f 7dcd 663f bace 4e3f e46d 983f
1.0633955 1.3943739 1.2217945 0.3219302 1.601791 1.2513882 2.0963042 1.1568964
0.88233304 1.4544735 1.0361608 0.68807983 1.0115162 1.080703 1.329466 0.790654
1.2247216 1.22155 0.6383067 2.0373383 0.8451187 0.87849176 1.2275703 1.4324507
2.0244088 1.2436129 0.45444342 0.88362473 1.4212472 0.901573 0.8078419 1.1908536

layer2.1.bias f4 [32]
00000000: 308f d1bf b34a e1bf 83c4 29bf 5cb5 ebbe
00000010: eace cdbf eaf0 60bf 2ad9 febf fa6a 20bf
00000020: b287 1d40 eb0e e73d b465 9dbf de10 73bf
00000030: 33d2 db3f 212b 933f d5a3 833f d9b7 133f
00000040: 4ddf d83f d91d 11bf 5249 90bf 8680 55bf
00000050: 2f1d 173f b11c 2bbe d0c2 0540 10e4 d2be
00000060: 58db 41bf 4425 95bf d09d 453f 2e27 6c3f
00000070: 2661 d23e ac34 82bf 6ec0 8f3f 0ac3 babf
-1.6371822 -1.7600921 -0.6631548 -0.46036804 -1.607877 -0.87867606 -1.9910023 -0.62663233
2.4614072 0.11282142 -1.2296662 -0.9494761 1.7173523 1.1497537 1.0284373 0.57702404
1.6943146 -0.5668617 -1.1272376 -0.83399236 0.59028906 -0.16710164 2.0900154 -0.41189623
-0.75725317 -1.1651998 0.7719393 0.92247283 0.41089743 -1.0172324 1.12306 -1.4590771

layer2.1.running_mean f4 [32]
00000000: d524 b9be ab50 33be 90a3 cdbf 3d0f 45c0
00000010: c6db a640 4617 4ec0 fe0e aac0 f732 87bf
00000020: aeb7 3b40 83ee 843e a234 94c0 ddac 9340
00000030: 8ef4 c1be 594f 59c0 82e3 a33f b89a c9be
00000040: 26db c5bf 05c6 92be a4ed a0c0 8088 fd3f
00000050: 80ff 52c0 1833 9c3f 32a3 2540 0b18 82c0
00000060: 3a58 67c0 bb22 f93e 5587 fcbf b379 92c0
00000070: 52f9 fc3f 2c55 2fbf 9293 d2bf c15c 0a40
-0.36160913 -0.17511241 -1.606554 -3.079055 5.214328 -3.2201705 -5.31433 -1.0562428
2.933086 0.2596322 -4.631425 4.6148515 -0.37881893 -3.395468 1.2803805 -0.39375854
-1.5457504 -0.28666702 -5.029009 1.9807281 -3.2968445 1.2203093 2.5880857 -4.065435
-3.61476 0.4865931 -1.97288 -4.577356 1.9763587 -0.68489337 -1.6451285 2.1619112

layer2.1.running_var f4 [32]
00000000: e4c7 f63f 186c 6b3f 3860 353f 49f2 c43f
00000010: dd65 863e c30d 8040 bb96 6240 fae6 8240
00000020: 2e73 1240 b2ea 1e3f c30f 853f b3d0 be40
00000030: 65c3 243f 2fe3 9c3f 5b60 973f 7365 0940
00000040: 746b 0040 6525 c73f 2212 963f b163 a940
00000050: ef29 1e40 fadc 2b40 6df1 363f 9ea8 1440
00000060: b3fc ef3f fd69 9a3f c53b a03f df69 7740
00000070: e05b d540 168a 483f e7af bf3f 83d9 673f
1.9279752 0.9196181 0.70849943 1.538644 0.2624959 4.00168 3.5404499 4.0906954
2.28828 0.62076867 1.0395435 5.962976 0.6436065 1.2256831 1.182628 2.146817
2.0065584 1.5558287 1.1724284 5.2934194 2.4713094 2.6853623 0.71462137 2.3227916
1.8748993 1.2063595 1.251824 3.8658369 6.667465 0.783357 1.4975556 0.9056627

layer3.0.weight f4 [64, 32, 3]
00000000: db1b 8e3f f74a 233e 131c c5be 0db1 74bf
00000010: e034 a3be c9b6 4c3e 7844 e63e 2974 863d
00000020: 056a 52be f01e 043f 3c16 ea3d 3a32 31be
00000030: 41ba 113f 95ac c63e 4ddb 553e 086b 3d3f
00000040: 01f4 9e3e f9d9 11be 8e4e ed3e bdab 763e
00000050: c70e c2be 1876 563f f02c 223f 5923 f03e
00000060: d24f fcbf a8bc c3bf bfb2 ddbf 9694 cf3d
00000070: 51dc 7d3e 5ef9 883d 4833 69be dfbd dfbe
00000080: c63b bfbe f5ca 56be 1235 35bf e8c1 8abf
00000090: fdab 0c3f f79e 5b3e 40e1 5dbd c23d 1bbe
000000a0: 2ae6 94be 4ba1 2abf 6c44 a2be b62b 0bbf
000000b0: d3e4 78bf a12b 93bf 5c8c 373b d836 873f
000000c0: 7932 16bd 6bea 45bf f9fe 99bf e4a6 7bbc
000000d0: 6fcd b73e 6f98 9b3e 8b94 ff3e b1be c63c
000000e0: 7d1c 6abd d626 adbe 91bc bfbd f903 9abe
000000f0: ea3f 5bbf 8c4c 353e 9fdc ba3f f7aa 07be
00000100: dab8 53be fac3 bebd 1444 4e3e c7ea 9dbd
00000110: f419 ecbe 180a 85bf 34a0 04bf 78f8 f3bd
00000120: 24a3 cd3e 7ad5 313f 5ef1 bb3e 895c 833e
00000130: 26fc db3c 9534 8fbe a391 893e 0f1f c13e
00000140: ceb2 993e 2314 8fbc 40b0 923e 2769 b83e
00000150: 1759 78be afda 2abd da4a 353e fe2b 5a3e
00000160: 51a7 cabd 0fac 2dbf 59c6 6a3f dd26 623f
00000170: 9828 3f3f 9fef 01bf 0ef3 0cbd d212 2b3e
00000180: 139e b13e ab86 003f 4c7f 843f fd3f 39bf
00000190: db83 acbe ecb9 bcbe 6376 e8be 293e 793e
000001a0: 7060 4a3f 95b3 433e 634f d63e 3542 c23e
000001b0: bd5d 943e dfe6 4e3f d64a 8b3f e2be 3cbe
000001c0: a0a2 a3be 1c75 ecbe cda2 c1bf 9e19 a4be
000001d0: d303 9e3e d168 4f3f 4e30 3b3f 0b69 133f
000001e0: 9df6 203e b227 af3f 56be c93f 35cb 013e
000001f0: b158 9d3e 19ce b83e e85c 3cbf c48a b03b
00000200: 80fa 8ebe e60a 1bbf 6ebd 56bf 7000 8bbf
00000210: 9b6a 033f 577d 193d b8f1 e7be 47be 20bf
00000220: 35dd 48bf 9651 dfbd cab3 6fbd 68d8 0dbe
00000230: 822e 363f ab21 993d 7176 24bf 8964 77bf
00000240: d51b 2c3f cae5 0abe 63bb 27bf 509f 36bf
00000250: bfca 19bf 7f23 aebe f16b f03e 8cd0 fe3e
00000260: aed4 f83e 70a8 15be 29de e73e 0908 f93e
00000270: 66bd afbe 327e 8b3e 5a2c fc3e e82c afbd
00000280: f4ca 293e 7cf4 673d 2fd9 6cbe 69a9 edbe
00000290: b93e 29bf 982e 1c3e 4fca c93e 9f79 90be
000002a0: f43d 7abd 5767 53bd affe d33d 4580 0dbe
000002b0: 4eec 7cbe cc6f 45be 46e0 fdbe 0337 24be
000002c0: fa4e b8bc 5c35 dabe 2698 3ebe 0844 9abd
000002d0: dc43 34be 46fa efbe b016 81be 413f 30bf
000002e0: d3e2 ac3d b075 483f f828 1e3f c34e 903e
000002f0: e0db a23b a328 87bf 4c43 4fbe 4972 6e3f
00000300: da9e babe 8c64 253f 1d12 d23e c53b 4ebe
00000310: f54c e43e 72cc 403f 0eaf 763e cb0b 2fbe
00000320: b15b cfbc 1e76 99bf 42b9 86be 4476 e73e
00000330: ee1f 88bd 9cf8 a4be 1b0c ffbd 9efd 593c
00000340: 01bd e53e 3c06 e93d 9252 fd3d 9c92 34be
00000350: 8578 923e 3637 f0be 5346 1bbd 574f 163d
00000360: 5c5c 80bf 4d64 5dbf 5dd4 61bf e8c2 d63d
00000370: ba52 7fbd 3dca 6f3e e2c3 d73e cfb0 1a3f
00000380: cbfe d03e 6627 523f 5233 c9be 3a12 92bf
00000390: 0864 8e3f e3c5 573f a61e c23e 7b33 8abe
000003a0: e1cc 45bf fd28 55bf 59b5 29bf 6cd4 abbe
000003b0: 733d 8c3e 30dd bcbe bce2 be3d 3d30 b13e
000003c0: 8683 a73e 96a1 80be 8c8b b5be 19c5 fa3e
000003d0: 3ae9 78be 9d03 39bf 4e4c 8cbe 6c75 e73e
000003e0: dd6c f63e cb44 4cbf 8607 1fbf f06c e3be
000003f0: b231 b5be 7f56 2d3e a918 183f 9f54 41be
1.1102251 0.15946566 -0.3849798 -0.9558266 -0.31876278 0.19991602 0.44974113 0.065651245
-0.20548256 0.51609707 0.11430022 -0.17304316 0.56924826 0.38803545 0.20884438 0.7399144
0.31045535 -0.14243306 0.46348995 0.2408895 -0.379019 0.83773947 0.6334982 0.46901968
-1.9711859 -1.5291948 -1.7320174 0.101357624 0.24791075 0.06688188 -0.22773468 -0.43699548
-0.3735029 -0.2097586 -0.70784104 -1.0840425 0.54949933 0.21447359 -0.054169893 -0.15160277
-0.2908185 -0.66652364 -0.31692827 -0.5436357 -0.9722416 -1.149769 0.0028007245 1.0563612
-0.03666923 -0.7731082 -1.2030936 -0.015359614 0.3589892 0.30389735 0.49918017 0.02426085
-0.057156075 -0.33818692 -0.09362138 -0.30081156 -0.856444 0.17704982 1.4598578 -0.13248812
-0.20675984 -0.09314723 0.20143157 -0.07710796 -0.4611355 -1.0393705 -0.5180695 -0.11912626
0.4016353 0.69466364 0.36707586 0.25656536 0.026853632 -0.27969804 0.26868924 0.37719008
0.3001923 -0.017465657 0.28650093 0.36017725 -0.24252735 -0.04171246 0.17704335 0.21305844
-0.09895194 -0.67840666 0.91708905 0.8834055 0.74671316 -0.5075626 -0.034411483 0.16706398
0.34690914 0.50205487 1.0351348 -0.72363263 -0.33694348 -0.36860597 -0.45402822 0.24340118
0.790534 0.19111474 0.41857442 0.37941137 0.28977767 0.8082103 1.0882213 -0.18432191
-0.3196001 -0.46183097 -1.5127808 -0.32050794 0.30862293 0.8101931 0.7312058 0.5758216
0.15719076 1.3683989 1.5761211 0.12675174 0.3073173 0.3609474 -0.73579264 0.005387636
-0.2792549 -0.60563505 -0.83882797 -1.0859509 0.5133454 0.03747305 -0.45301604 -0.6279034
-0.78462535 -0.10904233 -0.05852107 -0.13852084 0.71164715 0.07477125 -0.6424323 -0.9663778
0.6722997 -0.1356422 -0.65520304 -0.7133684 -0.6007499 -0.34011456 0.46957353 0.49768484
0.48599762 -0.14615035 0.45286682 0.48638943 -0.34324187 0.27244717 0.49252588 -0.08553487
0.16581327 0.056629643 -0.23129724 -0.46418312 -0.6611133 0.15252149 0.39412162 -0.2821779
-0.06109424 -0.051612224 0.103513114 -0.13818462 -0.24699518 -0.19280928 -0.4958517 -0.1603661
-0.022498596 -0.42618835 -0.18612728 -0.07532507 -0.17604011 -0.4687063 -0.25212622 -0.6884652
0.08441701 0.78304577 0.61781263 0.2818509 0.004970059 -1.0559276 -0.20240515 0.93143135
-0.3644932 0.6460655 0.41029444 -0.20139988 0.44589964 0.7531196 0.24090216 -0.17094342
-0.025312277 -1.1989172 -0.26313215 0.45207417 -0.06646715 -0.32220924 -0.12453481 0.013305096
0.4487076 0.11378142 0.12369265 -0.17634052 0.28607574 -0.46917123 -0.037908863 0.036696758
-1.0028186 -0.8648117 -0.88214666 0.10486394 -0.062334754 0.23416992 0.42141634 0.6042604
0.40819392 0.8209137 -0.39296967 -1.1411812 1.1124277 0.84286326 0.37914008 -0.269924
-0.77265745 -0.8326567 -0.6629234 -0.33560503 0.27390632 -0.36887503 0.0932059 0.34607115
0.32717532 -0.2512328 -0.35458028 0.489785 -0.24307719 -0.7227114 -0.27401966 0.45206773
0.4812993 -0.7979247 -0.62120855 -0.4441905 -0.35389477 0.16927527 0.5941263 -0.18879937

layer3.0.bias f4 [64]
00000000: adb4 04be 4d86 92bc 15ba 81bd fd9d 1a3e
00000010: 8801 61bd a099 dfbc 28fc 20bb 23a2 b2bd
00000020: f317 7d3d 435c 7bbc 5762 28be 3764 603d
00000030: 44b1 c6bd 4881 883b 86c6 29bd 5614 f83c
00000040: 53e8 c43d ad70 f83d fa74 373d 1663 ff3d
00000050: 3f7b 903d d2c8 71bc 5179 eabd c91e 013e
00000060: 80f6 a8bd 6772 65bd bba5 90bc a5c3 20be
00000070: 6215 913d 77fa 57bc 3f43 42bd 2dce 203e
00000080: 8127 1e3e 61df e0bd 5e7d ddbc e858 4a3d
00000090: 2f72 de3c 6800 3dbe 530a d9bc 9064 65bc
000000a0: 667b cd3c 5469 0cbd e63c 94bd 740e cc3c
000000b0: 2adf 403d 2d07 fcbd e756 b83d fe0a e6bd
000000c0: 375f 3b3e c17d 6fbd 7005 a0bd e5d2 c13d
000000d0: cf23 4d3d 51d5 0d3e 85db ee3c bffe d6bd
000000e0: 4d17 0bbe fce2 af3d 42fa 353d 46eb cb3c
000000f0: 3cb0 cd3d 134a 41be b380 cebd 4430 ba3d
-0.12959547 -0.017886305 -0.063343205 0.1509933 -0.0549331 -0.027294934 -0.002456436 -0.087223314
0.061790418 -0.015341821 -0.16443764 0.054783072 -0.097017795 0.004165802 -0.041449092 0.030283134
0.09614625 0.12130866 0.044789292 0.12470071 0.07054757 -0.014757352 -0.114489205 0.126094
-0.08250141 -0.056017306 -0.017657151 -0.15699632 0.070841566 -0.013182274 -0.047427412 0.1570365
0.15444757 -0.10980106 -0.027037319 0.049401194 0.027154056 -0.18457186 -0.02649418 -0.014001027
0.025083255 -0.034280136 -0.07238178 0.024909236 0.047087826 -0.12306056 0.0900095 -0.11232565
0.1829804 -0.058469538 -0.07813537 0.09464053 0.050082978 0.13850905 0.02915741 -0.10497808
-0.13583107 0.08588216 0.044428118 0.02489246 0.1004338 -0.18875913 -0.10083141 0.09091237

layer3.1.weight f4 [64]
00000000: 3111 0141 84ca 2e40 9e1f 0a41 5ff3 9b40
00000010: c2fd b340 a7ce 7740 068d a840 7a75 0441
00000020: 02f5 ec40 62ab c040 aaa1 1c41 b199 3741
00000030: 96a0 cc40 5277 0e41 dcc0 9240 6138 cd40
00000040: 9524 0841 8f91 9c40 8a7b af40 1a58 a740
00000050: ac4d a640 6333 b240 9ed3 ff40 ad12 ff40
00000060: bc84 7d40 f805 8340 b942 9540 b30a cc40
00000070: a0f8 ec40 c387 2241 d8d1 af40 a2b2 7640
00000080: fa84 1141 9d94 9d40 de70 d440 57ae e540
00000090: 71bf c540 727d 1541 04b2 a040 dbb1 9140
000000a0: 47d7 5b40 4e7a ff40 1bdb 4341 80d9 1041
000000b0: b98d 4541 884c 1741 1e51 4a41 75e3 2041
000000c0: 42df cc40 f3ca f440 c258 c040 1e41 8b40
000000d0: 59c0 b940 22fd 8e40 ede2 d440 b2a1 b740
000000e0: 11b7 ae40 f7eb f740 fe29 b440 0b5d 5c40
000000f0: 848a a240 81a7 5c40 e856 9740 18d5 ca40
8.066697 2.7311106 8.632719 4.8734584 5.6247263 3.871988 5.267215 8.278681
7.404908 6.0209208 9.789469 11.475022 6.394603 8.904131 4.5860424 6.413132
8.508931 4.8927684 5.4838305 5.2295046 5.1969814 5.568773 7.994582 7.9710298
3.9612265 4.0944786 4.664395 6.376306 7.4053497 10.158145 5.4943657 3.854653
9.094965 4.9243913 6.6387777 7.1775317 6.1796193 9.343126 5.0217304 4.552961
3.4350145 7.98368 12.240993 9.053101 12.3471 9.456184 12.644804 10.0555315
6.402253 7.649774 6.0108347 4.351699 5.80473 4.4684 6.652701 5.738488
5.459847 7.7475543 5.630126 3.443179 5.0794086 3.4477236 4.7293587 6.3385124

layer3.1.bias f4 [64]
00000000: 0137 dd3c 0213 77be bc43 d3bd 725f 063f
00000010: ad4e 19bf fbc1 563f 7fb7 b43e 9088 4c3c
00000020: 5673 0abe 7740 cf3e 20b8 543e dfe6 393d
00000030: 451f 4fbe 252d 423d dcde 1c3f 079c ea3e
00000040: 058e 1cbe 35f3 50be 2dfa 473e 2b0f 9f3e
00000050: 61eb 24be f71e b93e 4948 083d 09f7 debd
00000060: dfda e23e 2c13 8b3e c06f 5bbe f77a d53d
00000070: ccc6 2d3d a17b aabc 71b3 2fbe 6f60 85be
00000080: 04c8 293b 24d1 0bbf e36e 89be 8f2c 013e
00000090: e9eb 873e d1e0 acbe 9faf 03bf 115b 2d3f
000000a0: de3c e2be 5b24 d43d 6a51 94bd 49fc a1be
000000b0: 21d6 8dbd 50e4 2fbe a800 c5bc c125 25be
000000c0: 2e94 773d 86b2 2dbe e909 643e 1230 f13e
000000d0: 7e50 333c 9ca5 fa3e da19 b53d 1483 4d3e
000000e0: 82ac ed3e 537c 12be be9e e0be 8772 c03e
000000f0: 30f5 b4be cb47 933e c6ba 993e 8b36 7fbe
0.027003767 -0.24128345 -0.10315654 0.5248939 -0.59885675 0.8388974 0.35296246 0.012483731
-0.1352056 0.4047887 0.20773363 0.04538619 -0.20226772 0.047406334 0.61277556 0.45822164
-0.15288551 -0.20405276 0.19529028 0.3106626 -0.16105415 0.36156437 0.03327206 -0.10886962
0.4430761 0.27163064 -0.21429348 0.10423844 0.042425916 -0.020810904 -0.17158295 -0.26050135
0.0025906572 -0.54616 -0.26842412 0.12614654 0.26547173 -0.3376527 -0.5143985 0.6771708
-0.44187063 0.10358497 -0.07242091 -0.3163779 -0.069256075 -0.17176938 -0.024048164 -0.16127683
0.06044405 -0.16962633 0.22269405 0.47106987 0.010944484 0.48954475 0.088428214 0.20069534
0.46420676 -0.14305238 -0.4387111 0.37587377 -0.35343313 0.2876571 0.3002531 -0.2492315

layer3.1.running_mean f4 [64]
00000000: 9f18 a1c0 f69d 0d3f b96b a93e 86db fc40
00000010: 6a54 aebf ad47 94c0 5b07 09bf 6bc2 01c1
00000020: 8e70 9240 ab30 3041 96c4 75bd f010 9d40
00000030: a642 11c1 3ec0 0d41 a147 ac40 d3ff fd40
00000040: eca4 42c0 54b4 f6bf e23a 5c40 b9dd 0640
00000050: 2f54 47c0 aaca 8640 3f7a edc0 41ab c7bf
00000060: 6d7b ea40 5910 ef3c cbe0 363e 94ef 2440
00000070: feed 0141 7c4a 6540 63a1 0bc1 2dc9 52c0
00000080: 5242 f540 384b 4ec0 1c2a c440 ac41 36c1
00000090: 2c61 e6c0 a55f a2c0 d34b fcc0 ba23 213f
000000a0: 81b5 20be d215 f2bf 1b9c 1f41 bc0c fabc
000000b0: b270 ae40 eed5 e93f 835c 7ac0 4705 41c1
000000c0: cf0f ecbf a77e 7440 875c ba40 5141 8940
000000d0: 016d 40c0 5259 ba40 34ca ffc0 8e5b 4ac1
000000e0: b4e7 3840 95f8 dec0 1c7d f1c0 cc44 5940
000000f0: ea08 bb40 72f3 0041 3dcf 8abf 6485 3a40
-5.0342555 0.55319154 0.33089998 7.9017973 -1.3619511 -4.6337495 -0.5352685 -8.109965
4.5762396 11.011882 -0.060001932 4.9083176 -9.078772 8.859434 5.383744 7.9374785
-3.041316 -1.9273782 3.441094 2.1072829 -3.1145132 4.2122393 -7.4211726 -1.5599138
7.3275666 0.0291826 0.17859189 2.5771227 8.120604 3.5826712 -8.726901 -3.2935288
7.6643457 -3.223341 6.1301403 -11.391033 -7.199362 -5.0741754 -7.884256 0.6294514
-0.15694238 -1.8912909 9.975612 -0.03052365 5.4512568 1.8268411 -3.9118965 -12.063788
-1.8442324 3.8202302 5.823795 4.289223 -3.006653 5.8234034 -7.993433 -12.647352
2.889142 -6.9678445 -7.546522 3.394824 5.844838 8.059435 -1.0844494 2.9143915

layer3.1.running_var f4 [64]
00000000: 2e5c 5e41 8b5c 0941 4621 7b41 2f73 8941
00000010: 47a9 8741 419a 4541 a65c 6a41 078f 2941
00000020: 7f7f c341 8288 a341 f02c ec40 d5fe 7441
00000030: fb82 4141 bcd0 c441 400f bd41 aa49 aa40
00000040: 9685 6a41 acb1 b841 b704 3641 880e a741
00000050: 4699 8f41 880b 6441 11d6 0741 415c 8241
00000060: 713b 9b41 6679 0841 e939 cf40 f415 7941
00000070: 4acc 5041 fb62 1341 06a6 4741 77ae 6641
00000080: e894 9641 4dca 5a41 d8ca 3d41 6758 7941
00000090: e6bb b541 0c5f c641 f49a a941 cc6b 5d41
000000a0: c370 fc40 7b82 6b41 7e58 8a41 b737 1c41
000000b0: ed80 6e41 194a 6841 d676 3541 73f5 6641
000000c0: 4235 8b41 6ab4 8e41 c7f9 9641 0ef3 1641
000000d0: 7620 3f41 1f2a 9f41 28bd 5941 6051 9941
000000e0: 1c0e 7141 fd65 a441 6da3 0242 8df0 7341
000000f0: 859f 9741 4f00 8e41 1749 3441 154c 9941
13.897505 8.5850935 15.695623 17.181242 16.957655 12.35016 14.647619 10.597419
24.437254 20.441654 7.3804855 15.312215 12.094478 24.601921 23.632446 5.321492
14.657614 23.086754 11.376151 20.882095 17.94984 14.252815 8.489762 16.295046
19.404024 8.529638 6.475819 15.56786 13.049875 9.211665 12.478033 14.417594
18.822708 13.67439 11.862022 15.584083 22.716747 24.79641 21.20066 13.838818
7.888765 14.719356 17.29321 9.763602 14.906476 14.51809 11.341513 14.434924
17.401005 17.838093 18.871962 9.43434 11.945425 19.895567 13.608681 19.164734
15.065945 20.549799 32.659595 15.246228 18.95289 17.75015 11.267844 19.16215

layer5.0.weight f4 [10, 64]
00000000: 217b 1ec0 45fd dc3f cc9f 4b3f 9cbe 86bf
00000010: 7bc7 a3be 5dfa a2c0 47b5 80bf 16a1 7abf
00000020: 9997 7d40 62fb bb3f 8fe7 ef3e 511a 6640
00000030: 61b7 633f 3d7b 5240 25b7 0ac0 fa5d 2f41
00000040: 46b9 fabf 316c d13e 01e9 e33e f4dd c7be
00000050: 8339 a53f 4b1b 413f f413 f4be 3b77 8d40
00000060: 8058 1bc0 1242 75bf 79f2 5e3d 9832 963f
00000070: 004f 92bd 43c3 5e40 cfa3 4dc0 64b2 67be
00000080: c834 4a3f c4a4 0e3d 735e 31bd 2701 60bf
00000090: 095c 993e 2ca3 4e41 62f4 e5be 424b afc0
000000a0: e538 be3b 1343 16bf 351b d43f f1b4 7440
000000b0: 34df 9e40 64ab dd3e 2f8e 123e d158 06c1
000000c0: 5141 5dbf da11 b840 4822 463f 3ff4 033f
000000d0: 6e6b b1bf 29bc ff3f 900f 6abf cad7 09c1
000000e0: e2d0 a53f b0c7 3cbf 349f ba3e e827 0dbf
000000f0: 23b1 8840 2292 933e 52b7 8bc0 38c7 1540
00000100: bb1c 0541 f83e d23e e06a 5940 10d3 7e3e
00000110: f708 ab3e 6b72 24bf e621 db3f 61db 3340
00000120: ee29 72c0 0513 9ac0 8c5a fa3f e998 a0bf
00000130: 47a4 bebf c28f a1c0 8d30 08c0 9702 81c0
00000140: 3840 48c0 3c9e a9be 6099 c13f efe1 8740
00000150: 920e 4e40 435c 4cc0 57ec cb3e 92b2 5e40
00000160: 74b0 fabe f0c7 c23f 7f38 6a3e 18da 9540
00000170: e944 2ebf 768a b7bf 0a9a b040 f341 1e3f
00000180: e1f5 47bf e933 1bbf 4fdd 4a40 7cb8 973e
00000190: 39af c73f 941d 0f40 18e9 1bc0 bb68 843f
000001a0: cddd 56bf ecf1 2240 39f9 c140 7630 a940
000001b0: 37d1 123f 965f 0b41 a140 5dbf 6ca3 fa3f
000001c0: 38b8 f83d 0eb7 c340 c33f 3540 f0ab 873f
000001d0: 1646 0340 3440 0ac0 a097 1cc0 f754 c9be
000001e0: c66e b6bf 7818 5bbf 8b45 4dc0 b166 c03e
000001f0: 19de 14bc 7ec3 16bf 818d c3c0 dc57 01bf
00000200: a4e2 18c0 f754 af3f bacb fcbf 0172 3ac0
00000210: 90fb 26bf 6ed8 b4bf ab9e 403f 3894 7740
00000220: e543 9240 29f0 fa3d 7fb5 d8c0 f8ae 17c0
00000230: 0209 c4bd ff6b e640 93df d0bf 6489 31c0
00000240: 99e5 a2c0 45b1 513f 0da1 d73e 99ed b0c0
00000250: 985b 8f40 bdd4 10c0 9a56 d8bf adf1 673f
00000260: fa88 00c0 c4ef f33e ba1d f040 e272 cbc0
00000270: 15ed cdbf 0ed6 443f 4f4e 8140 a984 203e
00000280: 505e 863f eb4c a13f 2d6f 0ec0 8061 9fbf
00000290: ed8d e63f c14c 4040 c0e4 0dbf a6e1 783f
000002a0: 28ff 2140 9806 8a3f d619 87bf 73f1 4ec0
000002b0: a474 78c0 04f2 f7bf 405a 2a3f 69fa d9bf
000002c0: ad31 c8bf 3234 c1be a7d4 d8bf 12dc eebf
000002d0: ca6f 163e ee55 073f 2393 8140 575e 1a3e
000002e0: db51 28bf 8ba6 10c0 c8e4 e53f 1d18 d5bf
000002f0: 52f7 ae3f 8df9 76bf 120e 933e 7b3f eabf
00000300: cad2 e33f d391 b43f d21e 8340 338f 9b3f
00000310: d8fa ae40 29ff 20bf 9a6b 9cc0 2418 6ac0
00000320: 8341 1e40 dcbf 2fbf f31c 22c0 c661 00c0
00000330: 4e81 dabe ac74 96bf 2230 07bf 77c5 88bf
00000340: 877d bf3f 95a5 49bf bcdd f03e 1c8e e8bf
00000350: 62d5 90bf 2443 bcbf 6f9d d6be 488c 17bf
00000360: a9ea 92bf afc3 84bf d95f 5bbe bdbc 89bf
00000370: 1bdf 573f 8079 71c0 826a e43f 26b0 1e3f
00000380: 309d 03c0 ca6d 9a40 1db5 9640 5fe8 1bc0
00000390: 20b9 133f b525 4e3e 7719 8c40 a730 233f
000003a0: 3e7a fa40 3e0e 8fc0 5a8c 0340 4e7c e8be
000003b0: 9ab8 9e40 b8b0 5540 46b7 83c0 c1c7 04be
000003c0: cd91 92bf ce94 7cbf 51df a03f eeca 1ac1
000003d0: 3f52 62c0 8298 e43e 34cb 843f 6c8c 923f
000003e0: 0f48 72c0 0ceb 853f 89e0 4540 6adb 43c0
000003f0: 878b c53f e05c b63e 4529 b1be 75a8 ee3f
-2.4762652 1.7264792 0.79540706 -1.0526919 -0.3198813 -5.093062 -1.0055321 -0.9790205
3.9623778 1.4686091 0.46856353 3.5953562 0.8895169 3.2887719 -2.1674283 10.9604435
-1.9587791 0.40902856 0.44513705 -0.39036524 1.2908176 0.7543227 -0.47671473 4.4208045
-2.4272766 -0.9580394 0.05443046 1.173419 -0.07143974 3.4806678 -3.213123 -0.22626644
0.7898679 0.0348251 -0.043302964 -0.8750176 0.2995303 12.914837 -0.44913012 -5.4779367
0.005805122 -0.586961 1.6570803 3.8235438 4.9647465 0.43294823 0.14312051 -8.396684
-0.8642779 5.752179 0.7739606 0.51544565 -1.386091 1.9979297 -0.91429996 -8.615183
1.2954371 -0.737422 0.36449587 -0.5513902 4.271623 0.28822428 -4.366128 2.3402843
8.319514 0.41063666 3.3971481 0.24885201 0.33405277 -0.6423709 1.711972 2.8102648
-3.7838092 -4.8148217 1.9558883 -1.2546664 -1.4893883 -5.0487986 -2.1279633 -4.031566
-3.1289196 -0.33128536 1.5124931 4.24633 3.2196393 -3.1931312 0.3982875 3.479649
-0.48962748 1.5217266 0.22873114 4.682873 -0.680739 -1.433913 5.5188036 0.6181938
-0.78109556 -0.60626084 3.1697576 0.29632938 1.5600349 2.2361803 -2.436102 1.0344461
-0.8393219 2.5460157 6.0616727 5.2871656 0.57350487 8.710836 -0.8642674 1.9581122
0.12144512 6.1160955 2.8320167 1.0599346 2.0511527 -2.1601686 -2.4467545 -0.39322636
-1.4252555 -0.8558421 -3.2073696 0.37578347 -0.009086155 -0.5889205 -6.1110234 -0.5052469
-2.388833 1.3697804 -1.9749672 -2.9132082 -0.65227604 -1.4128549 0.7524211 3.8684216
4.570788 0.12252838 -6.7721553 -2.3700542 -0.095720306 7.200683 -1.631823 -2.7740107
-5.090527 0.81911117 0.4211506 -5.5290036 4.479931 -2.2629845 -1.6901429 0.9060314
-2.0083604 0.47643864 7.5036287 -6.357774 -1.6087977 0.7688912 4.040809 0.15675606
1.0497532 1.2601599 -2.2255356 -1.245163 1.8012062 3.0046847 -0.5542717 0.9721931
2.5311985 1.0783262 -1.055476 -3.233487 -3.8821192 -1.9370732 0.6654396 -1.7029544
-1.564016 -0.37735134 -1.6939896 -1.866091 0.14691082 0.52865493 4.049211 0.1507505
-0.657499 -2.260165 1.7960443 -1.6647984 1.3669226 -0.96474534 0.28721672 -1.8300623
1.7798703 1.4107002 4.0975122 1.2153076 5.4681206 -0.62889344 -4.888135 -3.6577234
2.4727485 -0.6865213 -2.533017 -2.0059676 -0.42676777 -1.1754355 -0.5280782 -1.0685261
1.4960183 -0.78768283 0.4704417 -1.8168368 -1.1315119 -1.470799 -0.41916987 -0.5919843
-1.1477863 -1.0372218 -0.21423282 -1.0760723 0.84324807 -3.7730408 1.7845004 0.6198753
-2.056469 4.825902 4.7096086 -2.4360578 0.57704353 0.20131572 4.3781085 0.6374611
7.827422 -4.4704885 2.0554414 -0.45407337 4.9600344 3.338911 -4.1161222 -0.12966825
-1.1450745 -0.9866456 1.2568151 -9.674543 -3.53627 0.44647604 1.0374513 1.1449103
-3.785648 1.0462356 3.0918295 -3.060267 1.5433205 0.35617733 -0.346018 1.8645159

layer5.0.bias f4 [10]
00000000: b4e7 a6bf 0225 12bf 5c4b 24bf e986 85bf
00000010: f085 58bf 6f5f 14bf 04ac d6be 3c8b 88bf
00000020: ac99 58be a25e 98bf
-1.303946 -0.5708772 -0.6417749 -1.0431796 -0.8457937 -0.5795812 -0.41928113 -1.0667491
-0.21152371 -1.190388
