GSTENG_Datasets/v-net_ks=3_lr=0.001_epoch=100_tanh.pth (torch, 45034 bytes, 20 tensors)

layer1.0.weight f4 [16, 6, 3]
000000 51 b9 d9 bb 56 43 82 bb f5 c3 6a 3a cd 30 8a 3d
       -0.006644406 -0.003975312 0.00089555915 0.06747589
000010 de c0 f5 3d 89 49 ff 3d b9 cb b0 3c e0 65 ef 3c
       0.11999677 0.124651976 0.021581518 0.029223382
000020 c2 9f 45 3d 81 17 2c bf fc b7 01 bf c3 eb c4 be
       0.04824806 -0.67223364 -0.5067136 -0.38461122
000030 b8 b7 1f be 4d e6 4b 3e f4 3a 78 3d 32 cc 41 3f
       -0.15597427 0.19912072 0.060603097 0.757022
000040 cb 2b 8f 3f 9e 7f 13 3f d7 5c 46 3f b1 25 41 3f
       1.118524 0.57616603 0.7748541 0.7544814
000050 b7 4f 8e 3f e2 93 3f 3e 35 6a f4 3d 30 08 ea 3d
       1.1118077 0.18708757 0.1193432 0.11427343
000060 26 4a a1 3e 42 c1 55 3e 8f b5 89 3e 1b ee b4 be
       0.31501883 0.20874503 0.2689633 -0.3533791
000070 bf 9a a2 be 9b 04 9c be f8 13 20 be 4e e0 8d 3a
       -0.31758687 -0.30472264 -0.15632617 0.0010824294
000080 38 6c ad be 7d 21 60 3e af 00 1a be 98 ee 9f be
       -0.33871627 0.21887775 -0.15039323 -0.3123672
000090 41 a5 d4 3a fd d6 70 3d 47 ad 4f 3d 13 3c 9c 3d
       0.0016223566 0.05879878 0.05070236 0.07628646
0000a0 72 b5 55 bc a8 20 6f bb 48 ec b0 3c af c8 2e 3d
       -0.013043748 -0.003648797 0.021597043 0.042671856
0000b0 6e 0f f2 3c 6f f7 46 bf d2 f2 9f be f3 f4 54 bd
       0.029548373 -0.77721304 -0.31239945 -0.051991414
0000c0 85 24 f4 be 9c ad 46 3e 7b 4d 79 3f f0 84 80 bf
       -0.47684112 0.19402164 0.9738385 -1.0040569
0000d0 90 b8 35 be 3d 24 68 3f 03 37 03 3e 4b 61 77 3d
       -0.17746186 0.90680295 0.12813954 0.06039552
0000e0 52 7c 10 bd 16 d8 9b 3c 95 23 86 3b 97 46 6c 3c
       -0.03527481 0.019023936 0.004093597 0.014421127
0000f0 75 17 98 3d c1 73 ae bc a4 45 f9 3c 9f 83 37 3c
       0.07426349 -0.02129543 0.030428715 0.0112008145
000100 bd f7 10 3f 31 c1 80 3f be eb e1 be 30 5f 41 bf
       0.5662802 1.0058957 -0.4412517 -0.7553587
000110 5b 08 79 be e6 2d dc be bf 79 24 bf c5 88 5e be
       -0.24319594 -0.43003768 -0.6424827 -0.21731861
000120 f9 95 31 be 6d 47 87 bd cf 1f 1e be 1c d2 12 bf
       -0.17342366 -0.0660542 -0.15441822 -0.5735185
000130 60 18 3f bf ee 79 a1 bf 1b 1a 50 bd 86 70 66 b8
       -0.7464657 -1.2615335 -0.050806146 -5.494107e-05
000140 5a b9 95 bd 05 4b 87 bd 9f 07 03 3f 24 2b 3e 3f
       -0.07310744 -0.06606106 0.51183504 0.7428458
000150 d0 68 b5 3e c9 25 f5 3b 50 10 33 3e 15 69 fb 3d
       0.35431528 0.007481311 0.17486691 0.12275902
000160 e0 21 26 3e fe 89 2d 3e 54 89 01 be d6 9c 14 be
       0.1622386 0.16947171 -0.12650043 -0.14512953
000170 e1 9b 05 be ea b1 52 3f bf 92 8e 3f b0 8f 30 3f
       -0.13047744 0.82302725 1.1138533 0.6896925
000180 49 73 1a 3c 0d 55 ff 3c fe f3 58 bd 25 87 10 3f
       0.0094269 0.031168485 -0.052967064 0.56456214
000190 62 9f 68 3e 58 17 ba be 08 1d 3b 3e df 86 32 be
       0.2271705 -0.36345935 0.18272793 -0.17434262
0001a0 d8 4a a8 be bd 56 4e 3e f1 70 ea be f2 89 4c bf
       -0.328696 0.20150276 -0.45789292 -0.7989799
0001b0 f4 10 2e 3e f7 98 9e 3e 88 1a 81 3e 5b bb 65 bf
       0.16998655 0.30976078 0.25215554 -0.89739007
0001c0 81 fb 8d bf 0e a7 6d bf e8 b8 dd bc e0 b0 ec 3c
       -1.1092378 -0.9283303 -0.02706571 0.028892934
0001d0 b6 d1 ba bc ef d1 c1 3d 51 d8 a2 bc f9 f0 14 bf
       -0.022805076 0.0946387 -0.019878538 -0.58180195
0001e0 ad 11 9d 3e fb 8c 1a 3f 3f 4c e0 3e 1f b0 aa 3e
       0.30677548 0.6037137 0.4380817 0.33337495
0001f0 08 63 2b 3e 2a 13 6a be f2 96 05 bf 64 2a a0 3e
       0.16736996 -0.22858873 -0.5218345 0.3128234
000200 79 4f 20 3f 4b 94 28 be da 2c 25 be a4 b3 d9 bd
       0.62621266 -0.1646282 -0.16130391 -0.10629967
000210 25 cd 4f be d7 1c 2c 3e 55 0d 8f 3e ec 27 bc 3e
       -0.202931 0.16807877 0.2793986 0.36749208
000220 6f 25 63 be 9d c9 c3 be a4 f7 07 3f 61 f3 80 bd
       -0.22182249 -0.38239756 0.53112245 -0.06296421
000230 f0 48 71 3d 7f f4 8a 3f ba 4a 14 3e bf 60 b8 be
       0.05890745 1.0855864 0.14481631 -0.3601131
000240 ac b8 df bd b3 58 1f bc c5 4c ce bc 50 73 96 bf
       -0.10923895 -0.009725737 -0.025183091 -1.175394
000250 01 d9 9f bf b3 1d 71 bf e3 4e de bd 91 83 b8 bd
       -1.2488099 -0.9418594 -0.1085489 -0.09009469
000260 f3 76 80 bd 13 74 b0 bd fc 95 74 be c4 86 6f be
       -0.06272688 -0.086158894 -0.2388534 -0.23391253
000270 84 4a ad be d0 11 0e bf d2 14 f0 be ad f2 ac 3e
       -0.33845913 -0.5549593 -0.46890885 0.33778897
000280 67 9b b7 3e 33 80 af 3e fa 4c 59 bd f2 d6 b8 bd
       0.3586075 0.34277496 -0.053051926 -0.090253726
000290 dc f7 14 be 9a 89 8a 3f 6f 3b 96 3f 07 4a 61 3f
       -0.14547676 1.0823243 1.1736888 0.8800358
0002a0 99 3a b1 3d 52 77 bb 3c 84 65 14 bc 66 56 d2 bd
       0.08653755 0.022884045 -0.009057406 -0.102703854
0002b0 a3 90 2e 3d c8 ca 05 3f 8a 84 e2 bb 59 69 aa 3e
       0.042618405 0.52262545 -0.0069127725 0.332835
0002c0 1c ba 14 3f 85 9f d7 bd ad 7a 6c 3d 1b 62 2e 3e
       0.5809648 -0.10528473 0.05773418 0.17029612
0002d0 2c 32 c1 be 2a c2 6b be 55 93 b2 be 0b 5d cc 3e
       -0.3773359 -0.23023286 -0.3487803 0.39914736
0002e0 f6 17 7e 3f b5 85 60 3f 03 0a 71 be 87 22 9c bd
       0.9925531 0.8770402 -0.23538975 -0.07623773
0002f0 de f3 b4 bd 42 68 63 be c2 1a 17 bf fa 66 b7 be
       -0.088355765 -0.2220774 -0.59025204 -0.35820752
000300 7c 9f 43 3e 05 d8 08 3f e9 a3 06 3f d0 05 8f 3e
       0.19103807 0.5345462 0.5259386 0.27934122
000310 b0 6d 84 3e 1e 0c 8e 3e f8 e7 7a bd 4b 45 64 bd
       0.25864935 0.2774362 -0.06125638 -0.055730145
000320 33 93 a9 3c 7a 56 13 bd 56 6a 1b bd 22 26 9e 3b
       0.020700073 -0.035971142 -0.037943207 0.004826323
000330 6d c6 ae bc 93 61 77 bc 08 b1 cd 3c d3 3c 09 be
       -0.021334851 -0.015098947 0.02510883 -0.13402109
000340 c5 71 d8 3e 47 26 2d be 49 59 15 3e 97 ec 8d 3f
       0.422743 -0.16909133 0.14584841 1.1087826
000350 2f 47 cb 3e df d5 41 bf da 21 00 c0 db a2 88 be
       0.39702746 -0.75716966 -2.0020661 -0.2668675
000360 82 25 b4 bc 8c e0 ea bc 72 49 24 bd a1 28 d4 bc
       -0.021990541 -0.028671525 -0.040109105 -0.02589828
000370 9d e5 25 bd 74 79 a3 bc 68 03 a5 bc 70 ca b2 bc
       -0.04050218 -0.019955374 -0.020143226 -0.021825045
000380 09 63 98 bc 44 bd dc 3e 22 a4 26 3f 4d 00 da 3e
       -0.018601911 0.43113148 0.65094197 0.42578354
000390 f7 13 6f bf d0 a7 7e bf 13 21 c0 bf 1e 33 5f bd
       -0.9338984 -0.9947481 -1.5010093 -0.05449211
0003a0 25 00 09 3e c1 f8 98 3e 34 4a 64 be 0a f5 84 3c
       0.13378961 0.29877284 -0.22293931 0.016230125
0003b0 24 76 ab 3d 95 d8 38 bd b9 c7 b0 bb 07 32 4b 3d
       0.08372143 -0.045128424 -0.0053949025 0.049608257
0003c0 e2 a1 b9 bd ae 53 03 3d 18 e2 90 3d 1f 0c 7d 3e
       -0.0906408 0.032062225 0.07074374 0.24711655
0003d0 0a d9 14 3f 47 f8 62 3f 96 c5 e0 be a9 fc bf be
       0.58143675 0.8866009 -0.43900746 -0.37497452
0003e0 7a 70 8a be 78 80 3f be d3 e4 49 bf e5 ba be be
       -0.27038938 -0.1870135 -0.78864783 -0.37251964
0003f0 76 53 f0 3e cc 3f b3 3e bf ce da 3e 3c e3 10 bf
       0.46938676 0.3500961 0.4273586 -0.5659673

layer1.0.bias f4 [16]
000000 1e c1 ba 3e d4 4e 8b 3e b5 06 b0 be 98 39 2a 3f
       0.36475462 0.2720858 -0.34380117 0.6649413
000010 02 88 93 be 46 38 36 3e 23 40 e5 3e 26 05 70 3e
       -0.28814703 0.17794904 0.44775495 0.23439464
000020 ae 7d 20 3e 44 96 a7 be 24 13 dc 3d 9a ad 25 3e
       0.15672943 -0.3273183 0.10745838 0.16179505
000030 39 b0 ed bd 68 dc 27 be af 89 2d bf e6 a1 1a bf
       -0.116058774 -0.16392672 -0.67788213 -0.6040329

layer1.1.weight f4 [16]
000000 15 3c 3c 3f 72 9d 38 3f 7a b9 71 3f 98 c7 06 3f
       0.7352918 0.7211524 0.9442364 0.52648306
000010 fc 97 43 3f 0b 8b 1f 3f f5 a0 b1 3e f1 a4 92 3e
       0.76403785 0.6232154 0.34693113 0.28641465
000020 64 0f 4c 3f 02 ea 2c 3f a1 ff cd 3e ef 74 4b 3f
       0.79710984 0.6754457 0.40234092 0.794753
000030 7b a0 0d 3f 93 da 11 3f 2e 4a ca 3e 5a ca c6 3f
       0.55323 0.5697414 0.3950972 1.5530503

layer1.1.bias f4 [16]
000000 30 0e 5c bf 33 70 8c bf f5 51 99 3f 42 d4 52 3f
       -0.8595915 -1.097174 1.1978136 0.8235513
000010 b0 d0 a3 bf 21 53 99 bd 4e 7d 7b be ae 33 12 3f
       -1.2798061 -0.07486559 -0.24559519 0.57110107
000020 4e af 9e bf 16 8d 64 bf fc 42 ec 3e ca 2c 33 bf
       -1.2397249 -0.8927778 0.46144855 -0.6999022
000030 6f 88 c1 be 01 89 00 3f 4d e1 ca 3f c2 46 b6 3f
       -0.37799403 0.5020905 1.5850006 1.4240344

layer1.1.running_mean f4 [16]
000000 fe 2d ce 3e ab c4 7d 3e aa 8e 99 be 21 c0 22 3f
       0.40269464 0.24782054 -0.29991657 0.63574415
000010 74 87 bc be 59 77 4e 3e df 3c ce 3e af 55 4b 3e
       -0.36822093 0.20162715 0.40280816 0.19856904
000020 d5 4d 55 3e f8 7b bb be 99 56 27 3e c7 83 2b 3e
       0.20830472 -0.36618018 0.16341628 0.16749488
000030 ca d0 d8 bd 1a 35 4c be 02 1a 40 bf 61 2c 27 bf
       -0.10586698 -0.19942132 -0.75039685 -0.6530209

layer1.1.running_var f4 [16]
000000 92 f9 e9 39 75 10 6a 3c ca 44 12 3b 47 8c 8d 3a
       0.00044627168 0.01428615 0.0022318834 0.0010799252
000010 09 83 fa 3b cb ab e5 3a f7 96 23 3b be 0f bb 3a
       0.007645015 0.0017522512 0.0024961808 0.0014271659
000020 0b cf 7f 3b f6 38 67 3b 69 0a ab 3a 45 36 1a 3a
       0.003903332 0.0035281754 0.0013049367 0.00058827206
000030 7d 58 a1 39 58 44 2a 3a fa 76 9d 3a 5f 36 2a 3b
       0.00030774242 0.00064951694 0.0012013607 0.002597235

layer2.0.weight f4 [32, 16, 3]
000000 41 e5 24 3f 51 1f 22 be 93 77 00 bf b6 7d 38 be
       0.64412314 -0.15832259 -0.50182456 -0.18016705
000010 01 d6 32 3e cd 02 15 3f 52 36 45 be 80 ce 32 be
       0.17464449 0.582074 -0.19259003 -0.17461586
000020 52 55 84 be 4c f7 6a be af 22 6a 3e fd 9f 96 bd
       -0.25846344 -0.22945899 0.22864793 -0.07354734
000030 2a 34 87 3d 72 f9 08 3f 32 74 15 3f ad 42 28 3e
       0.066017464 0.53505623 0.58380425 0.16431685
000040 ba d4 22 3d 1c aa ce 3e b3 dd 4c 3e cb d9 07 3e
       0.039753653 0.40364158 0.20006447 0.13266675
000050 3a 98 14 bb bc d5 d8 3e ae 89 0a 3d 8a 1f 74 3d
       -0.0022673742 0.42350566 0.033822708 0.05960039
000060 45 4c 44 3e 96 b8 12 be b5 1f 32 3e 72 6c 82 be
       0.1916972 -0.14328226 0.17394908 -0.25473362
000070 45 f0 4c bf a3 ba 80 bf fb 8b b4 3e ce e1 a4 be
       -0.8005412 -1.0056957 0.35263047 -0.32203525
000080 82 2e b5 be 56 a8 89 bf 9e 8d a4 be 2c be fc bb
       -0.35387045 -1.0754497 -0.32139295 -0.0077131
000090 ea dc 4a bf e5 04 ad be 57 a6 76 3e 36 d6 01 bf
       -0.7924334 -0.33792797 0.24086891 -0.50717485
0000a0 78 bd 12 3e ed d5 8d 3e af 67 13 3e a1 ff 5e be
       0.14330089 0.27702275 0.14395021 -0.21777202
0000b0 a2 f4 7c be 57 38 b0 bd 10 88 e8 be 76 2b 22 bf
       -0.24702695 -0.08604496 -0.45416307 -0.63347566
0000c0 89 bc a5 3e a4 bd 59 3d e5 a7 ef be 29 97 44 be
       0.32370403 0.05315937 -0.4680778 -0.19198288
0000d0 90 92 a9 3d b5 6a 39 3e b8 9d 35 3f d6 f9 a4 3e
       0.08279908 0.18107112 0.70943785 0.3222186
0000e0 0d 06 3c be d9 ff 33 bf e5 dc 98 be 24 b9 45 bd
       -0.18361683 -0.7031227 -0.2985603 -0.048272267
0000f0 6d ba 9f 3b e3 59 ad 3e b2 0a 49 3e 0c 87 4a be
       0.0048745186 0.3385764 0.19632986 -0.19778079
000100 74 c1 e8 bd b5 6b 59 3e 10 46 07 3f 5b 2b e6 3e
       -0.11365023 0.21232493 0.5284128 0.44954953
000110 d1 21 78 3f 47 de 9d 3e 25 37 42 3e 35 b5 22 3e
       0.969266 0.30833647 0.18966348 0.15889437
000120 eb 14 1a bf 7a 55 0e bf 47 f5 2a bf 65 d5 86 3e
       -0.6018817 -0.55599177 -0.66780514 0.26334682
000130 f8 1d 9e 3e e5 49 83 3e 97 75 80 3e d0 69 76 3e
       0.3088224 0.25642315 0.25089714 0.24063802
000140 2e 4f 64 3e 45 b4 0a 3f df a1 07 3f 76 46 4d 3f
       0.2229583 0.5418132 0.5298137 0.8018564
000150 9f bd b8 3e e0 2d 9c 3e 3d 00 c4 3e c7 f3 1c bf
       0.3608217 0.3050375 0.38281432 -0.61309475
000160 57 87 b7 be 5c 1a ca be 35 7e 56 be 6a 3a 7a 3c
       -0.35845444 -0.39473236 -0.20946582 0.015272716
000170 9e 07 26 3d 46 b5 e3 3d 1f 6b 32 3e 9d 5d 3b 3e
       0.040534608 0.111185595 0.17423676 0.1829743
000180 08 30 b3 be f7 f0 de be 96 49 41 bd 64 22 15 bc
       -0.34997582 -0.43543217 -0.047189318 -0.009102438
000190 9d 11 19 3e e5 fe af 3e 41 9e 8d be 11 fe 89 be
       0.14948125 0.34374157 -0.276598 -0.2695165
0001a0 79 5d 2a 3e f6 1d e5 be cf b5 3c be d0 d6 a7 3e
       0.1663722 -0.4474942 -0.1842873 0.32781076
0001b0 b7 07 97 3e a2 cb e5 3e 44 6a 2b 3f ed 89 0a bf
       0.29498073 0.44881922 0.66959023 -0.5411671
0001c0 f3 f9 e9 be 23 1c e7 3d 8e 78 63 3d 1a f6 67 3d
       -0.4569851 0.112846635 0.05553489 0.056631185
0001d0 ce 75 2c 3f ad f1 83 3e 36 06 f0 bd 77 d4 b2 be
       0.67367256 0.2577032 -0.11719935 -0.34927723
0001e0 20 e6 64 bf 3e 64 0a bf c5 90 95 bd d7 82 44 3f
       -0.8941364 -0.5405921 -0.07303003 0.76762146
0001f0 b3 cb 2e 3f 96 4e c2 3e ea ed b3 3d 67 d3 e7 3d
       0.6827957 0.3795058 0.08785613 0.11319619
000200 2f 0b 67 3e 74 9b c4 3e f8 3e 2d 3f fa bf 44 3f
       0.2256286 0.3839985 0.6767421 0.76855433
000210 23 17 d2 3e 68 61 02 3f ea 18 e3 3e 4e f0 ed bd
       0.41033277 0.5092988 0.44354945 -0.116181
000220 83 e9 b8 bd c0 f6 55 bd 8a b9 d0 3b fd 42 8a be
       -0.09028914 -0.052237272 0.006369774 -0.27004233
000230 a2 a4 e5 be 73 b9 4f 3e 5e c5 bd 3d b6 5d 7f bd
       -0.44852167 0.20285587 0.092661604 -0.06234523
000240 27 67 4b 3f b8 84 1b 3e 97 06 1f bf 74 79 6c 3f
       0.79454273 0.15187347 -0.6211943 0.9237282
000250 0f 27 e8 3e 67 f8 d9 bd 43 42 b4 be 03 80 f5 be
       0.453423 -0.10643082 -0.35206804 -0.47949228
000260 08 a7 8d be d5 7d 0d 3e 5f ec 64 be fa 69 d6 be
       -0.27666497 0.13817532 -0.22355793 -0.4187773
000270 69 d7 1f be 3b 47 d1 bd 6a 43 bf be 28 41 63 be
       -0.15609516 -0.10218664 -0.3735612 -0.22192824
000280 0c dc 7d be 61 db 8c be a6 d9 4c bf 50 e7 29 bf
       -0.24790972 -0.27511123 -0.80019605 -0.6636858
000290 f9 ff 14 bf 8d d4 2f bd 41 d5 27 be 94 bf 9b bc
       -0.58203083 -0.042927314 -0.16389944 -0.01901225
0002a0 5c 95 6a 3f 5d 11 b1 3e ef 56 33 3d d8 1d 23 bf
       0.91634154 0.3458356 0.04378408 -0.6371741
0002b0 2f f9 96 be fb b3 be 3d 72 1f 29 be dc 3a ae be
       -0.29486987 0.09311672 -0.16515902 -0.3402928
0002c0 af d9 a5 3d 2d 32 3c bf 53 4e 08 bf 54 c3 e0 be
       0.080981605 -0.7351406 -0.53244513 -0.43899024
0002d0 1b a7 6b be 9c b4 dd 3d 17 89 f7 3d 80 0d 51 3d
       -0.23012964 0.10825464 0.12086695 0.051038265
0002e0 4e 86 6b 3e 0a 72 dd 3e 6b 3f 1b bf 04 7a b8 be
       0.23000452 0.43251067 -0.60643643 -0.3603059
0002f0 3f ce 40 3e 3e ca be 3d 88 29 98 3d f9 19 bc be
       0.18828677 0.093159184 0.074297965 -0.36738566
000300 7f 9b 77 be a9 b7 ef be 33 e4 fa be 4c f8 86 be
       -0.24180411 -0.4681981 -0.49002227 -0.2636131
000310 44 53 d3 be a9 c2 ee be 6b 1c a5 3e 29 61 1e 3e
       -0.41274464 -0.4663289 0.32248244 0.15466751
000320 a6 47 cd 3e 15 7f 1b be 42 23 82 be 1d 42 81 be
       0.40093726 -0.15185197 -0.25417525 -0.25245753
000330 c9 bb dc bd 11 ee 06 be 53 5a e0 bd 74 0e 67 3e
       -0.10778005 -0.13176753 -0.10954728 0.22564107
000340 ad 80 ff 3e 36 94 b1 3d 36 ee 10 3f 6c 6e d2 3e
       0.4990286 0.08670847 0.5661348 0.4109987
000350 78 59 a2 3d 19 d9 09 3f e4 62 29 3f 61 9c 58 3e
       0.07927221 0.5384689 0.6616652 0.21153404
000360 2f 22 a8 be 60 4f 4b be 68 c7 0b 3c cf 17 88 3e
       -0.3283858 -0.19854498 0.008531429 0.26580665
000370 b7 f4 dd be 60 bf 7d be 49 59 8d be 1d 55 84 be
       -0.43350765 -0.24780035 -0.27607182 -0.25846186
000380 ce d1 1c 3d bd 3d 65 bf da a5 47 bf f5 57 eb bd
       0.038286023 -0.8954733 -0.77987444 -0.11491386
000390 7e 36 c4 3d 5a c3 80 3e ab ef af be f9 f5 3f be
       0.09580706 0.2514904 -0.3436254 -0.18746175
0003a0 7a b3 f6 bd cd 2b 93 bd 43 be 2d 3e 7a 62 06 be
       -0.12045951 -0.07186089 0.1696711 -0.13123503
0003b0 fa 4a 61 be 59 05 cd be 74 94 06 bf e5 5b 16 bf
       -0.22001258 -0.40043142 -0.5257027 -0.5873397
0003c0 6e 86 87 3e f7 89 13 3f da 32 89 3f 4b 99 fd bd
       0.2646975 0.5763239 1.0718644 -0.12382754
0003d0 96 fd 7c be 9d 98 02 3e db 7f 2e be e0 69 63 be
       -0.2470611 0.1275353 -0.1704096 -0.22208357
0003e0 ac 1a 5a be ea e4 61 bf b1 63 4f bf 9f ae 18 bd
       -0.21299237 -0.8823992 -0.8101149 -0.037275907
0003f0 ed bf 18 bd 05 54 44 be ef ed 05 be 33 01 a2 3e
       -0.03729241 -0.19172676 -0.13079046 0.3164154

layer2.0.bias f4 [32]
000000 38 67 aa be 86 9a d3 be 41 2a 75 3e 42 90 dc bc
       -0.33281875 -0.4132883 0.239419 -0.026924256
000010 81 0b b2 3e ad b6 c5 bd ff ff 96 be 39 46 a2 3e
       0.34774402 -0.09653983 -0.29492185 0.316942
000020 a2 df 48 3d 90 49 73 be 41 37 23 bc 56 a2 38 be
       0.049041398 -0.2375853 -0.009961904 -0.18030676
000030 70 7b 5b 3e ec ec 13 3d a2 b8 da 3e 30 56 81 3d
       0.21433806 0.03611462 0.4271899 0.06315267
000040 5c 8d 79 be 9d b3 89 3e 65 a7 fd 3d f2 42 01 3e
       -0.2437033 0.26894847 0.123854436 0.12623194
000050 cb 03 4f 3d 96 8d f2 3e 46 aa d1 3e 1e 74 af bd
       0.050540727 0.47373646 0.4095022 -0.085670695
000060 b8 ee 19 3e f1 e5 15 3e fb 4e 06 3e c1 ed 2f 3e
       0.1503247 0.14638497 0.13116066 0.1718054
000070 c8 d2 7e be 47 9e 37 bd d8 dc 6c bd 7b a6 70 be
       -0.24885094 -0.04482868 -0.0578278 -0.23501007

layer2.1.weight f4 [32]
000000 b5 38 85 3f 11 4e a7 3f 45 50 af 3f 7e 66 ef 3e
       1.0407931 1.3070699 1.3696371 0.46757883
000010 e1 23 ed 3f ec ce 72 3f fb 61 01 40 d6 7b 8c 3f
       1.8526574 0.9484699 2.0216053 1.0975292
000020 dc 06 3a 3f 94 fd a0 3f 8f 8a 98 3f a2 a7 ca 3e
       0.72666717 1.2577386 1.1917285 0.3958102
000030 35 3a 71 3f bd 8a 88 3f 86 53 8f 3f 63 ff d7 3e
       0.9422944 1.066734 1.1197364 0.42187032
000040 4d dc 83 3f 16 25 80 3f 79 89 1b 3f a1 00 d2 3f
       1.0301605 1.0011318 0.6075664 1.6406442
000050 34 50 44 3f 5c 7f 01 3f 36 21 99 3f e8 14 d1 3f
       0.7668488 0.5058496 1.196326 1.6334505
000060 8e 55 fe 3f 3b 58 99 3f 96 b2 e2 3e fe cf 8c 3f
       1.9869859 1.1980051 0.44276875 1.1000974
000070 2f 78 b3 3f 72 70 5f 3f bd 96 03 3f df 54 98 3f
       1.4021052 0.8728095 0.51401883 1.1900901

layer2.1.bias f4 [32]
000000 d0 5c bc bf 59 bf dd bf 91 7d 99 bf 8a a2 11 bf
       -1.4715824 -1.732402 -1.1991445 -0.5688864
000010 09 1e c4 bf 71 25 6c bf 08 ae d5 bf 55 9b 3b bf
       -1.5321666 -0.9224463 -1.6693735 -0.7328389
000020 4c aa d6 3f 0b ab 97 bc 27 c1 4e bf 4d cd 1a 3f
       1.677072 -0.018514177 -0.8076348 0.60469514
000030 69 a1 bb 3f 7a af 8b 3f 0c 9a 82 3f 1a f8 d8 be
       1.4658633 1.0912926 1.0203261 -0.42376786
000040 12 27 e3 3f 79 13 d7 be 3c 2c 8f bf 6c 5c 80 bf
       1.7746298 -0.42007044 -1.1185374 -1.0028205
000050 24 20 81 3e 32 86 ec 3e 05 96 e4 3f b0 f0 0b 3d
       0.25219834 0.46196133 1.7858282 0.034165084
000060 78 18 40 bf 3a 00 7b bf a7 ff db 3e 12 91 43 3f
       -0.75037336 -0.9804722 0.42968485 0.76393235
000070 5b 0c c9 3e 49 27 9b bf 71 35 4d 3f d5 88 b0 bf
       0.3926724 -1.2121364 0.8015967 -1.3791758

layer2.1.running_mean f4 [32]
000000 0c 03 84 bf 7e 8f c3 bf d8 3b 41 c0 d2 67 c8 bf
       -1.031343 -1.5278165 -3.0192776 -1.5656683
000010 99 f0 2f 40 99 9a 7c c0 aa 79 8c c0 25 2b 32 bf
       2.74906 -3.946936 -4.3898516 -0.69597083
000020 22 78 d6 3f 19 3d de 3d 72 73 7e c0 e6 75 42 40
       1.6755412 0.10851497 -3.9757962 3.038446
000030 a6 37 65 3f cd 79 5c c0 70 b1 5e 3f 03 a0 0d 40
       0.8953804 -3.4449341 0.869895 2.2128913
000040 66 5d 04 c0 d2 f9 d0 3d 8b 4e 53 c0 16 b8 b3 3f
       -2.0682006 0.102038994 -3.301669 1.4040554
000050 2f 61 9d bf be 5e 91 3f 9b a9 59 40 f2 1d 8b c0
       -1.2295283 1.1357038 3.400977 -4.3474054
000060 6a a5 4f c0 88 5b cf 3c 76 76 21 bf a7 74 8a c0
       -3.244471 0.0253122 -0.6307138 -4.32674
000070 f9 29 bf 3f a7 cd 01 c0 74 c6 2e 3f de 16 bb 3f
       1.4934684 -2.028177 0.68271565 1.4616354

layer2.1.running_var f4 [32]
000000 10 04 c2 3f dc a1 ef 3e 9f 30 18 3f 55 09 11 3f
       1.515749 0.46803176 0.5944919 0.56654865
000010 96 0d 8b 3e 99 09 80 40 50 8e 20 40 6e 37 7a 40
       0.27158803 4.0011716 2.508686 3.9096332
000020 32 25 99 3f c6 ff 4b 3f a7 5c 3e 3f 7d b3 c4 40
       1.1964476 0.79687154 0.74360126 6.14691
000030 f3 a9 30 3f 1d 25 51 3f a5 b6 7f 3f b3 f0 ac 3e
       0.6900932 0.81697255 0.9988807 0.3377739
000040 a0 1a d2 3f cb d0 7d 3f 50 99 45 3f 21 2a 24 40
       1.6414375 0.9914672 0.7718706 2.5650713
000050 14 cc ac 3f 7e a6 04 40 2c ba 18 3f 76 04 0a 40
       1.349978 2.0726619 0.59659076 2.1565223
000060 58 3c 96 3f d9 66 8e 3f bc 5d ac 3f 67 a1 10 40
       1.1737165 1.1125137 1.3466105 2.2598512
000070 20 29 87 40 a1 f3 38 3f 90 fe 37 3f a8 8c ea 3e
       4.22377 0.7224675 0.71872807 0.45810437

layer3.0.weight f4 [64, 32, 3]
000000 9e b6 22 3f c3 ae 0f 3e a1 8a 48 be 24 d9 3f bf
       0.635599 0.1403151 -0.19584133 -0.74940705
000010 fe 70 6d be 7a 25 f2 3e e7 b8 9f 3e 20 89 88 3d
       -0.23187634 0.47294217 0.31195757 0.066667795
000020 c7 f9 58 be bd 2f 18 3e 66 b6 27 be c0 cb 20 bd
       -0.21189032 0.1486196 -0.16378173 -0.03925681
000030 29 50 d8 3e e2 a2 bd 3e 0b 49 6a 3d 7b 78 c8 3e
       0.42248657 0.37038332 0.057198565 0.3915442
000040 14 f6 8e 3e 5b 9b 5e 3e 8a 14 00 3f be bd cb 3e
       0.27922118 0.21738951 0.5003134 0.397932
000050 ab bf 12 3e 71 e9 07 3f 25 b8 c5 3e d3 b4 a3 3e
       0.14330928 0.5309058 0.38617054 0.31973895
000060 d6 21 3b bf 7f 59 1e bf 98 f4 98 bf 74 a8 24 3e
       -0.73098505 -0.6185531 -1.1949644 0.16079885
000070 3f 47 24 3f 68 e4 4a 3f cf 6f 17 be 39 9d bc bd
       0.6417121 0.7925477 -0.14788745 -0.09209675
000080 73 28 87 3e d7 a0 81 bf 34 26 78 bf d8 e6 32 bf
       0.26398048 -1.012721 -0.96933293 -0.6988349
000090 c1 14 ce 3d 72 d0 da 3d 07 7b 55 be 97 bc e5 bd
       0.10062552 0.10684289 -0.20847712 -0.11217611
0000a0 b1 ac 36 be ce 1f 9f be 30 c5 01 bf 93 f4 15 bf
       -0.17839314 -0.31078953 -0.5069151 -0.58576316
0000b0 90 4f 33 bf 07 6b df be 53 ea 23 3d 93 bb 39 3f
       -0.7004328 -0.43636343 0.04001839 0.7255184
0000c0 6f 15 14 be dd 6a ac be 44 93 75 bf 7d d8 20 3c
       -0.14461301 -0.3367528 -0.95927835 0.00981724
0000d0 e0 86 6f 3e 06 65 9a 3e 1a 1b 32 3e 6b 43 f0 3d
       0.23391294 0.301552 0.17393151 0.11731609
0000e0 e8 27 60 3e 1c 56 89 be 8e 09 fa ba 88 c0 85 bd
       0.21890223 -0.2682351 -0.0019076334 -0.06530863
0000f0 e1 27 5b bd e0 ab fd 3e a2 50 a0 3f af 29 6a be
       -0.05350483 0.49545193 1.2524607 -0.22867464
000100 50 b8 84 be 87 db 93 bd 70 bc 99 3c 78 a1 95 be
       -0.2592187 -0.07219606 0.018766612 -0.29224753
000110 4e 62 be be bb 4e 87 bf 79 75 2a bf 5e 8a 29 be
       -0.37184376 -1.0570902 -0.665855 -0.16556689
000120 72 22 90 3d 76 05 ec 3e 13 e8 9a 3e 57 79 c7 3e
       0.0703782 0.46097916 0.30255184 0.38959762
000130 a3 22 20 3e 93 6c c9 bd cc 7f 95 be f5 2b 1e 3e
       0.15638213 -0.09835162 -0.29199064 0.15446456
000140 e7 61 a9 3e 18 c0 22 be b1 ae a2 3d 1e b9 7b 3d
       0.33082506 -0.1589359 0.07943476 0.06145584
000150 17 86 4d 3d b9 5f 6d 3e 04 2d 8d 3e b0 2d 1e be
       0.050176706 0.23181047 0.27573407 -0.15447116
000160 7b 8e 9a bc 6b b0 68 bd 7f 83 f0 3e 0a c9 04 3f
       -0.018866768 -0.05680887 0.46975324 0.5186926
000170 df 48 18 3e a5 90 6f be 6f 96 b9 3d 50 02 5c 3e
       0.14871548 -0.23395021 0.09061896 0.21485257
000180 9c e8 69 3f 7b 89 12 3f bf b3 4a 3d 39 7a b2 bd
       0.9137056 0.5724103 0.049487825 -0.08714718
000190 fd 51 b1 be 3f cd e3 be 82 d6 16 3f 01 87 e4 3e
       -0.34632865 -0.44492528 0.5892106 0.4463425
0001a0 7d e1 85 be 94 2f 2c 3e 32 0d 8e be 39 45 05 bf
       -0.26148596 0.16815025 -0.27744442 -0.5205875
0001b0 5e 2d 75 3e e2 ed c2 be 31 00 e1 be de fb 65 3f
       0.23943087 -0.38072115 -0.4394546 0.89837444
0001c0 bd 57 cf 3e 78 e3 c7 be 42 f6 69 bf ad eb 8f be
       0.40496626 -0.39040732 -0.91391385 -0.28109494
0001d0 bb e8 21 3f 1d e9 ce 3e f4 ec 5f 3e 30 8c 8f bd
       0.63245744 0.40412226 0.21867734 -0.070091605
0001e0 4f e1 30 3f 10 e9 7a 3f fb 02 21 3f f9 b5 07 3e
       0.69093794 0.98011875 0.6289517 0.13253011
0001f0 99 30 00 3e 38 7e ef 3e f2 a9 0e 3e 99 7e 6b 3d
       0.12518539 0.46775985 0.13932016 0.05749378
000200 21 17 a9 be a1 1a c6 be 76 ce ab be 1a 84 78 be
       -0.33025458 -0.3869219 -0.33555955 -0.24269143
000210 6c 05 41 3f 5b 93 eb 3e 49 5b 7e 3e 52 42 04 be
       0.753989 0.4601086 0.2483951 -0.12915924
000220 d8 f2 3b be b1 e6 df be 99 42 2b bf a9 12 cc be
       -0.18354356 -0.4373069 -0.66898495 -0.39857987
000230 ff 4a b8 3e b5 fc 9a bf fc 5d 07 bf d4 19 26 bc
       0.35994717 -1.210837 -0.52877784 -0.010137994
000240 d8 2a 4e 3d 17 1e 29 be 74 a5 a1 bd 52 e1 97 be
       0.050333828 -0.16515385 -0.07892886 -0.29664093
000250 55 73 c6 bd 84 65 a3 3c 64 c3 21 3f c4 e2 a3 3e
       -0.096899666 0.019945867 0.6318877 0.32008946
000260 93 95 d6 be 10 85 87 bb 04 87 7f 3c 76 03 84 be
       -0.4191099 -0.0041357353 0.015596155 -0.2578389
000270 ab 76 12 3f 41 05 fe 3e 0b 7b 83 3d 36 fc a1 3e
       0.5721232 0.49613383 0.06419953 0.31637734
000280 d8 9c fc 3e 6e 12 90 3e c1 84 f2 be ef b0 75 be
       0.49338412 0.2813906 -0.47366908 -0.23993276
000290 20 86 a8 3e 15 82 a2 be 52 c5 80 be 96 42 f6 3d
       0.3291483 -0.3173987 -0.25150543 0.12024419
0002a0 b7 d8 4f bf 0b 5d db be 8b 0a 7e be a9 66 82 be
       -0.81190056 -0.42844424 -0.2480871 -0.25468948
0002b0 40 3d c9 bd 74 83 66 be 52 9b d9 bd 49 9c 1f be
       -0.09826136 -0.22511083 -0.10625328 -0.15586962
0002c0 96 2b 9b be a9 66 b7 3c c1 f2 2d 3e de 49 9a 3b
       -0.3030669 0.02238782 0.16987135 0.0047085127
0002d0 ba 35 d9 3e dc b2 49 3e f7 ab 4b be f6 fd 04 be
       0.42423803 0.19697136 -0.19889818 -0.12987503
0002e0 cc ec ff 3b 73 3c b1 3e 71 68 0d 3f 49 ce 20 3f
       0.007810211 0.34616432 0.5523749 0.62814766
0002f0 1b 4e 6e 3e 30 eb 68 3e 14 af 43 3f d0 55 e3 3e
       0.23271982 0.22745967 0.76439023 0.44401407
000300 3e cb 47 be 06 ff e2 3e ad e2 59 3e 51 82 98 bd
       -0.19511124 0.44335192 0.21277876 -0.07446731
000310 d4 aa 29 3f 81 fc 8b 3f 9b 81 4d be 52 62 c4 be
       0.6627629 1.0936433 -0.20068972 -0.38356262
000320 8a 74 05 3d e9 40 35 bf 52 60 4c 3d 5d 56 97 3e
       0.032581843 -0.7080217 0.049896546 0.29558077
000330 63 2d 38 be ba 33 34 bd 9d f8 56 be cd f1 43 3d
       -0.17986064 -0.043994643 -0.20993276 0.04783802
000340 4e 7f 5a 3e 24 1e 21 3e 23 b8 ba bd 42 57 a3 be
       0.21337625 0.15734154 -0.091171525 -0.3190251
000350 8c 86 33 3e a4 65 df be 79 6c 62 bd f5 2a a6 3c
       0.17531794 -0.43632233 -0.05527923 0.020284155
000360 7f f8 93 be e8 3e ac be 9d 2c 08 bf 46 97 23 be
       -0.28900525 -0.33641744 -0.53193074 -0.15975675
000370 09 0a 48 3e 63 e5 02 3f 45 0d 7c 3d ed 9c a0 3e
       0.19535078 0.51131266 0.061536092 0.31369725
000380 a7 51 bf 3e 47 8b 0d 3f 71 cd 31 bd 8a da a9 be
       0.37366983 0.55290645 -0.043408815 -0.33174545
000390 94 7e 38 3f 75 c7 01 3f ec 0f 84 bd 7b 22 62 be
       0.7206814 0.5069497 -0.06448349 -0.22083466
0003a0 52 65 fa be 0a d4 26 bf 44 f0 ba be a7 be 69 be
       -0.48905426 -0.65167296 -0.36511433 -0.22826634
0003b0 b3 22 a9 3d 66 a8 f7 be 6a ca 6e be 42 84 8a 3d
       0.082585715 -0.48370665 -0.23319402 0.067635074
0003c0 bd 0e cc 3e 11 87 a2 bd 7c 58 42 bd 9e b6 4e 3d
       0.39854994 -0.07935918 -0.047447667 0.050467126
0003d0 6f 03 94 be ce 38 a7 be 72 18 4d be b5 ff a0 3e
       -0.2890887 -0.32660526 -0.20028856 0.3144509
0003e0 0d e7 d0 3e ff a0 12 bf 69 89 0b bf e1 3d bb be
       0.40801278 -0.5727691 -0.54506546 -0.36570647
0003f0 02 e8 85 be ca e9 c4 bd f0 b2 c3 3e 94 c7 20 3d
       -0.2615357 -0.09614904 0.38222456 0.039252833

layer3.0.bias f4 [64]
000000 81 b6 0d 3f bd ea 9c bd 96 7e 1f be 87 da 03 3f
       0.55356604 -0.0766196 -0.15575632 0.5150532
000010 8c 94 50 bd 9c 2d f7 3e 50 61 e3 3e 28 af 94 3e
       -0.050922915 0.48276985 0.4441018 0.29039884
000020 b2 11 90 be 75 93 ee be 17 4d 63 be 58 7e 93 3e
       -0.281385 -0.46596876 -0.22197376 0.2880733
000030 13 2b fb 3e 61 ef ac 3d f5 f6 ae bd c2 7c b9 bf
       0.490563 0.084440954 -0.08543197 -1.4491198
000040 b5 7c 04 bf 2a 09 d0 3e e0 ed 2d bf 6a 7a 40 3d
       -0.5175279 0.40631992 -0.67941093 0.046991743
000050 e4 d6 ac bd 54 1f 1f 3e 3e 36 aa be 91 3c 41 be
       -0.08439425 0.15539294 -0.33244509 -0.1887076
000060 a5 b7 02 3e 7b fc 82 be e4 e1 ac bd ed 9b 9b bd
       0.12765367 -0.25583252 -0.08441523 -0.075981
000070 31 2d cd 3d 2d 68 c9 be 4f f6 43 3f 48 ce 53 3e
       0.10018385 -0.39337292 0.7654771 0.20684159
000080 d9 5c 7c be c4 14 f9 bd 2e 0a 8e be 94 7a 0b 3f
       -0.24644794 -0.12162164 -0.2774214 0.54483914
000090 c0 08 1e be 9e 57 a9 3e db 88 05 3e 07 34 84 3e
       -0.15433025 0.3307466 0.13040487 0.25820944
0000a0 5b 65 5a 3d df 65 ed 3d 2c ba 57 be 39 f2 3f bf
       0.053319316 0.11591696 -0.21067113 -0.7497898
0000b0 27 f1 28 be 1b c7 a4 bd aa ee 42 3f 57 7a 97 3f
       -0.16498242 -0.08045789 0.7614542 1.183421
0000c0 45 84 39 3e 53 6a 9d be 0d 1e a0 bc 63 80 ba bc
       0.18116863 -0.3074518 -0.01954558 -0.022766298
0000d0 2e dc e9 bd dd 76 a0 3e bb c6 af 3e 78 6b ef be
       -0.11418949 0.31340685 0.34331307 -0.4676168
0000e0 12 57 0e 3f 34 67 77 3e 9a 00 ae 3e ea ac 83 bc
       0.5560161 0.24160463 0.33984834 -0.016073663
0000f0 ab c2 59 be ba 13 e3 bd a1 1c 20 3e 30 6b dd 3e
       -0.21265666 -0.11087747 0.15635921 0.4324584

layer3.1.weight f4 [64]
000000 77 7a b9 40 04 bd 01 40 3c f1 c9 40 5f b4 87 40
       5.7961993 2.0271616 6.3106976 4.240768
000010 75 ce a9 40 19 a4 74 40 ee fa a2 40 32 44 b7 40
       5.3064523 3.8225157 5.093131 5.7270746
000020 cc d2 b2 40 9c 4d d3 40 c1 c9 e0 40 5d 03 0d 41
       5.588232 6.603224 7.024628 8.813321
000030 19 6f af 40 a5 ed f0 40 98 4e 8d 40 b1 f2 c0 40
       5.4823117 7.5290093 4.415844 6.0296254
000040 98 53 09 41 e0 9a 81 40 0d 6a 99 40 ad 46 8e 40
       8.582909 4.0501556 4.7941957 4.4461274
000050 0a 19 8d 40 81 d1 95 40 ee e7 8c 40 70 aa 8f 40
       4.4093065 4.681824 4.4033117 4.4895554
000060 47 20 56 40 72 d8 6a 40 60 62 60 40 d8 f2 8f 40
       3.34572 3.6694608 3.5060043 4.498394
000070 e9 b9 97 40 c9 2e dc 40 6a 88 8c 40 cb 3c 4b 40
       4.741444 6.880711 4.391652 3.1755855
000080 6c 68 ea 40 46 8b 8b 40 52 41 bb 40 6f c7 c7 40
       7.325247 4.360751 5.8517237 6.243095
000090 f8 86 c7 40 f9 73 f9 40 44 da 94 40 04 55 86 40
       6.2352257 7.795407 4.6516438 4.197878
0000a0 5c f2 3e 40 ca 91 cc 40 79 db 0f 41 a8 84 04 41
       2.9835424 6.3927965 8.991082 8.282387
0000b0 07 8b 16 41 51 75 f3 40 9a b1 ec 40 b0 8d 16 41
       9.408942 7.608071 7.39668 9.409592
0000c0 50 7a a7 40 9a af ce 40 4e 41 a5 40 a3 2c 6f 40
       5.2336807 6.4589357 5.164222 3.7370994
0000d0 9b ae 8d 40 05 2c 96 40 c9 ff 84 40 f1 cd 98 40
       4.427564 4.6928735 4.156224 4.7751393
0000e0 59 89 a8 40 50 11 9d 40 f4 a8 9b 40 f3 56 35 40
       5.266766 4.9083633 4.864374 2.833432
0000f0 ce 41 82 40 6e 19 38 40 e0 6e 77 40 de 0b b6 40
       4.070533 2.876552 3.8661423 5.6889486

layer3.1.bias f4 [64]
000000 33 0a 1f be 5b 7c 23 bf 64 6a c3 3c a2 68 08 3f
       -0.15531234 -0.63861626 0.023854442 0.53284657
000010 7b 16 a1 be 78 b0 11 3f cd 9a 68 3e 25 4d 17 be
       -0.31462464 0.56909895 0.22715302 -0.14775522
000020 f1 be 09 bd c5 c8 66 3e e5 70 28 3e 84 59 1b bc
       -0.03362936 0.22537525 0.16449316 -0.009481791
000030 d0 e4 33 be 5b 31 1b 3b 0b 8a f7 3e 23 47 66 3e
       -0.17567754 0.0023680541 0.48347506 0.22488074
000040 4a 01 72 bd c3 e2 8a be c9 d3 77 3e a9 76 94 3e
       -0.05908326 -0.2712613 0.24201883 0.2899678
000050 99 0f 9b be 64 13 f7 3e 85 8b 48 be cc 51 28 3e
       -0.30285338 0.4825698 -0.19584472 0.16437453
000060 aa 6d 0c 3f 19 eb 9c 3e 60 c3 c6 be 0b 1c 22 3e
       0.54854834 0.30648115 -0.38820934 0.1583101
000070 a5 96 03 3e 49 40 28 3e ed 4b 86 be 79 8a b1 be
       0.12850435 0.16430773 -0.26229802 -0.3467596
000080 a4 d2 3a bd 89 b8 bf be 62 a3 b3 be 55 f4 91 3d
       -0.04561104 -0.37445477 -0.3508559 0.07126681
000090 83 7b 8c 3e 4c b8 14 be 0e 16 d8 be 3b 6c 12 3f
       0.27437982 -0.14523429 -0.42204326 0.57196397
0000a0 0c a2 fc be 05 67 5c 3d 87 9d 13 be 44 a6 23 be
       -0.49342382 0.053809185 -0.1441556 -0.15981394
0000b0 e1 ad 55 3d c4 85 95 bd a5 fa 50 3e ab ae a5 bd
       0.052167777 -0.073009044 0.20408113 -0.08089956
0000c0 94 15 9c 3a 6c db 54 bd 8a 42 9c 3e 2d 25 d8 3e
       0.0011908286 -0.05196707 0.30519515 0.42215863
0000d0 04 8e 9d 3d 94 98 68 3e ce 17 29 be 2d 27 82 3e
       0.07693103 0.22714454 -0.16512987 0.25420514
0000e0 77 69 ca 3e 5f 3d 90 3c f9 b2 ce be 5f 0c ef 3e
       0.39533588 0.017607389 -0.4037092 0.46689126
0000f0 74 45 16 bf b6 2e bd 3e 23 af b5 3e 6e 4e 0b be
       -0.5869973 0.369497 0.3548518 -0.13604137

layer3.1.running_mean f4 [64]
000000 d1 bc 00 c1 59 7d 09 40 b8 24 e7 3f 96 29 a6 40
       -8.046098 2.1482756 1.8058081 5.1925764
000010 59 b7 0f c0 b0 d4 91 bf ad 66 a6 3f 75 c8 68 c0
       -2.2455657 -1.1393032 1.3000084 -3.637235
000020 28 12 ca be e6 e8 0f 41 82 28 50 bf fa 10 6d 40
       -0.39466977 8.99436 -0.8131181 3.7041612
000030 ff 95 57 c0 c4 90 89 40 3b a1 a6 3f 88 6c bc 40
       -3.36853 4.2989216 1.3017954 5.8882484
000040 d0 8d 50 c0 29 ed 37 3e 16 3a 6a 40 7b 6e d6 3d
       -3.2586555 0.17961563 3.6597953 0.10470291
000050 26 23 4a 3f 14 33 8c 40 f6 30 25 bf 3c 71 b0 40
       0.7895988 4.381235 -0.64527833 5.5138226
000060 9b 41 97 3e 4a a1 ed 3f c2 59 52 3f ca e0 23 40
       0.2954224 1.8564847 0.8216821 2.560595
000070 1f 10 de 3f 35 8a 89 40 98 38 a1 c0 a6 e8 c4 c0
       1.734867 4.298121 -5.0381584 -6.1533995
000080 f2 a0 81 40 f9 a3 93 bd 29 89 0c be da b6 1a c1
       4.0508966 -0.0720901 -0.13724197 -9.6696415
000090 53 c6 e4 bf ae e6 19 c0 86 16 41 c0 9a 6c 4a 40
       -1.7873024 -2.4047046 -3.0169997 3.1628785
0000a0 b7 7a 0a c0 15 74 7a c0 78 ac 61 40 9f 8b 22 40
       -2.16374 -3.913335 3.5261517 2.5397718
0000b0 3d 7c cd 40 24 df 77 40 ea b6 70 c0 a9 51 16 c1
       6.421416 3.8729944 -3.7611642 -9.394937
0000c0 f4 dc ae 3e 15 cd 33 40 76 b5 77 40 86 3f 98 40
       0.3415295 2.8093922 3.8704505 4.7577543
0000d0 68 f2 0c c0 72 40 a8 c0 29 46 97 c0 77 89 bd c0
       -2.2022953 -5.257867 -4.7273145 -5.9230304
0000e0 43 40 b5 bf d2 1e 03 c1 b3 f9 e7 c0 01 65 92 3f
       -1.4160236 -8.1950245 -7.249231 1.1437074
0000f0 05 95 2c 40 7c 3c 84 40 22 09 f8 3f 26 77 a4 40
       2.6965954 4.1323833 1.9377787 5.1395445

layer3.1.running_var f4 [64]
000000 cb 0c 10 41 fa 3f ea 40 2a 3c e0 40 e5 52 6d 41
       9.003123 7.3203096 7.0073442 14.832738
000010 fa 69 44 41 27 e5 04 41 da 7f c9 40 2e a9 e6 40
       12.275873 8.305945 6.296857 7.208152
000020 0a 8f 81 41 cb cf 2a 41 f8 86 9c 40 f5 6e 00 41
       16.194843 10.675731 4.8914757 8.027089
000030 3d a1 2d 41 1c e1 51 41 eb d5 98 41 da 3e 50 40
       10.851865 13.117458 19.104452 3.2538362
000040 91 78 39 41 fe 85 8d 41 00 7c e6 40 76 3e 70 41
       11.591935 17.690426 7.2026367 15.015249
000050 3d 6b 48 41 42 1e ec 40 df 6e 07 41 94 e7 04 41
       12.526181 7.3786936 8.464568 8.306538
000060 e8 26 1b 41 8b 85 cf 40 84 d3 55 40 96 51 41 41
       9.696999 6.4850516 3.341035 12.082418
000070 03 36 63 41 17 b9 db 40 d7 f1 bb 40 16 75 89 41
       14.200686 6.866344 5.8732715 17.18217
000080 50 b4 dd 40 2f 96 1d 41 74 ae 08 41 e7 81 3a 41
       6.928261 9.849166 8.542591 11.656714
000090 9e 77 67 41 b8 2d 6f 41 0f 88 65 41 55 a1 02 41
       14.466703 14.948662 14.345717 8.164388
0000a0 92 02 e1 40 a5 06 0d 41 ad c2 17 41 e0 a2 de 40
       7.0315638 8.814122 9.485028 6.957382
0000b0 60 5e 31 41 0e 77 00 41 c6 d1 bf 40 62 c1 f3 40
       11.085541 8.029066 5.994357 7.6173563
0000c0 a1 aa 43 41 65 fe 6b 41 f8 39 0d 41 0f 63 db 40
       12.229157 14.749608 8.826653 6.855842
0000d0 01 be ce 40 92 d0 51 41 d6 fa 01 41 03 28 5c 41
       6.460694 13.1134205 8.123739 13.7597685
0000e0 01 88 01 41 25 cb 75 41 57 ab ae 41 ff 57 43 41
       8.095704 15.362096 21.833662 12.208983
0000f0 40 f8 0e 41 87 08 76 41 ee d8 2a 41 1c 02 37 41
       8.935608 15.377082 10.677961 11.438015

layer5.0.weight f4 [10, 64]
000000 3c f9 b8 bf 6b 2b c3 3f 82 7d 86 3f ca 1f 54 bf
       -1.445106 1.5247625 1.0507052 -0.82861006
000010 81 a5 b7 be 46 1a 8a c0 24 66 19 3e 1a 2e 13 bf
       -0.35868457 -4.315707 0.1498037 -0.5749222
000020 c1 9b 3c 40 84 bf 3c 3f 4e c3 58 3f 91 64 10 40
       2.9470065 0.7372973 0.8467301 2.256138
000030 61 5a c3 3f fd 4b ea 3f 26 72 c0 bf 68 27 f8 40
       1.5261956 1.830444 -1.5034835 7.7548103
000040 f0 66 cf bf 54 71 0b be a8 41 15 40 96 3e 9c bf
       -1.6203289 -0.1361745 2.3321323 -1.22066
000050 76 36 e9 3f 9e 65 a4 3e 97 3d c3 3e aa ba 6c 40
       1.8219745 0.32108778 0.38132927 3.698893
000060 d9 b1 07 c0 5f 68 81 bf 32 a8 be 3e a4 9b df be
       -2.12023 -1.0109977 0.37237698 -0.43673432
000070 0a 0e 11 3e 82 03 50 3f b6 03 ea bf c3 25 7b be
       0.14165512 0.8125535 -1.8282382 -0.24526124
000080 03 b3 36 3f 33 42 7a be 02 3e 77 be 0b 7b 47 bf
       0.713669 -0.24439315 -0.24144748 -0.77922124
000090 76 ec 90 3d 1b 10 d2 40 7f 27 d0 be b3 c4 83 c0
       0.07076351 6.564466 -0.40655133 -4.117761
0000a0 4a 6f 97 bd 90 70 1a bf fd 18 a3 3f 20 46 61 40
       -0.073942736 -0.60328007 1.2742001 3.519905
0000b0 95 70 50 40 da 69 03 3f 68 35 84 c0 61 86 57 c0
       3.2568715 0.5133339 -4.1315193 -3.3675768
0000c0 88 1f 56 bf 36 7d 48 40 a6 b2 86 bc 9c 87 9b 3e
       -0.8364186 3.1326423 -0.016442608 0.303769
0000d0 b3 75 b0 bf e9 72 fc 3c 12 ac f3 be aa 56 c5 c0
       -1.3785919 0.030816512 -0.47592217 -6.166829
0000e0 55 aa fa 3f 62 59 6a bf 83 a1 80 3e fc 11 af be
       1.9583231 -0.9154264 0.25123224 -0.34193408
0000f0 dd 8c 85 40 be 16 8a 3e c0 a1 11 c0 00 13 f2 3f
       4.173445 0.26970476 -2.2754974 1.8912048
000100 bb c7 8b 40 93 80 12 3f f6 2b ec 3f 24 45 1a 3f
       4.368131 0.5722744 1.8450916 0.6026175
000110 5a 9a ae 3e 16 8a 06 bf 91 ba 5a 3f e6 70 1d 40
       0.34102136 -0.5255445 0.8544093 2.4600158
000120 b2 09 01 c0 d3 2e 26 c0 42 b1 9e 3f 2b d9 8c bf
       -2.0162168 -2.596608 1.2397845 -1.1003774
000130 f0 4f 6c bf 11 53 2d c0 68 e0 03 c0 b2 90 5f c0
       -0.92309475 -2.708195 -2.0605717 -3.4932065
000140 99 5b 5e c0 48 95 5c 3c 6a d5 00 40 b5 2c 27 40
       -3.4743407 0.013463326 2.0130258 2.6121037
000150 db f5 0d 40 ca 94 56 c0 23 ed 66 3f 36 4f 0d 40
       2.2181308 -3.3528314 0.9020559 2.2079597
000160 3f 3d 04 bf dd bf 72 3f ed 56 42 3e 91 c6 15 40
       -0.51655954 0.9482401 0.18978472 2.3402445
000170 b6 93 9e be 0e 44 26 bf d7 d0 38 40 67 d1 39 3f
       -0.3097207 -0.64947593 2.8877466 0.7258515
000180 a5 3e 98 bf 2c d3 9f be 70 1f 09 40 fc bb e5 3d
       -1.1894118 -0.312158 2.1425438 0.11217496
000190 eb 71 13 40 d0 7f d5 3f da 04 ed bf 30 ab 83 3f
       2.303828 1.667963 -1.8517106 1.0286617
0001a0 1d 73 c9 be d9 94 04 40 3b c4 92 40 b6 b9 6f 40
       -0.39345637 2.071585 4.586454 3.74571
0001b0 8f a8 70 3f ca df c6 40 e5 2b 6e be 35 88 7f 3f
       0.940072 6.214818 -0.23258932 0.9981721
0001c0 ea 2e b8 3e 41 97 93 40 3c 3d a9 3f e3 3a 28 3f
       0.35973293 4.6122136 1.3221812 0.65714854
0001d0 b3 31 b5 3f 58 d9 f5 3d 1c 2e 43 c0 cb 01 2a bf
       1.4155792 0.12004346 -3.0496893 -0.66408986
0001e0 6e 5c b0 bf ad 4c 30 bf e1 9d b7 bf cd 94 89 be
       -1.3778207 -0.68867 -1.4345056 -0.26871338
0001f0 bc 50 80 3f a9 6f 09 bf eb ea 50 c0 3d 89 de be
       1.0024638 -0.53686005 -3.2643383 -0.4346408
000200 15 14 58 bf d4 6d 71 3f d8 ad ac bf 95 b1 0a c0
       -0.8440564 0.9430821 -1.3490553 -2.1670887
000210 83 24 3e bf 22 3f eb bf 26 0f 47 3f c1 c7 2e 40
       -0.7427446 -1.8378642 0.7775749 2.730942
000220 fd 40 23 40 4d 31 6e be e4 78 c1 c0 31 c2 04 c0
       2.5508416 -0.23260994 -6.046007 -2.0743525
000230 67 1d 52 bf 40 97 97 40 85 4b a1 bf 80 8f cb bf
       -0.82076114 4.737213 -1.2601172 -1.5903168
000240 ae 3d 35 c0 4e 69 53 3f 75 25 3e 3e b2 97 55 c0
       -2.8318896 0.8258256 0.18568976 -3.3373837
000250 e5 95 70 40 a0 8a 27 c0 81 66 82 bf 89 cf bc 3e
       3.7591488 -2.617836 -1.0187532 0.36877087
000260 1f 47 c5 bf 76 e4 d3 3e 87 11 8b 40 28 69 7e c0
       -1.541233 0.4138524 4.3458896 -3.9751682
000270 5a f2 ad bf da 26 23 3f 44 7e 4a 40 fe 35 c4 bc
       -1.3589585 0.6373116 3.1639566 -0.023951527
000280 91 36 88 3f 07 46 4e 3f 22 ee ab bf a5 17 2d bf
       1.0641652 0.80575603 -1.3432047 -0.67614204
000290 48 e1 53 3f a7 42 09 40 f1 e3 ce be 28 61 9a 3f
       0.82765627 2.1446931 -0.4040828 1.20609
0002a0 e2 c4 f4 3f 71 17 8a 3f 29 2f 2d bf 27 87 11 c0
       1.9122584 1.0788404 -0.67650086 -2.273874
0002b0 2a 74 39 c0 7f b4 d4 bf 3e 1b 8c be 91 9d b2 bd
       -2.897715 -1.6617583 -0.27364534 -0.0872146
0002c0 e5 8a aa bf c8 ba f0 be ea 55 a7 3e f7 a6 8a bf
       -1.3323637 -0.47017503 0.32682735 -1.0832204
0002d0 2e 27 2f 3f 5c 72 46 3f 65 94 f2 3f 58 87 70 be
       0.6841916 0.7751825 1.8951536 -0.2348913
0002e0 dc d6 77 be 3b e4 db bf ee 06 bb 3f 59 d3 bc bf
       -0.24203056 -1.7179025 1.461149 -1.4751998
0002f0 a0 02 fa 3e 14 71 40 bf 0b 24 87 3d b6 6d e3 bf
       0.48830128 -0.75172544 0.065986715 -1.7767856
000300 24 54 98 3f 41 c7 5a 3f fa 3d 4c 40 46 82 9b 3f
       1.1900678 0.8546029 3.1912827 1.2149131
000310 4a ba 28 40 5b d1 8e be 34 b6 86 c0 3d 6c 2a c0
       2.6363702 -0.278941 -4.2097416 -2.6628563
000320 c3 5b b0 3f 4a f2 22 40 85 89 82 bf 79 e7 fb bf
       1.3778003 2.5460382 -1.0198218 -1.9680015
000330 13 5c f7 be 85 f8 d1 be 0a 9e 23 bf 00 2f 84 bf
       -0.48312435 -0.41009918 -0.63913023 -1.0326843
000340 ca f3 af 3f 0d 15 ab be 9c 4a 98 3e 60 b2 d0 bf
       1.3746274 -0.33414498 0.29744422 -1.6304436
000350 8d 4e fa be 2b be 0e bf 9b 9c 40 3e 31 90 e4 be
       -0.48888054 -0.55758923 0.1880974 -0.4464126
000360 ef d8 82 bf a8 83 51 3d cd c2 03 3f f4 d9 e9 be
       -1.0222453 0.051150948 0.5146912 -0.45674098
000370 f9 bd 2f bf d6 28 09 c0 f9 19 cc 3f 3c 65 2d 3f
       -0.6864925 -2.1431174 1.5945426 0.67732596
000380 4c 3b eb bf 52 d2 9f 40 3c e3 2a 40 68 4a 03 c0
       -1.8377471 4.994424 2.6701193 -2.0514164
000390 5d b1 e9 be 5d 56 0e be fd 19 50 40 7b 87 0f 3f
       -0.4564313 -0.13900132 3.2515862 0.560661
0003a0 8a df 90 40 cd 6f 58 c0 c8 bf 3e 3f 6a ad 09 be
       4.5272875 -3.3818238 0.74511385 -0.13445058
0003b0 c1 af 30 40 f3 51 fa 3f bd c6 91 c0 8a 03 26 3e
       2.7607272 1.9556259 -4.55551 0.16212288
0003c0 90 ef 1b bf 54 3e 02 bf e1 d0 82 3f 23 e0 ea c0
       -0.6091242 -0.50876355 1.0219995 -7.3398604
0003d0 ee 05 1a c0 a7 9b c0 3e 10 5d 3e 3f b3 3c 5f 3f
       -2.406612 0.37618753 0.7436075 0.87201995
0003e0 0b 2c 3d c0 42 23 88 3e e6 7d 8d 3f ae 9b d9 bf
       -2.9558132 0.265894 1.1054046 -1.7000635
0003f0 49 08 ce 3f 8a 9a 03 be 4d bc 5d be 23 f9 c4 3e
       1.6096278 -0.1285192 -0.21653862 0.38471326

layer5.0.bias f4 [10]
000000 00 27 82 bf 7b 8a 1a bf c6 14 f3 be a1 d3 4f bf
       -1.0168152 -0.60367554 -0.47476786 -0.81182295
000010 94 51 01 bf 42 e5 d8 be 86 48 b0 be ae ca 70 bf
       -0.50515103 -0.4236241 -0.3443033 -0.94059265
000020 37 88 07 be 58 60 59 bf
       -0.13235556 -0.84912634
