GSTENG_Datasets/v-net_ks=3_lr=0.01_epoch=200_tanh.pth (torch, 45263 bytes, 20 tensors)

layer1.0.weight f4 [16, 6, 3]
-0.81359226 0.9425333 -1.085166 -0.5310841 0.8157755 -0.09166362 1.5664549 -0.31315988
-1.4675072 1.9804957 -3.389726 -6.652201 -2.5851393 -4.12547 -3.5042844 17.250984
11.334152 2.3407772 3.9662106 4.5097156 5.657835 -2.2298934 1.0495939 16.140165
-1.9088249 3.8186836 5.9749665 -0.7038347 0.7644061 0.270929 0.7397362 1.3663709
0.30881584 0.2675398 -2.7504792 -6.851602 1.8753408 4.7796597 5.1835694 -6.738802
-8.919131 -6.332993 4.1061993 0.7867185 -2.9350934 -4.269708 -3.9230373 -3.3165326
-4.848455 -5.0849977 -1.6935465 -1.0679106 2.783119 5.4426827 0.30815256 3.3003414
-1.2896053 -1.0642593 1.3489332 0.36543763 -1.0542271 2.593067 -0.058141675 4.8370104
6.618286 7.5753345 3.732491 4.8131914 6.0878534 -9.554856 -13.560416 -5.7754636
0.42644823 -0.47354504 -0.4097677 0.7977347 0.8751285 -0.49056125 -0.17766902 -0.72544074
-0.60667986 -5.8915486 -4.3253527 -3.1364813 0.72943246 0.31828427 -0.025728974 3.9153864
17.839268 15.790808 -1.5589751 -2.8440669 1.7016903 2.44222 3.0655787 7.5960093
-1.839644 1.7792739 1.4577874 1.6446966 2.6489255 3.3567104 4.000516 1.4297132
0.57600373 -4.823209 -12.775203 -13.224656 1.9138215 1.9730473 2.4302979 -21.611908
3.366551 0.6010846 2.27706 0.92827475 1.1425205 -1.2807002 -0.7839337 -0.32781693
3.6318383 3.4615216 2.7090557 -2.2005968 -2.3649044 -4.324042 -0.5976254 -0.7184799
0.819201 2.325065 1.8002714 -0.536946 -0.29912674 0.7309338 0.85877985 -1.4614586
-1.7809061 -2.4754481 10.495866 9.302418 6.7776732 -7.513946 -8.727562 -7.0191708
-4.739128 -2.4091387 -1.7602761 -0.96490127 -20.442652 -3.8356724 0.14171593 3.4053617
1.1171871 6.5176573 2.331145 2.673622 -2.609275 -4.690476 -3.7307491 3.7460923
3.270485 4.3171196 -3.8430698 0.5399914 -0.9671426 12.980136 7.1803994 16.184668
0.34017766 1.3614444 2.2765613 1.8898549 -0.8082412 1.1877438 1.9924525 0.058857936
0.54165125 -0.090213515 -0.15259759 0.4599938 0.92349607 1.1784362 0.057736944 -4.793649
0.3976858 -0.11767786 -0.034904495 -0.43795404 1.0280914 -7.9458055 -6.249385 -3.2300615
11.149619 12.667641 10.731948 -0.061611988 -0.7548154 -1.8026431 1.1537331 0.66051596
0.4528944 -2.4564524 -3.131042 -4.112517 1.1613032 -0.30992985 -1.6425133 5.596926
4.9626527 1.284993 3.1227279 4.052118 4.035268 -9.025624 -15.649485 -8.304667
-4.582896 -4.705277 -3.7714977 9.142117 14.385987 11.101807 -0.27422798 -2.0357988
-0.018002922 0.1613621 -0.011302615 0.2085201 0.9266384 2.063651 1.885828 1.0446291
0.30313423 -1.0117215 -0.8770237 -0.24302617 0.3292886 -0.48537725 -0.7033523 -0.08807619
0.1310129 -0.25991473 0.29673082 -1.3835945 -2.2790334 -1.1397744 -1.68506 -2.277568
-0.84890354 -0.5936214 -1.4411285 -0.65275836 0.19427535 1.3296416 1.4177393 0.67890126
00000000: 9547 50bf dd49 713f b8e6 8abf 21f5 07bf
00000010: aad6 503f 23ba bbbd 9881 c83f 7e56 a0be
00000020: 47d7 bbbf e280 fd3f 45f1 58c0 d5de d4c0
00000030: ec72 25c0 da03 84c0 3246 60c0 0402 8a41
00000040: b058 3541 4bcf 1540 65d6 7d40 974f 9040
00000050: fc0c b540 93b6 0ec0 1859 863f 0f1f 8141
00000060: 6054 f4bf 5065 7440 ed32 bf40 832e 34bf
00000070: 1eb0 433f 35b7 8a3e 5a5f 3d3f 3ee5 ae3f
00000080: 1c1d 9e3e fafa 883e da07 30c0 5340 dbc0
00000090: 2b0b f03f f9f2 9840 cddf a540 44a4 d7c0
000000a0: c3b4 0ec1 e1a7 cac0 fc65 8340 6266 493f
000000b0: 92d8 3bc0 73a1 88c0 0b13 7bc0 1242 54c0
000000c0: 8b26 9bc0 4db8 a2c0 22c6 d8bf 4bb1 88bf
000000d0: 9f1e 3240 752a ae40 2cc6 9d3e cb38 5340
000000e0: c911 a5bf a639 88bf d8a9 ac3f a41a bb3e
000000f0: eaf0 86bf cff4 2540 f725 6ebd cac8 9a40
00000100: 00c9 d340 2469 f240 22e1 6e40 aa05 9a40
00000110: b2cf c240 b1e0 18c1 77f7 58c1 99d0 b8c0
00000120: 6c57 da3e 7f74 f2be 12cd d1be 5738 4c3f
00000130: 6c08 603f d82a fbbe deee 35be 7cb6 39bf
00000140: 5f4f 1bbf 9187 bcc0 4a69 8ac0 1cbc 48c0
00000150: 16bc 3a3f 28f6 a23e 92c5 d2bc b195 7a40
00000160: d2b6 8e41 26a7 7c41 7f8c c7bf 3105 36c0
00000170: fdd0 d93f 554d 1c40 7132 4440 8212 f340
00000180: 7479 ebbf 3fbf e33f c798 ba3f 6b85 d23f
00000190: ff87 2940 58d4 5640 3a04 8040 d800 b73f
000001a0: fb74 133f ba57 9ac0 3b67 4cc1 3198 53c1
000001b0: 1af8 f43f d08c fc3f 008a 1b40 30e5 acc1
000001c0: 9275 5740 aee0 193f 5abb 1140 6aa3 6d3f
000001d0: 1d3e 923f fced a3bf e1af 48bf 9fd7 a7be
000001e0: 0a70 6840 9289 5d40 2b61 2d40 94d6 0cc0
000001f0: 985a 17c0 8d5e 8ac0 fafd 18bf 4cee 37bf
00000200: 28b7 513f ddcd 1440 4b6f e63f 4b75 09bf
00000210: 2427 99be 7a1e 3b3f ffd8 5b3f 1311 bbbf
00000220: bbf4 e3bf be6d 1ec0 11ef 2741 b4d6 1441
00000230: b3e2 d840 3f72 f0c0 18a4 0bc1 0c9d e0c0
00000240: f0a6 97c0 542f 1ac0 ba50 e1bf c503 77bf
00000250: 8d8a a3c1 a87b 75c0 fb1d 113e 72f1 5940
00000260: fdff 8e3f a690 d040 7b31 1540 9f1c 2b40
00000270: 5dfe 26c0 6118 96c0 98c4 6ec0 fabf 6f40
00000280: a04f 5140 d825 8a40 dbf4 75c0 e03c 0a3f
00000290: a896 77bf a3ae 4f41 d5c5 e540 337a 8141
000002a0: c42b ae3e cf43 ae3f 2eb3 1140 c4e6 f13f
000002b0: e5e8 4ebf fd07 983f af08 ff3f 0515 713d
000002c0: a8a9 0a3f ddc1 b8bd 8b42 1cbe 4f84 eb3e
000002d0: 3d6a 6c3f ffd6 963f 937d 6c3d 9365 99c0
000002e0: 799d cb3e 1701 f1bd 04f8 0ebd 833b e0be
000002f0: 8098 833f 0a44 fec0 f6fa c7c0 54b9 4ec0
00000300: d764 3241 a8ae 4a41 0fb6 2b41 da5c 7cbd
00000310: 953b 41bf 02bd e6bf 87ad 933f 9317 293f
00000320: c6e1 e73e 8436 1dc0 fe62 48c0 bd99 83c0
00000330: 95a5 943f 20af 9ebe e03d d2bf 051a b340
00000340: 0dce 9e40 a77a a43f c6da 4740 f3aa 8140
00000350: ea20 8140 f568 10c1 4a64 7ac1 ebdf 04c1
00000360: 16a7 92c0 a191 96c0 3860 71c0 1c46 1241
00000370: 012d 6641 00a1 3141 9c67 8cbe 874a 02c0
00000380: dd7a 93bc 1b3c 253e 9a2e 39bc 4b86 553e
00000390: 2d38 6d3f dc12 0440 d062 f13f 68b6 853f
000003a0: 6934 9b3e 1780 81bf a084 60bf dadb 78be
000003b0: 8498 a83e 5e83 f8be e50e 34bf 4a61 b4bd
000003c0: 3f28 063e 8b13 85be 1aed 973e a019 b1bf
000003d0: afdb 11c0 21e4 91bf 0cb0 d7bf adc3 11c0
000003e0: be51 59bf 92f7 17bf e676 b8bf 2c1b 27bf
000003f0: 1ef0 463e b231 aa3f 7b78 b53f 79cc 2d3f

layer1.0.bias f4 [16]
-10.146522 -1.4764028 0.40445018 -10.575461 6.1875834 5.6492634 10.896828 -7.437901
3.1637516 -4.4504285 -7.0372753 -9.385256 -12.43714 -0.049361993 -1.5099645 10.532499
00000000: 2758 22c1 c4fa bcbf 1814 cf3e 1735 29c1
00000010: af00 c640 c4c6 b440 6859 2e41 4903 eec0
00000020: e87a 4a40 e969 8ec0 5c31 e1c0 022a 16c1
00000030: 87fe 46c1 cd2f 4abd 8446 c1bf 1e85 2841

layer1.1.weight f4 [16]
-4.613221 3.6888325 4.7391577 6.1105056 3.8435376 5.1541605 6.757087 4.07497
2.374071 3.420051 4.6024003 3.8981087 4.769577 -0.14719838 8.485516 4.8117247
00000000: 829f 93c0 d515 6c40 2ea7 9740 4389 c340
00000010: 85fc 7540 e2ee a440 0f3a d840 2766 8240
00000020: c7f0 1740 1ee2 5a40 dd46 9340 9d7a 7940
00000030: 60a0 9840 2cbb 16be acc4 0741 a6f9 9940

layer1.1.bias f4 [16]
5.3583355 -5.3187895 3.2410626 3.5021276 6.478654 -1.5647576 4.817115 4.4099483
-0.22817758 -6.906222 -6.305884 2.651744 5.6620946 -8.871366 1.2938484 3.3878353
00000000: 7c77 ab40 8633 aac0 926d 4f40 dc22 6040
00000010: 2251 cf40 fa49 c8bf ce25 9a40 4c1e 8d40
00000020: 62a7 69be c5ff dcc0 cdc9 c9c0 2cb6 2940
00000030: e12f b540 1df1 0dc1 d39c a53f 4bd2 5840

layer1.1.running_mean f4 [16]
-9.947667 -1.9320023 0.7765597 -11.60413 6.2429204 5.7216935 10.612098 -7.4376354
2.8044143 -4.4921637 -7.0895367 -9.832676 -12.068182 0.42296094 -1.4526958 9.900724
00000000: a529 1fc1 da4b f7bf 9ecc 463f 84aa 39c1
00000010: 01c6 c740 1d18 b740 27cb 2941 1c01 eec0
00000020: 867b 3340 cebf 8fc0 7cdd e2c0 a452 1dc1
00000030: 4617 41c1 568e d83e f0f1 b9bf 5e69 1e41

layer1.1.running_var f4 [16]
0.15655626 0.74669427 0.40082008 0.23535809 0.12530951 0.15339501 0.25241587 0.036499683
0.7134331 0.32491568 0.044483025 0.06505067 0.24136743 0.078720406 1.6837626 0.09135977
00000000: 4950 203e 5b27 3f3f 4a38 cd3e b601 713e
00000010: 2351 003e 9513 1d3e a73c 813e b180 153d
00000020: 8da3 363f 595b a63e d533 363d 4939 853d
00000030: 0629 773e 2a38 a13d 8885 d73f d51a bb3d

layer2.0.weight f4 [32, 16, 3]
-4.8648443 -1.6029814 -7.1167364 -1.0116675 -6.502577 -8.514424 3.240232 2.2553854
5.115472 -9.036738 -8.340053 -2.6245584 -8.287822 -5.8665357 -4.8065796 -6.4595423
-4.4786353 1.1560029 0.24048884 -0.7774209 2.3880138 -4.2574434 -2.0591223 -4.4685984
0.07557191 -2.1905372 -2.8647861 4.955944 -0.5157605 -9.186173 7.148101 1.5810089
1.3008251 -9.428845 -2.213936 3.015837 1.3437494 0.39900354 -1.0167011 -0.83878535
-0.42494017 0.45890582 -0.5971571 0.5659574 -2.4510474 -0.0897022 0.39541435 -0.35213074
11.601271 5.6516075 4.952116 -4.3047485 -1.2864102 -1.7328932 11.495995 6.6746755
2.8804812 7.4474497 5.9059944 4.8088183 -0.42907727 -4.5899277 -7.9575696 -1.031335
0.032272417 -2.8796568 0.6049984 -2.8608637 -2.5242498 -0.45121184 -2.9605677 -0.5686107
0.5896508 0.06079974 2.7179253 8.303123 6.0803003 13.030306 -9.880441 -13.330541
-11.43142 4.1574283 -1.4301286 -3.9999788 0.10001943 5.549831 8.508603 0.060001627
0.29760057 0.56836605 -1.3059984 -2.6309602 0.07072518 -6.997291 -4.8393416 -3.028347
-4.8592505 -2.1548398 -4.723295 0.34202576 -0.64430517 2.6598287 2.0210989 1.187399
0.43243596 3.6101537 1.1731145 -0.4166277 7.8878956 2.577803 8.678152 5.0131645
-2.063665 -3.1491246 1.2060014 0.20245907 -18.051405 -9.748093 -4.597548 -4.805983
1.6029611 0.43322283 4.824322 5.338656 4.958778 9.097033 2.1376595 3.9696128
8.811627 -6.218862 -6.38054 -3.780625 7.4047146 5.101076 2.9909697 0.3328562
0.4245671 0.12017153 0.74258363 -2.535243 -4.6119924 3.4582515 4.6604686 3.4737046
2.7731562 -5.8589115 -9.087542 0.23781212 -1.7888774 -2.0566087 -2.068046 -6.0676513
-0.1829449 -6.787625 -6.29838 -3.6333728 8.337827 0.40874544 2.0417297 -2.9011204
-4.0256696 -2.2468507 10.072195 4.2432914 4.28684 -4.9634056 3.1214182 -3.7889416
-4.6909432 -7.258745 -3.1428268 -12.78432 -16.641466 -16.3873 3.880132 3.1764355
0.8992528 -18.043678 -5.511049 -1.786095 3.4061263 1.6912364 -1.8560734 0.83348393
0.98753864 1.1801615 6.443407 3.1380615 0.35370964 0.88363874 6.175673 3.9311137
2.4706304 0.53796285 -6.556943 -8.729857 -1.1162934 -2.7685137 1.5901686 -6.006511
-11.98394 -3.2900918 -1.6528262 -1.3147739 3.0353656 3.0268734 0.72065735 -2.0868058
-3.7872756 0.004991097 -8.182688 -2.0440564 -10.051254 -5.174741 -4.3110323 -6.959203
1.3884535 -2.115269 0.6734131 -16.38246 -10.849314 -5.954551 -6.6867585 7.870025
2.411652 -11.956227 -6.0652356 -1.3132118 3.4927876 -0.22784616 5.327897 1.5562314
2.011461 0.9161622 1.9251679 5.8518376 0.880116 6.983085 4.3189225 6.333642
-0.74763787 -2.9690368 -1.9843314 -3.692877 1.0951273 0.43297067 -5.991902 -2.3263762
-3.303851 -3.2049592 -0.72423834 -3.1792772 -1.1089075 -12.540352 -19.795155 4.850559
00000000: ceac 9bc0 7f2e cdbf 4ebc e3c0 527e 81bf
00000010: 1c15 d0c0 153b 08c1 f65f 4f40 3c58 1040
00000020: f2b1 a340 7b96 10c1 db70 05c1 c4f8 27c0
00000030: eb9a 04c1 a9ba bbc0 80cf 99c0 92b4 cec0
00000040: fb50 8fc0 e7f7 933f b542 763e 0e05 47bf
00000050: 38d5 1840 fa3c 88c0 a9c8 03c0 c2fe 8ec0
00000060: 72c5 9a3d c331 0cc0 a858 37c0 1897 9e40
00000070: e108 04bf 91fa 12c1 3ebd e440 805e ca3f
00000080: 7081 a63f 8ddc 16c1 21b1 0dc0 7903 4140
00000090: fbff ab3f 314a cc3e 4323 82bf a3ba 56bf
000000a0: c291 d9be b4f5 ea3e 4adf 18bf 96e2 103f
000000b0: f6dd 1cc0 c9b5 b7bd c073 ca3e 7b4a b4be
000000c0: ce9e 3941 f8d9 b440 bc77 9e40 80c0 89c0
000000d0: 17a9 a4bf 72cf ddbf 98ef 3741 f196 d540
000000e0: ce59 3840 8251 ee40 e8fd bc40 d7e1 9940
000000f0: 04b0 dbbe b0e0 92c0 69a4 fec0 c902 84bf
00000100: 1530 043d 4c4c 38c0 2de1 1a3f 6418 37c0
00000110: 4f8d 21c0 3d05 e7be f179 3dc0 7990 11bf
00000120: 5bf3 163f 2609 793d 7df2 2d40 98d9 0441
00000130: d291 c240 227c 5041 4916 1ec1 e549 55c1
00000140: 19e7 36c1 a709 8540 740e b7bf a7ff 7fc0
00000150: fdd6 cc3d 3798 b140 3d23 0841 44c4 753d
00000160: 1a5f 983e 7080 113f f52a a7bf a761 28c0
00000170: 5dd8 903d cfe9 dfc0 e3db 9ac0 70d0 41c0
00000180: fb7e 9bc0 e5e8 09c0 3c25 97c0 001e af3e
00000190: 2ff1 24bf a23a 2a40 af59 0140 b1fc 973f
000001a0: 3f68 dd3e c20c 6740 9e28 963f 3a50 d5be
000001b0: a469 fc40 b9fa 2440 b6d9 0a41 d86b a040
000001c0: 1613 04c0 428b 49c0 415e 9a3f 6e51 4f3e
000001d0: 4769 90c1 30f8 1bc1 1d1f 93c0 9dca 99c0
000001e0: d42d cd3f 62cf dd3e d960 9a40 45d6 aa40
000001f0: 4fae 9e40 728d 1141 6acf 0840 230e 7e40
00000200: 6dfc 0c41 eb00 c7c0 622d ccc0 c3f5 71c0
00000210: 6cf3 ec40 043c a340 0c6c 3f40 216c aa3e
00000220: dc60 d93e 7e1c f63d f619 3e3f 6c41 22c0
00000230: 7195 93c0 fe53 5d40 8f22 9540 2d51 5e40
00000240: 647b 3140 347c bbc0 9266 11c1 0585 733e
00000250: eff9 e4bf 7a9f 03c0 de5a 04c0 332a c2c0
00000260: e855 3bbe 3934 d9c0 548c c9c0 2e89 68c0
00000270: bd67 0541 1547 d13e b3ab 0240 f5ab 39c0
00000280: 49d2 80c0 67cc 0fc0 b627 2141 0bc9 8740
00000290: cb2d 8940 38d4 9ec0 51c5 4740 057e 72c0
000002a0: 351c 96c0 a447 e8c0 1324 49c0 938c 4cc1
000002b0: b921 85c1 3119 83c1 1554 7840 b84a 4b40
000002c0: 6e35 663f 7459 90c1 835a b0c0 c39e e4bf
000002d0: f9fd 5940 6f7a d83f d093 edbf 345f 553f
000002e0: 55cf 7c3f 880f 973f 6430 ce40 00d6 4840
000002f0: 6e19 b53e 2636 623f 1d9f c540 5e97 7b40
00000300: cf1e 1e40 efb7 093f 7ad2 d1c0 7fad 0bc1
00000310: b4e2 8ebf 542f 31c0 a58a cb3f 5735 c0c0
00000320: 38be 3fc1 dd90 52c0 cf8f d3bf 834a a8bf
00000330: 6e43 4240 4bb8 4140 007d 383f 3a8e 05c0
00000340: b962 72c0 5b8c a33b 4aec 02c1 d2d1 02c0
00000350: f0d1 20c1 7a97 a5c0 faf3 89c0 cab1 dec0
00000360: d8b8 b13f 9160 07c0 cd64 2c3f 470f 83c1
00000370: ca96 2dc1 af8b bec0 edf9 d5c0 3fd7 fb40
00000380: 8258 1a40 b54c 3fc1 6916 c2c0 5317 a8bf
00000390: d589 5f40 8150 69be 227e aa40 9732 c73f
000003a0: c7bb 0040 9b89 6a3f e76b f63f 4142 bb40
000003b0: 484f 613f 6f75 df40 9d34 8a40 32ad ca40
000003c0: 3265 3fbf b304 3ec0 92fe fdbf 1958 6cc0
000003d0: 222d 8c3f 55ae dd3e a9bd bfc0 59e3 14c0
000003e0: 4b72 53c0 0d1e 4dc0 af67 39bf 4779 4bc0
000003f0: aef0 8dbf 48a5 48c1 7a5c 9ec1 c837 9b40

layer2.0.bias f4 [32]
0.33265582 -0.2129318 -0.12655133 -0.19798225 -0.37498 -0.062484805 0.240655 0.060340557
0.2731323 -0.013361738 -0.05968966 -0.25045484 0.09206048 -0.104443505 0.30264443 -0.0530274
-0.1757081 -0.03631466 0.13879049 -0.20893338 -0.10106964 0.29984477 0.5605327 -0.07153989
-0.14389765 -0.10533565 0.0653788 0.038905684 0.08580628 -0.0028093979 0.26196498 0.051414717
00000000: dd51 aa3e cb0a 5abe ac96 01be dcbb 4abe
00000010: 61fd bfbe 11f0 7fbd 446e 763e a927 773d
00000020: ffd7 8b3e 31eb 5abc 257d 74bd 9e3b 80be
00000030: 348a bc3d 7ae6 d5bd 36f4 9a3e 4233 59bd
00000040: d3ec 33be aebe 14bd 181f 0e3e a2f2 55be
00000050: 99fd cebd 4185 993e 127f 0f3f 8183 92bd
00000060: e859 13be 38ba d7bd 52e5 853d 915b 1f3d
00000070: 34bb af3d e01d 38bb 4620 863e 3d98 523d

layer2.1.weight f4 [32]
3.099713 5.885216 7.84704 3.257027 13.374281 1.9263798 16.915422 2.1198716
6.7907557 0.3576283 11.611729 4.520035 10.008586 -0.21204847 3.3176587 5.283572
7.2648973 13.606317 5.1726637 11.401766 5.272479 3.7104769 11.36765 0.1992576
5.6127396 0.23508595 2.5701592 9.493701 7.156719 6.067771 10.493816 2.4436429
00000000: b361 4640 b153 bc40 f41a fb40 2173 5040
00000010: 0efd 5541 9d93 f63f c952 8741 faab 0740
00000020: df4d d940 0e1b b73e a4c9 3941 20a4 9040
00000030: 2b23 2041 3c23 59be 8554 5440 0613 a940
00000040: 0a7a e840 79b3 5941 7686 a540 a26d 3641
00000050: 26b8 a840 7478 6d40 e5e1 3541 2f0a 4c3e
00000060: 909b b340 5fba 703e 7d7d 2440 33e6 1741
00000070: d803 e540 2e2b c240 ace6 2741 a564 1c40

layer2.1.bias f4 [32]
-7.7913165 -3.4270697 -3.8708522 1.4964027 -1.8402319 -4.618086 -1.6523398 -0.84228396
2.5175295 8.419073 1.3132372 -2.4479828 -1.482597 8.52426 2.2638702 2.2943718
2.1789021 -1.2106321 3.509943 0.1829912 -2.3813136 -4.415188 1.1443689 -8.486835
2.7840288 8.230784 -7.659801 0.8262818 -2.94077 2.19455 0.92569906 6.786488
00000000: 7752 f9c0 1c55 5bc0 0bbc 77c0 208a bf3f
00000010: b88c ebbf 5cc7 93c0 df7f d3bf ec9f 57bf
00000020: 341f 2140 86b4 0641 2818 a83f c0ab 1cc0
00000030: bdc5 bdbf 5e63 0841 40e3 1040 fdd6 1240
00000040: 2273 0b40 fef5 9abf e8a2 6040 0c62 3b3e
00000050: 7167 18c0 3849 8dc0 ae7a 923f 13ca 07c1
00000060: 872d 3240 4bb1 0341 171d f5c0 3487 533f
00000070: 9335 3cc0 8273 0c40 9dfa 6c3f e92a d940

layer2.1.running_mean f4 [32]
-30.318058 29.11655 -40.867832 29.823767 10.627986 -52.531364 57.96003 19.291737
-132.69135 0.97523 -32.929043 -67.662384 -4.094959 4.3002057 55.702435 32.63493
30.778938 14.150548 -51.29427 20.302647 30.09805 11.820358 -6.3042746 -9.366996
25.879135 -5.1836414 -45.243607 -83.27896 -13.056881 -19.503248 47.347103 -28.242233
00000000: 628b f2c1 b2ee e841 a978 23c2 1397 ee41
00000010: 3b0c 2a41 1e20 52c2 12d7 6742 7a55 9a41
00000020: fcb0 04c3 aca8 793f 57b7 03c2 2453 87c2
00000030: e709 83c0 499b 8940 4bcf 5e42 2b8a 0242
00000040: 443b f641 a568 6241 552d 4dc2 d26b a241
00000050: cec8 f041 3020 3d41 9ebc c9c0 37df 15c1
00000060: 7808 cf41 64e0 a5c0 74f9 34c2 d48e a6c2
00000070: fce8 50c1 a706 9cc1 6f63 3d42 18f0 e1c1

layer2.1.running_var f4 [32]
592.598 679.8467 1019.4916 771.4447 843.73114 330.81006 609.9545 649.0879
1036.5815 170.84949 1085.2048 754.29486 644.87256 39.708965 810.93555 1649.7892
1091.3049 950.47943 1725.9806 629.69635 828.4641 834.86194 826.8818 38.847134
1521.367 106.10554 689.661 633.3609 1192.9836 452.06378 1475.6788 371.3726
00000000: 4626 1444 30f6 2944 76df 7e44 76dc 4044
00000010: cbee 5244 b067 a543 177d 1844 a045 2244
00000020: 9c92 8144 78d9 2a43 8ea6 8744 df92 3c44
00000030: d837 2144 fbd5 1e42 e0bb 4a44 4139 ce44
00000040: c269 8844 af9e 6d44 61bf d744 916c 1d44
00000050: b41d 4f44 2ab7 5044 6fb8 4e44 7763 1b42
00000060: be2b be44 0936 d442 4e6a 2c44 1957 1e44
00000070: 7a1f 9544 2a08 e243 b975 b844 b1af b943

layer3.0.weight f4 [64, 32, 3]
-3.3756735 -2.8071306 0.15934557 -6.227442 -0.8542251 3.28485 -4.261601 -4.943617
1.7867476 2.622651 4.730958 5.806831 -2.2322764 -6.923517 -10.477117 0.4746359
-1.2316972 -4.0448074 1.0641681 -1.7455544 3.2721117 -0.26225364 -4.5149517 -7.4937243
5.950887 1.7003237 2.107959 -1.9494162 -0.8262324 1.8465444 -1.3046585 4.01776
7.588261 8.814255 6.0270696 1.276492 -3.2812984 -4.185103 -0.9528713 1.3851309
0.40039822 0.2824569 -6.112816 -6.0311804 5.450626 -2.5395627 0.7554171 0.74072814
2.1941004 3.3426843 -0.031126963 -4.286116 -7.463403 -0.62084717 7.545558 7.8756967
14.943797 4.154267 6.759847 3.4294565 -1.9010487 0.7999795 2.3683136 -5.3162975
0.43581536 2.8462298 -1.8225089 -1.1044167 2.5826523 2.0534017 1.4136026 -0.14909843
-6.0549436 -5.2910748 -2.6059973 0.39912638 0.20739421 -0.7948623 6.0268235 5.0363765
-1.8828017 1.760041 0.46001825 1.7562244 5.7017198 0.36650676 -1.2749486 -0.31611425
3.5694313 5.8368187 -3.349043 -5.3512564 -9.983189 3.1359289 3.9392152 1.5524514
-7.460305 -13.13875 -15.670712 -1.7770967 -5.029213 -4.1093597 -3.1959698 3.8706315
-2.25876 9.784382 6.5493665 3.4528427 5.2045445 2.9672089 -0.34907156 -11.74863
-9.506211 -2.1504016 1.8052262 1.2590804 1.9556211 1.8773305 -2.3730056 1.6855266
-4.805677 -2.0584185 0.28969222 -1.8746448 -0.06664275 0.8718298 1.1734538 2.1030414
1.5409636 3.8879912 1.0738679 -0.40646553 0.6505449 1.4681177 4.4184566 0.63143975
-0.0005344303 0.16056623 -6.9838433 -4.4184575 -1.8628076 9.536556 2.03323 -6.3792386
-2.4878693 -3.0649433 1.0050611 5.647 1.6159778 5.250824 -9.310751 -6.8072457
0.52906287 3.2706745 4.3848333 4.4971557 2.0632012 -3.3918004 -9.345795 2.9832947
-3.534388 -8.843976 16.5282 6.1503906 0.57889867 -0.3115201 0.039640773 0.3416464
-14.031843 -5.27192 1.2811321 -0.10594521 -0.29150012 -0.028428005 0.35450125 1.2832199
-2.5012372 -7.4334626 -5.8269396 -1.390731 4.3129077 5.682346 2.231338 3.3005736
1.3735074 2.4930665 2.7491665 1.5674273 1.4677612 -4.6996765 -8.091741 -5.451711
-10.374413 -11.334214 -5.5602913 2.9524841 2.2018442 -3.8913217 10.834814 14.488841
11.964436 -5.2095942 0.9181116 5.9331646 -6.031459 -0.7351994 6.825474 -0.7250915
-0.9440166 4.260779 4.5009203 2.8800178 1.5464864 -0.77979517 -2.3308387 -2.149859
4.3829865 4.168274 3.1278899 -1.5235231 -1.1689107 -0.41312724 3.066064 -3.609227
0.9016739 -0.49316075 -4.7681975 -0.2019134 8.088464 -1.1978873 -3.1482296 -0.13724308
0.314482 0.59327835 -2.4994586 -5.526734 -5.1649127 -6.426145 -5.868181 -3.7008922
5.1853085 -6.5853453 -3.8877754 -1.881738 -0.9423995 -2.2969153 1.918067 4.3236537
4.9038286 -6.016257 0.51590586 2.0274544 -6.202923 -5.918498 -5.6424527 -3.6704254
00000000: 090b 58c0 07a8 33c0 7c2b 233e 3447 c7c0
00000010: 7fae 5abf fb3a 5240 095f 88c0 1c32 9ec0
00000020: 25b4 e43f 84d9 2740 0264 9740 8fd1 b940
00000030: 9edd 0ec0 748d ddc0 45a2 27c1 7a03 f33e
00000040: 41a8 9dbf 106f 81c0 a936 883f 546e dfbf
00000050: 476a 5140 1c46 86be 7c7a 90c0 97cc efc0
00000060: ab6d be40 35a4 d93f cde8 0640 7886 f9bf
00000070: f783 53bf 915b ec3f 0dff a6bf 7d91 8040
00000080: 09d3 f240 3007 0d41 c1dd c040 1764 a33f
00000090: cb00 52c0 5dec 85c0 60ef 73bf f84b b13f
000000a0: ff00 cd3e 319e 903e 309c c3c0 6eff c0c0
000000b0: 876b ae40 3288 22c0 0463 413f 5ca0 3d3f
000000c0: 246c 0c40 8aee 5540 f9fd febc dd27 89c0
000000d0: 33d4 eec0 d7ef 1ebf 3675 f140 b505 fc40
000000e0: cb19 6f41 c1ef 8440 ab50 d840 377c 5b40
000000f0: 9055 f3bf 75cb 4c3f 7392 1740 1c1f aac0
00000100: 3123 df3e a128 3640 f947 e9bf 875d 8dbf
00000110: 2d4a 2540 ef6a 0340 eef0 b43f 42ad 18be
00000120: 19c2 c1c0 7c50 a9c0 a9c8 26c0 4b5a cc3e
00000130: 265f 543e 187c 4bbf bddb c040 ff29 a140
00000140: a5ff f0bf 0649 e13f 8387 eb3e f6cb e03f
00000150: 7d74 b640 c6a6 bb3e 8431 a3bf bad9 a1be
00000160: 9071 6440 38c7 ba40 b856 56c0 7e3d abc0
00000170: 24bb 1fc1 0fb3 4840 1a1c 7c40 bab6 c63f
00000180: d2ba eec0 5238 52c1 3dbb 7ac1 e877 e3bf
00000190: 50ef a0c0 e07f 83c0 c58a 4cc0 6db8 7740
000001a0: 868f 10c0 d48c 1c41 6994 d140 60fb 5c40
000001b0: a18b a640 c0e6 3d40 82b9 b2be 63fa 3bc1
000001c0: 7119 18c1 2ea0 09c0 a711 e73f 8c29 a13f
000001d0: cb51 fa3f 5e4c f03f 53df 17c0 56bf d73f
000001e0: 1bc8 99c0 21bd 03c0 8a52 943e 5cf4 efbf
000001f0: fe7b 88bd 3d30 5f3f bc33 963f 3b98 0640
00000200: 4c3e c53f d9d4 7840 8174 893f 401c d0be
00000210: 1c8a 263f 48eb bb3f ff63 8d40 09a6 213f
00000220: 0319 0cba 796b 243e a57b dfc0 0164 8dc0
00000230: 7b70 eebf bc95 1841 7120 0240 b922 ccc0
00000240: 4039 1fc0 0828 44c0 d8a5 803f 39b4 b440
00000250: 5cd8 ce3f c006 a840 d6f8 14c1 f5d4 d9c0
00000260: aa70 073f bb52 5140 8e50 8c40 b3e8 8f40
00000270: 7d0b 0440 4213 59c0 6088 15c1 4dee 3e40
00000280: 6a33 62c0 ed80 0dc1 c139 8441 00d0 c440
00000290: b432 143f 907f 9fbe 5d5e 223d 47ec ae3e
000002a0: 6e82 60c1 92b3 a8c0 23fc a33f cdf9 d8bd
000002b0: 813f 95be d9e1 e8bc 3081 b53e 8d40 a43f
000002c0: 4514 20c0 edde edc0 4a76 bac0 7903 b2bf
000002d0: 5703 8a40 c7d5 b540 3ece 0e40 993c 5340
000002e0: 17cf af3f 678e 1f40 58f2 2f40 75a1 c83f
000002f0: 99df bb3f c063 96c0 c577 01c1 6b74 aec0
00000300: 98fd 25c1 f158 35c1 e8ed b1c0 80f5 3c40
00000310: 04eb 0c40 6a0b 79c0 665b 2d41 4bd2 6741
00000320: 546e 3f41 ffb4 a6c0 5d09 6b3f 7cdc bd40
00000330: b601 c1c0 0736 3cbf 486a da40 999f 39bf
00000340: 12ab 71bf 4d58 8840 8a07 9040 3652 3840
00000350: 44f3 c53f a8a0 47bf 762c 15c0 4a97 09c0
00000360: 6d41 8c40 8062 8540 592f 4840 ce02 c3bf
00000370: de9e 95bf 6a85 d3be 643a 4440 93fd 66c0
00000380: 1ad4 663f 917f fcbe 1395 98c0 63c2 4ebe
00000390: 596a 0141 5f54 99bf 987c 49c0 7389 0cbe
000003a0: c903 a13e 17e1 173f 21f7 1fc0 01db b0c0
000003b0: f746 a5c0 fba2 cdc0 24c8 bbc0 6bdb 6cc0
000003c0: 0cee a540 26bb d2c0 50d1 78c0 cadc f0bf
000003d0: 1841 71bf a900 13c0 3883 f53f 5f5b 8a40
000003e0: 2aec 9c40 2d85 c0c0 6812 043f d0c1 0140
000003f0: 587e c6c0 5664 bdc0 f98e b4c0 40e8 6ac0

layer3.0.bias f4 [64]
0.006780775 0.040956404 -0.118899114 -0.23479313 0.02203972 -0.32914874 0.1470775 -0.13886347
0.19642957 -0.0071482905 -0.028258322 0.14075631 -0.16643073 -0.056107756 0.07365464 -0.2515396
-0.3735338 0.20656723 -0.03778165 -0.027263777 0.16685715 -0.07340882 0.010803073 0.09175157
-0.15283632 -0.15451656 0.04191764 -0.055080064 0.12123901 0.20059751 -0.06931336 0.23697755
-0.09969444 0.08933063 0.112298004 0.09613092 0.08447146 0.10396489 0.077323675 -0.13178131
0.24002911 0.032865297 0.152166 0.044029694 -0.016446127 0.106192894 -0.03709403 0.26430228
-0.07381463 -0.12719291 0.027990142 -0.25683984 -0.08709918 -0.041169494 0.15938863 -0.061836507
0.06493545 0.07541522 0.06356246 0.0028960865 0.11745841 -0.08736214 0.17856573 0.16276063
00000000: 4331 de3b e7c1 273d 6181 f3bd 9c6d 70be
00000010: a58c b43c 2f86 a8be 7c9b 163e 3a32 0ebe
00000020: d524 493e 353c eabb ff7d e7bc 6c22 103e
00000030: d16c 2abe 3fd1 65bd 3ed8 963d ccc9 80be
00000040: d23f bfbe 5c86 533e eec0 1abd 4958 dfbc
00000050: 9adc 2a3e 5d57 96bd 5fff 303c 3fe8 bb3d
00000060: 2081 1cbe 9739 1ebe d5b1 2b3d a29b 61bd
00000070: 284c f83d 6f69 4d3e 2af4 8dbd 3eaa 723e
00000080: 992c ccbd faf2 b63d 7ffc e53d 4ae0 c43d
00000090: 5fff ac3d 8beb d43d e05b 9e3d aef1 06be
000000a0: 31ca 753e c39d 063d 67d1 1b3e 7b58 343d
000000b0: 07ba 86bc a97b d93d e9ef 17bd a152 873e
000000c0: 202c 97bd dc3e 02be 954b e53c 8380 83be
000000d0: 0e61 b2bd 58a1 28bd c636 233e 4748 7dbd
000000e0: e1fc 843d 4b73 9a3d 092d 823d 45cc 3d3b
000000f0: 098e f03d ecea b2bd efd9 363e b9aa 263e

layer3.1.weight f4 [64]
31.51893 26.078968 37.632072 35.253017 61.889835 52.11778 38.378536 32.29746
41.61139 48.667492 27.082947 45.266 43.543888 59.080948 57.780334 88.01801
32.601078 72.102585 57.57769 17.259956 19.488228 50.365177 63.813313 24.824564
58.25773 41.824474 29.943699 54.04774 40.499302 39.921585 62.06336 44.53785
48.699207 38.51584 39.837086 70.38831 44.13074 46.654255 14.511901 51.5803
63.882473 46.74935 45.95193 47.654053 40.317036 85.91651 85.546234 27.800972
44.63008 49.372078 47.993534 62.670532 45.122936 46.55802 51.024784 55.9179
17.984364 34.405487 29.24121 22.77636 60.920895 44.354717 75.49087 44.680992
00000000: c526 fc41 baa1 d041 3e87 1642 1703 0d42
00000010: 318f 7742 9b78 5042 9f83 1942 9930 0142
00000020: 1072 2642 83ab 4242 e0a9 d841 6210 3542
00000030: f12c 2e42 e452 6c42 101f 6742 3909 b042
00000040: 8167 0242 8634 9042 8e4f 6642 6414 8a41
00000050: e4e7 9b41 f175 4942 d540 7f42 b598 c641
00000060: ea07 6942 434c 2742 b28c ef41 e330 5842
00000070: 49ff 2142 b4af 1f42 e140 7842 c226 3242
00000080: fdcb 4242 3810 1a42 2d59 1f42 d1c6 8c42
00000090: e185 3042 f59d 3a42 bf30 6841 3a52 4e42
000000a0: a787 7f42 56ff 3a42 c7ce 3742 c09d 3e42
000000b0: a544 2142 41d5 ab42 ac17 ab42 6468 de41
000000c0: 3485 3242 027d 4542 61f9 3f42 a0ae 7a42
000000d0: e37d 3442 6a3b 3a42 6119 4c42 eeab 5f42
000000e0: fadf 8f41 389f 0942 00ee e941 fc35 b641
000000f0: ffae 7342 3b6b 3142 53fb 9642 56b9 3242

layer3.1.bias f4 [64]
2.0155368 -0.60127175 -0.52299535 -0.08887347 -0.30550757 -1.033724 1.8543602 -2.0079064
-1.0606452 -0.8307137 -1.4883237 -0.3990417 -0.5731412 0.7116558 1.9656042 -0.067881726
-0.83536464 -0.29761538 -0.13277648 1.1310045 1.4837333 1.6917738 0.6468544 1.052336
-0.15224835 0.41480616 -0.2991769 -0.15754373 0.24161649 -0.7199755 0.12230056 -0.67456543
-0.9800157 1.5632588 -0.9099334 0.6761856 -0.042136285 1.4247786 -0.77278763 0.6529325
0.8863426 -0.43413523 1.5886109 0.7294225 -0.13918763 -0.1920165 -0.39810756 1.6612129
0.11479204 -0.19275025 -1.1752877 0.4156216 0.15316626 1.0013833 1.2987744 0.6258812
1.0881841 0.7875474 -0.057244252 1.4328375 -0.55968964 0.07796487 -0.45802462 -0.36056185
00000000: 8efe 0040 f2ec 19bf 06e3 05bf 4b03 b6bd
00000010: 7d6b 9cbe 1151 84bf ad5b ed3f 8a81 00c0
00000020: 39c3 87bf a7a9 54bf 6481 bebf 324f ccbe
00000030: 62b9 12bf 132f 363f eb98 fb3f 9305 8bbd
00000040: 75da 55bf 0b61 98be 8ff6 07be c1c4 903f
00000050: f9ea bd3f 0b8c d83f 4098 253f f2b2 863f
00000060: fee6 1bbe 7961 d43e b72d 99be 2553 21be
00000070: 506a 773e 5050 38bf b778 fa3d 52b0 2cbf
00000080: 4fe2 7abf dd18 c83f 65f1 68bf 801a 2d3f
00000090: 1997 2cbd 255f b63f 69d5 45bf 9626 273f
000000a0: 59e7 623f f946 debe 9a57 cb3f 6fbb 3a3f
000000b0: 3487 0ebe f99f 44be c1d4 cbbe a0a2 d43f
000000c0: 1718 eb3d 5260 45be d46f 96bf 5bcc d43e
000000d0: 9ed7 1c3e 542d 803f 3d3e a63f c039 203f
000000e0: 9e49 8b3f b59c 493f f378 6abd 3867 b73f
000000f0: d247 0fbf 0cac 9f3d 3482 eabe 909b b8be

layer3.1.running_mean f4 [64]
19.492468 37.921665 5.187455 1.8829187 -84.72443 94.04421 -0.35881844 18.998886
104.41457 3.2655473 11.17007 -43.300068 8.397205 9.039619 21.408865 -14.021757
112.788216 -10.358776 33.792946 -12.885836 3.6620095 -6.9338217 -16.144287 81.856514
6.709138 12.915408 17.600176 -61.43025 8.445827 -16.940529 33.936474 34.57308
-38.799 -13.82172 -7.288733 -61.996975 62.63356 48.9865 -31.489141 57.81791
-18.935251 -90.056595 -29.069996 -33.0821 52.090294 40.220924 63.041626 13.786995
-2.1623158 -25.981718 16.792433 121.94259 11.440632 20.629688 -34.066795 -36.06374
-2.3117337 1.1460868 17.441544 -5.9543824 20.798435 -4.1220937 84.88686 12.549954
00000000: 93f0 9b41 c9af 1742 a2ff a540 7b03 f13f
00000010: e872 a9c2 a316 bc42 0db7 b7be b8fd 9741
00000020: 43d4 d042 bafe 5040 9bb8 3241 4533 2dc2
00000030: f45a 0641 48a2 1041 5b45 ab41 1e59 60c1
00000040: 9193 e142 8cbd 25c1 fa2b 0742 622c 4ec1
00000050: 5d5e 6a40 dee1 ddc0 8027 81c1 89b6 a342
00000060: 42b1 d640 83a5 4e41 29cd 8c41 93b8 75c2
00000070: 1b22 0741 3486 87c1 f3be 0742 d54a 0a42
00000080: 2d32 1bc2 c425 5dc1 4d3d e9c0 e7fc 77c2
00000090: c488 7a42 2df2 4342 c3e9 fbc1 8a45 6742
000000a0: 657b 97c1 fa1c b4c2 5a8f e8c1 1254 04c2
000000b0: 765c 5042 3ae2 2042 a02a 7c42 8897 5c41
000000c0: 6263 0ac0 8fda cfc1 e756 8641 9be2 f342
000000d0: d40c 3741 9a09 a541 6644 08c2 4541 10c2
000000e0: 72f3 13c0 f9b2 923f 4888 8b41 4d8a bec0
000000f0: 3263 a641 31e8 83c0 13c6 a942 9dcc 4841

layer3.1.running_var f4 [64]
2312.0884 2958.9907 6935.0986 2616.0645 3781.6565 3610.1206 4567.696 7308.5166
3196.1702 2438.0613 3048.6653 2655.7944 6062.0366 6702.8403 4809.35 2911.809
3267.494 3111.0762 4775.9575 3259.289 3201.0674 2322.1938 5049.615 5244.749
7864.375 3859.6877 4168.519 4346.6465 3878.692 2989.9065 7583.4697 3885.1274
5580.8135 5363.0986 2296.745 3745.0032 3847.2415 4187.662 4993.778 3542.0928
6110.0996 2814.3716 5293.108 3482.2075 2702.2249 7330.785 2848.9177 4183.6553
3791.5986 3686.9104 3459.679 3157.1768 3444.3367 2842.0928 5662.635 2861.0393
3373.116 4205.64 3915.7324 4325.456 2425.4648 6528.2236 4970.3813 4169.026
00000000: 6a81 1045 daef 3845 cab8 d845 0881 2345
00000010: 815a 6c45 eea1 6145 91bd 8e45 2264 e445
00000020: b9c2 4745 fb60 1845 a58a 3e45 b6fc 2545
00000030: 4b70 bd45 b976 d145 cd4a 9645 f2fc 3545
00000040: e737 4c45 3871 4245 a93f 9545 a0b4 4b45
00000050: 1411 4845 1a23 1145 eccc 9d45 fee5 a345
00000060: 00c3 f545 013b 7145 2744 8245 2cd5 8745
00000070: 126b 7245 81de 3a45 c2fb ec45 0ad2 7245
00000080: 8266 ae45 ca98 a745 ec8b 0f45 0d10 6a45
00000090: dd73 7045 4cdd 8245 390e 9c45 7c61 5d45
000000a0: ccf0 be45 f2e5 2f45 dd68 a545 52a3 5945
000000b0: 99e3 2845 4816 e545 af0e 3245 3ebd 8245
000000c0: 94f9 6c45 916e 6645 dd3a 5845 d452 4545
000000d0: 6345 5745 7ca1 3145 14f5 b045 a1d0 3245
000000e0: dbd1 5245 1f6d 8345 b8bb 7445 a62b 8745
000000f0: 7097 1745 ca01 cc45 0d53 9b45 3548 8245

layer5.0.weight f4 [10, 64]
5.2481627 -2.6600347 4.8141403 6.4749494 -14.243002 4.037139 -13.199114 8.916656
10.922842 2.0932264 -2.845048 -9.38683 -4.254283 25.027002 11.094842 5.272474
15.579028 3.717304 2.0708113 0.9036029 -17.937397 6.384791 -6.128136 1.916886
-10.361469 5.119174 1.3975679 8.15942 2.1459947 0.19664784 -6.658365 -0.7454562
-7.5441327 -11.991423 -2.129688 9.933434 1.2780021 5.670533 2.0547578 3.662348
-1.7905931 -20.231361 -6.145442 -5.8543763 -1.5189387 23.817184 -5.461031 5.541895
19.143185 13.228491 -5.487152 9.766162 -1.5162668 5.7689204 5.881887 0.5976925
-2.0242193 12.8461685 -6.711047 -0.5132718 31.826822 -7.8662963 15.445774 7.7063947
2.210857 7.6648974 1.1722112 -8.845503 9.310267 -4.1688876 14.563192 8.803311
16.062695 -9.779989 -10.264667 1.5022501 -2.628387 0.25178966 -9.615081 -1.8430114
3.7129319 6.114398 -0.1616214 23.190916 14.436501 -4.6636662 1.9537777 10.476021
11.969588 1.042765 -5.714407 2.3899355 1.8764685 -7.111502 16.498672 -12.609352
1.1176244 -3.2418244 -0.87855744 -6.225279 3.3827627 -1.404969 4.8489122 1.4471061
23.255047 -5.298483 -6.7979884 -7.5840497 20.582901 -9.501228 2.9273534 22.21403
5.220492 -4.664165 1.9817855 -4.7208705 -7.3068366 3.0194044 7.849191 -9.783741
18.349535 13.372373 2.284891 4.7180605 4.10294 2.0888028 0.71902496 -10.486962
-1.0986222 5.8883686 -3.4521499 0.9642848 -0.23843288 -0.6356973 0.27305937 -0.19491553
-4.4616714 5.3506064 8.484191 5.76617 0.6000897 19.268173 -1.6144037 -3.90532
-1.1310781 -6.0305357 -9.278679 -1.4085369 -2.2407222 -5.2348347 8.729506 -15.848397
-4.1370535 1.8755102 4.1237073 0.6339978 8.884292 12.190605 2.5849538 -8.772852
2.564665 8.782922 9.827987 -4.12745 -5.228629 12.986982 17.352516 5.1072903
0.2922648 4.0077868 24.7009 -4.9896626 -2.806877 2.4114609 4.2073593 8.320162
4.3443604 -7.2588825 2.5611894 6.476855 8.569179 0.2988473 7.0145016 16.56938
3.919593 10.620424 -0.89255977 -14.859542 -3.7873125 3.1471436 -0.60201174 -8.616414
1.2725723 10.764138 1.1967214 6.9707837 5.6266503 4.2954335 -1.5217565 3.7629266
21.69068 -12.099816 -3.3200321 -3.4310753 -5.8593116 -5.4348183 7.682201 -8.380751
12.992887 0.20803492 -0.057447102 -9.038604 -6.3744802 -5.844657 5.109937 -8.363953
2.540774 6.6556706 11.643687 -0.63272464 4.469794 -1.729079 -0.80127704 2.567093
-3.965922 1.4361746 6.403204 1.8564792 2.6110718 -9.3092165 23.419249 11.513937
-2.5738852 -8.677659 -4.397598 16.04557 11.097123 1.8808655 1.5880915 -11.815786
-0.8762666 6.135493 -12.642296 -17.856531 -5.7968907 7.569802 5.7444177 -13.11887
-4.7877693 -9.470231 -10.004294 1.8166121 20.282711 -5.8131366 -3.7861273 -1.1879479
00000000: f3f0 a740 023e 2ac0 700d 9a40 c932 cf40
00000010: 56e3 63c1 3e30 8140 922f 53c1 9faa 0e41
00000020: f6c3 2e41 6cf7 0540 4415 36c0 7530 16c1
00000030: 1623 88c0 4d37 c841 7984 3141 1bb8 a840
00000040: b343 7941 4fe8 6d40 2c88 0440 8552 673f
00000050: ca7f 8fc1 3550 cc40 b119 c4c0 855c f53f
00000060: 94c8 25c1 46d0 a340 81e3 b23f fc8c 0241
00000070: fa57 0940 0d5e 493e 5311 d5c0 38d6 3ebf
00000080: 8969 f1c0 dedc 3fc1 cf4c 08c0 58ef 1e41
00000090: 9395 a33f 0275 b540 2781 0340 e963 6a40
000000a0: 2832 e5bf d4d9 a1c1 76a7 c4c0 0d57 bbc0
000000b0: 956c c2bf 9889 be41 c4c0 aec0 3457 b140
000000c0: 3e25 9941 e6a7 5341 c096 afc0 3342 1c41
000000d0: 0815 c2bf ff9a b840 6b38 bc40 6002 193f
000000e0: cf8c 01c0 e889 4d41 e6c0 d6c0 c865 03bf
000000f0: 559d fe41 b3b8 fbc0 e421 7741 c99a f640
00000100: ae7e 0d40 d746 f540 040b 963f 2e87 0dc1
00000110: dbf6 1441 8767 85c0 d602 6941 5dda 0c41
00000120: 6680 8041 d67a 1cc1 133c 24c1 bb49 c03f
00000130: 7e37 28c0 93ea 803e 5fd7 19c1 cce7 ebbf
00000140: ada0 6d40 26a9 c340 1580 25be ff86 b941
00000150: e8fb 6641 c13c 95c0 6315 fa3f c89d 2741
00000160: 6f83 3f41 5379 853f 6cdc b6c0 b4f4 1840
00000170: 1f30 f03f 6d91 e3c0 48fd 8341 e8bf 49c1
00000180: 510e 8f3f 0d7a 4fc0 24e9 60bf 7c35 c7c0
00000190: 2f7f 5840 06d6 b3bf 4a2a 9b40 c63a b93f
000001a0: 560a ba41 2c8d a9c0 1f89 d9c0 89b0 f2c0
000001b0: c8a9 a441 0805 18c1 c259 3b40 55b6 b141
000001c0: 450e a740 d740 95c0 26ab fd3f 5f11 97c0
000001d0: 9bd1 e9c0 ec3d 4140 932c fb40 348a 1cc1
000001e0: d9cb 9241 3df5 5541 a73b 1240 5afa 9640
000001f0: 494b 8340 f2ae 0540 0512 383f 99ca 27c1
00000200: a79f 8cbf 846d bc40 06f0 5cc0 5edb 763f
00000210: c027 74be 0fbd 22bf 70ce 8b3e f097 47be
00000220: 03c6 8ec0 2b38 ab40 3fbf 0741 7784 b840
00000230: 7b9f 193f 3825 9a41 c8a4 cebf c3f0 79c0
00000240: 2bc7 90bf 26fa c0c0 7875 14c1 f04a b4bf
00000250: fe67 0fc0 c483 a7c0 0eac 0b41 0993 7dc1
00000260: be62 84c0 b810 f03f 69f5 8340 ae4d 223f
00000270: 0f26 0e41 b80c 4341 e26f 2540 9a5d 0cc1
00000280: 7923 2440 d986 0c41 6f3f 1d41 1214 84c0
00000290: ee50 a7c0 aeca 4f41 f4d1 8a41 ec6e a340
000002a0: bba3 953e ca3f 8040 719b c541 51ab 9fc0
000002b0: dfa3 33c0 6055 1a40 b0a2 8640 621f 0541
000002c0: 0005 8b40 c448 e8c0 87ea 2340 6542 cf40
000002d0: 5b1b 0941 8302 993e cc76 e040 178e 8441
000002e0: 9dda 7a40 42ed 2941 cc7e 64bf afc0 6dc1
000002f0: 5463 72c0 cd6a 4940 711d 1abf d5dc 09c1
00000300: a6e3 a23f e939 2c41 2b2e 993f a910 df40
00000310: 850d b440 3174 8940 ebc8 c2bf cad3 7040
00000320: 8386 ad41 d998 41c1 687b 54c0 bd96 5bc0
00000330: 7b7f bbc0 08ea adc0 97d4 f540 8e17 06c1
00000340: dde2 4f41 1b07 553e a74d 6bbd 1f9e 10c1
00000350: befb cbc0 6e07 bbc0 9b84 a340 c0d2 05c1
00000360: 0b9c 2240 41fb d440 8b4c 3a41 3efa 21bf
00000370: 8d08 8f40 7652 ddbf 7e20 4dbf 404b 2440
00000380: abd1 7dc0 92d4 b73f 0ce7 cc40 1ca1 ed3f
00000390: cd1b 2740 8df2 14c1 9f5a bb41 1639 3841
000003a0: 89ba 24c0 b1d7 0ac1 1fb9 8cc0 545d 8041
000003b0: d18d 3141 33c0 f03f 9546 cb3f 760d 3dc1
000003c0: 0253 60bf f555 c440 d846 4ac1 2dda 8ec1
000003d0: 2180 b9c0 d13b f240 45d2 b740 e4e6 51c1
000003e0: 6835 99c0 1186 17c1 9711 20c1 bf86 e83f
000003f0: fe42 a241 3705 bac0 e94f 72c0 ad0e 98bf

layer5.0.bias f4 [10]
-6.7881603 -5.63405 -6.0702567 -5.1831174 -3.6139905 -4.595106 -3.2994852 -6.875751
-4.3908424 -8.106929
00000000: 9c38 d9c0 234a b4c0 8b3f c2c0 19dc a5c0
00000010: 9f4b 67c0 1c0b 93c0 c42a 53c0 2706 dcc0
00000020: c881 8cc0 fbb5 01c1
