GSTENG_Datasets/v-net_ks=3_lr=0.001_epoch=200_tanh2.pth (torch, 45317 bytes, 20 tensors)

layer1.0.weight f4 [16, 6, 3]
0	0xbb36ecd2	-0.0027912152
1	0x3be15027	0.00687601
2	0x3c74736e	0.014920099
3	0x3db90b03	0.090353034
4	0x3ded5d28	0.11590034
5	0x3defcc88	0.11708933
6	0xbc755a22	-0.014975103
7	0x3c1ed06d	0.009693247
8	0x3d0ab62b	0.033865135
9	0xbf4a4e22	-0.7902547
10	0xbf17a9ee	-0.5924367
11	0xbf0fe74b	-0.562123
12	0xbe28719e	-0.16449592
13	0x3e0cbeca	0.13744655
14	0xbe08b6f1	-0.13351037
15	0x3f67af16	0.90501535
16	0x3fc47b9c	1.5350223
17	0x3f68aa8a	0.9088522
18	0x3f613f5d	0.8798731
19	0x3f56a512	0.8384563
20	0x3fbed8a2	1.4909861
21	0x3e318017	0.17334019
22	0x3ca3beae	0.019988384
23	0x3d11a56c	0.03555815
24	0x3ed4ebc2	0.4158612
25	0x3ef5688d	0.47931328
26	0x3ef9f431	0.48819116
27	0xbef7749e	-0.4833116
28	0xbecf2f59	-0.4046581
29	0xbeb5295b	-0.35383114
30	0xbe063d79	-0.13109387
31	0x3dda496a	0.10658534
32	0xbe83b9ef	-0.25727794
33	0x3dd058c3	0.1017318
34	0xbe90774a	-0.2821601
35	0xbf18534e	-0.5950211
36	0x3d206f77	0.0391688
37	0x3cc6ac09	0.024251955
38	0x3c8e1dc4	0.017348178
39	0xbb0d4e03	-0.0021561391
40	0xbda3b5eb	-0.079936825
41	0xbd602eb9	-0.05473206
42	0x3c1ef5aa	0.009702126
43	0x3d8a4b38	0.06752628
44	0xbd551637	-0.05202314
45	0xbeff0665	-0.49809566
46	0xbed4dff2	-0.41577107
47	0x3e52065a	0.20510235
48	0xbf9b2d01	-1.2123109
49	0xbcf854b5	-0.030313829
50	0x3fa12cf2	1.2591841
51	0xbfaa8e84	-1.3324742
52	0xbe8d82c4	-0.2763883
53	0x3f7529c5	0.9576686
54	0x3e4bddde	0.19908854
55	0x3ddb0a6b	0.106953464
56	0xbda6bc22	-0.08141352
57	0xbd7257f3	-0.059165906
58	0xbd224346	-0.03961494
59	0xbc4e5b2f	-0.012594982
60	0x3e059fea	0.13049284
61	0x3c9818e3	0.018566554
62	0x3b872211	0.004123934
63	0x3db5041c	0.088386744
64	0x3f285dee	0.65768325
65	0x3fa2ec8e	1.2728441
66	0xbf3833d9	-0.71954113
67	0xbf7f7df5	-0.9980157
68	0xbe9c206a	-0.3049348
69	0xbedc6875	-0.43048444
70	0xbf34775a	-0.70494616
71	0xbe1ec79d	-0.15505834
72	0xbeabc991	-0.3355222
73	0xbe0af38b	-0.13569467
74	0xbe5f3db3	-0.2180088
75	0xbf4d54fa	-0.8020779
76	0xbf3e3404	-0.7429812
77	0xbfb0eb42	-1.3821795
78	0xbe04ba9c	-0.12961811
79	0xbc6617dc	-0.014043774
80	0xbdc3866e	-0.09547125
81	0xbd967841	-0.07347155
82	0x3f2c5bce	0.6732758
83	0x3f7fa079	0.99854237
84	0x3e3d4366	0.18482742
85	0xbd51c345	-0.051211614
86	0x3e3caf7a	0.18426314
87	0x3db530cf	0.088472
88	0x3e8bf746	0.27337092
89	0x3ed9982f	0.4249892
90	0xbdccf103	-0.10006907
91	0xbe666f79	-0.22503461
92	0xbe626c73	-0.22111683
93	0x3f78ed48	0.9723706
94	0x3f9ae54a	1.2101223
95	0x3f4bf657	0.7967276
96	0x3c0d7ef3	0.008636224
97	0xbcb28dc0	-0.021796107
98	0xbdb364e5	-0.087594785
99	0x3f062124	0.5239432
100	0x3ea97229	0.3309491
101	0xbeddb7c3	-0.43304262
102	0x3e5ae016	0.21374545
103	0xbdddd6a3	-0.10831954
104	0xbec6d5e0	-0.3883505
105	0x3e90e23f	0.28297612
106	0xbf039df2	-0.5141288
107	0xbf839575	-1.0279986
108	0x3e26cc1f	0.16288804
109	0x3eb5d575	0.35514417
110	0x3e8ca022	0.27465922
111	0xbf8f2794	-1.1183953
112	0xbfa40379	-1.281356
113	0xbf8a7b4b	-1.0818876
114	0xbd4ae839	-0.04953787
115	0x3c14edd0	0.009089902
116	0x3cfb3b71	0.030667992
117	0x3d0d1abc	0.034449324
118	0xbc0c6bfc	-0.008570667
119	0xbf3cbc28	-0.73724604
120	0x3eecd387	0.46255133
121	0x3f5a2c47	0.8522381
122	0x3f1bb5f3	0.6082451
123	0x3ec5f8ea	0.3866647
124	0x3e3c07b6	0.18362316
125	0xbea161d6	-0.31519955
126	0xbf0db4ab	-0.553538
127	0x3edc205d	0.4299344
128	0x3f41fe55	0.75778705
129	0xbe255116	-0.16144213
130	0xbe1eb9fc	-0.15500635
131	0xbdb78946	-0.0896173
132	0xbe1e034c	-0.15430945
133	0x3e556abf	0.20841502
134	0x3ee7fd62	0.45310503
135	0x3edd6d83	0.43247613
136	0xbe89ea34	-0.26936495
137	0xbf04c043	-0.5185587
138	0x3f05f971	0.5233374
139	0xbdeca05b	-0.11554023
140	0x3e12ec2b	0.14347903
141	0x3fc23c32	1.517462
142	0x3dc94ddd	0.09829304
143	0xbf4ca3a1	-0.7993718
144	0xbd008084	-0.031372562
145	0x3e0893b3	0.13337593
146	0xbb294187	-0.002582641
147	0xbfcf488d	-1.6194016
148	0xbfd5384e	-1.6657808
149	0xbf98a9d2	-1.1926825
150	0xbdaa4fb3	-0.08315983
151	0xbdc02da1	-0.09383703
152	0x3bae35f5	0.005316491
153	0x3e0ce91f	0.13760804
154	0xbe3775db	-0.17916052
155	0xbe902b23	-0.2815791
156	0xbea70ae8	-0.32625508
157	0xbf3764ae	-0.71638
158	0xbf2e7aa5	-0.6815589
159	0x3eaa1b20	0.3322382
160	0x3e9d29d6	0.3069598
161	0x3e9b3979	0.30317286
162	0xbe36bc79	-0.17845334
163	0xbe24c01c	-0.16088909
164	0xbdfcb9da	-0.12340136
165	0x3fa83bca	1.3143246
166	0x3fb5600f	1.416994
167	0x3fa02a1e	1.2512853
168	0x3d79b911	0.06096751
169	0xbbfd89a0	-0.0077373534
170	0xbc927070	-0.01787588
171	0xbe71a0cd	-0.23596497
172	0x3d5dcb30	0.054148853
173	0x3f2befdf	0.6716289
174	0xbe042634	-0.12905198
175	0x3ef63ce7	0.4809334
176	0x3f4bdf62	0.7963773
177	0xbe4f1dbb	-0.20226185
178	0x3e38f883	0.1806355
179	0x3ea140fe	0.31494898
180	0xbed70bc7	-0.42001173
181	0xbe58a2e8	-0.21155894
182	0xbed2b65b	-0.4115475
183	0x3ef2ca9d	0.47420207
184	0x3fa0b404	1.2554936
185	0x3f8b9998	1.0906248
186	0xbe7b41aa	-0.24536768
187	0x3d88676c	0.06660351
188	0xbd8a045d	-0.067391135
189	0xbe43a8b9	-0.19107331
190	0xbf3cb99c	-0.7372072
191	0xbf28ef50	-0.6599016
192	0x3ecf74d8	0.40518832
193	0x3f2a7680	0.66587067
194	0x3f0862e9	0.53275925
195	0x3ecb14ce	0.3966431
196	0x3e935015	0.28772035
197	0x3e1fe44b	0.1561443
198	0xbd3cfdee	-0.046140604
199	0xbd8cfbc1	-0.06883956
200	0x3bb00058	0.0053711347
201	0xbcc2f219	-0.023797082
202	0xbdd71f4b	-0.105040155
203	0xbd0e76d2	-0.034781285
204	0xbcdab279	-0.02669643
205	0xbcce6749	-0.025195735
206	0x3d199a7c	0.037500843
207	0xbe4fa020	-0.20275927
208	0x3ee05d24	0.4382106
209	0xbe0b1964	-0.13583905
210	0x3e59b318	0.21259725
211	0x3fa3f692	1.2809622
212	0x3efc9f42	0.49340254
213	0xbf7bddf3	-0.9838554
214	0xc01516d3	-2.329518
215	0xbeb65e2c	-0.35618722
216	0xbd75fb7e	-0.060054295
217	0xbd81fcd6	-0.06347053
218	0xbd975e82	-0.07391073
219	0xbdac1d1a	-0.08403988
220	0xbd4bdf58	-0.049773544
221	0x3c8cba1b	0.017178586
222	0xbccd0910	-0.025028735
223	0xbd5131e2	-0.051072963
224	0xbd3e4f58	-0.046462387
225	0x3f0932d9	0.5359321
226	0x3f4f5d33	0.81001586
227	0x3f00f641	0.50375754
228	0xbf916525	-1.1358992
229	0xbf9927a6	-1.1965225
230	0xbfdef3f0	-1.7418194
231	0x3d8fc067	0.0701912
232	0x3e74b242	0.23896125
233	0x3e894367	0.26809236
234	0xbe8b9b76	-0.27267045
235	0xbd28b380	-0.04118681
236	0x3de8f04b	0.11373957
237	0xbc885b2f	-0.016645042
238	0x3dae7f5f	0.08520388
239	0x3e07cf39	0.13262643
240	0xbdc8dc52	-0.09807648
241	0xbd02fffc	-0.031982407
242	0x3d57b381	0.052661423
243	0x3e90ecf9	0.28305796
244	0x3f3de5cb	0.7417876
245	0x3f917178	1.1362753
246	0xbf3102b9	-0.6914478
247	0xbf164d89	-0.5871206
248	0xbeb82b55	-0.3597056
249	0xbe6329b0	-0.22183871
250	0xbf698d36	-0.91231096
251	0xbeec214f	-0.46119162
252	0x3efec2b7	0.4975793
253	0x3ebc174a	0.36736518
254	0x3f139ff1	0.57665926
255	0xbf570bd9	-0.84002453

layer1.0.bias f4 [16]
0	0x40355573	2.8333404
1	0x3e1e4d51	0.15459181
2	0xbf24182d	-0.6409939
3	0xbfc584d3	-1.543116
4	0xbf5aacfb	-0.854202
5	0x3f8f9bf3	1.1219467
6	0xc02c1bbb	-2.6891925
7	0x3f0b91cf	0.5451936
8	0x3f7f11c9	0.99636513
9	0xc03aa21a	-2.916144
10	0x3ec52f4c	0.38512647
11	0x3ff3b117	1.9038419
12	0x403361ff	2.8028562
13	0x3fa2ba89	1.2713176
14	0x3e6fb776	0.23409829
15	0xbf2fd48b	-0.6868369

layer1.1.weight f4 [16]
0	0x3f58cc57	0.846868
1	0x3f1b9786	0.6077808
2	0x3f63ec16	0.89032114
3	0x3f000e19	0.5002151
4	0x3f4ca0b9	0.79932743
5	0x3f06f6e8	0.527205
6	0x3ea8a73c	0.3294009
7	0x3ea9ce7f	0.33165357
8	0x3f2ea2f4	0.68217397
9	0x3f1c6ef7	0.6110682
10	0x3ea935cf	0.33048865
11	0x3f4464cb	0.767163
12	0x3f000e24	0.50021577
13	0x3f0a84d5	0.54108936
14	0x3f102120	0.56300545
15	0x3fd5e6e7	1.6711091

layer1.1.bias f4 [16]
0	0xbf90b043	-1.1303791
1	0xbf9a144f	-1.2037448
2	0x3fa350ae	1.2758996
3	0x3f51b5ac	0.81917834
4	0xbfbc0133	-1.4687866
5	0x3c410ea4	0.011783276
6	0xbd5f35d5	-0.054494698
7	0x3f27e812	0.65588486
8	0xbfb1bdd0	-1.3886051
9	0xbf67270a	-0.90293944
10	0x3ed4fa87	0.41597387
11	0xbf278472	-0.6543647
12	0xbeadf151	-0.33973172
13	0x3f0b2d0f	0.5436563
14	0x40023ba1	2.0348895
15	0x3fbf00ac	1.492208

layer1.1.running_mean f4 [16]
0	0x403888ad	2.883342
1	0x3df93403	0.121681236
2	0xbf17f046	-0.59351003
3	0xbfcab164	-1.5835385
4	0xbf72431b	-0.94633645
5	0x3f93e304	1.1553655
6	0xc02f7dbc	-2.7420492
7	0x3f016c95	0.5055631
8	0x3f8486cd	1.0353638
9	0xc03d51c8	-2.9581165
10	0x3ee94ab8	0.45564818
11	0x3ff4e7dc	1.9133258
12	0x403407bd	2.8129723
13	0x3f9e26aa	1.2355549
14	0x3e16fc75	0.14744742
15	0xbf3be085	-0.73389465

layer1.1.running_var f4 [16]
0	0x3a43d2c3	0.00074700656
1	0x3cc15306	0.023599159
2	0x3b517b99	0.003196454
3	0x3ade4ce8	0.0016960176
4	0x3c45c4cd	0.012070847
5	0x3b0fda47	0.0021950172
6	0x3b712abd	0.0036799156
7	0x3b0c442a	0.0021402934
8	0x3bc6041b	0.00604297
9	0x3bb63e7b	0.0055616475
10	0x3b0458bc	0.0020194491
11	0x3a737577	0.0009287218
12	0x39e6c85e	0.00044018304
13	0x3a86feae	0.0010299289
14	0x3b13f2ad	0.0022575066
15	0x3b8a371e	0.0042179963

layer2.0.weight f4 [32, 16, 3]
0	0x3fa2ea32	1.2727721
1	0x3d0b6af5	0.03403755
2	0xbf410c70	-0.75409603
3	0xbe165298	-0.14679945
4	0x3d8a516e	0.06753813
5	0x3ee484b6	0.446325
6	0xbeb88d7e	-0.3604545
7	0xbebe24a6	-0.37137336
8	0xbeb384f6	-0.3506238
9	0xbd2660b9	-0.040619586
10	0x3e96d058	0.2945583
11	0xbe507d80	-0.20360374
12	0xbcbf3cfd	-0.023344511
13	0x3f18934f	0.59599775
14	0x3f4f4c9e	0.80976284
15	0x3e706505	0.23476036
16	0xbdcea6e4	-0.100904256
17	0x3e2f5b67	0.17124711
18	0x3d87f5b2	0.066386595
19	0x3d2974e6	0.04137125
20	0x3d8087f8	0.06275934
21	0x3f7148fc	0.9425199
22	0xbaf53dd6	-0.0018710445
23	0x3df8d8b4	0.12150708
24	0xbe281125	-0.1641279
25	0xbea289e0	-0.31745815
26	0x3ee5d3cd	0.44888154
27	0xbe8129d7	-0.25227234
28	0xbf4dd5f1	-0.80404574
29	0xbf82b2fb	-1.021087
30	0x3f461b05	0.7738498
31	0xbf08d520	-0.534502
32	0xbf04a5d2	-0.5181552
33	0xbfae1d80	-1.3602753
34	0xbe877574	-0.26456797
35	0x3f01594d	0.5052689
36	0xbf3ffbdb	-0.74993676
37	0xbe929414	-0.286286
38	0x3eeeeb3a	0.4666384
39	0xbf2c51ec	-0.673125
40	0xbd942330	-0.07233274
41	0x3ee1fde6	0.44139022
42	0xbcb11c77	-0.021620018
43	0xbebe8373	-0.37209663
44	0xbf272bac	-0.65301013
45	0xbdcd89df	-0.100360624
46	0xbf14bd52	-0.5810138
47	0xbf3a103c	-0.7268102
48	0x3e95bcde	0.29245657
49	0xbdf096f7	-0.11747544
50	0xbf5ca721	-0.8619252
51	0xbe5dad83	-0.2164822
52	0x3e15e0d2	0.14636543
53	0x3e2b1c6f	0.16710065
54	0x3f53c062	0.8271543
55	0x3f0237ef	0.508666
56	0xbe93a51d	-0.2883691
57	0xbf526dc5	-0.82198745
58	0xbef6d425	-0.48208728
59	0xbeacd9ac	-0.3375982
60	0xbdfacccf	-0.122460954
61	0x3eaeccf5	0.34140745
62	0x3e92abca	0.2864669
63	0xbea1964d	-0.31559983
64	0xbe0bb1ce	-0.13642046
65	0x3e8df061	0.27722457
66	0x3f1240f1	0.5713034
67	0x3f21b68a	0.6316916
68	0x3f9de8b9	1.2336646
69	0x3ef6be36	0.48191994
70	0x3eb4a752	0.35283905
71	0x3e9343c9	0.28762653
72	0xbf6c693d	-0.9234808
73	0xbf4b33d2	-0.79375947
74	0xbf3743f8	-0.7158809
75	0x3eae7b81	0.340786
76	0x3ebf9ec7	0.37425825
77	0x3e8e8cb8	0.27841735
78	0x3ee580e8	0.4482491
79	0x3f0e1e31	0.5551482
80	0x3f1304b9	0.5742908
81	0x3f15ecd5	0.585645
82	0x3f2a6519	0.6656051
83	0x3f87ef8c	1.0619979
84	0x3edf230f	0.43581435
85	0x3ec17765	0.37786403
86	0x3ef6c652	0.4819818
87	0xbf6dda12	-0.92910874
88	0xbf0ebe4f	-0.5575914
89	0xbeb208f9	-0.3477247
90	0x3ea53697	0.3226821
91	0x3eb38f39	0.35070208
92	0x3f02a58f	0.5103387
93	0x3e25c437	0.16188131
94	0x3d9ec352	0.07752098
95	0x3e7c9562	0.2466636
96	0xbf5c3bd5	-0.86028796
97	0xbed09041	-0.40735057
98	0x3e84f810	0.25970507
99	0x3ddc6e3c	0.10763213
100	0x3ec84dff	0.39122006
101	0x3f2e5ea1	0.6811314
102	0xbf305800	-0.6888428
103	0xbdc74456	-0.09729831
104	0x3dcf254a	0.10114534
105	0xbf0633ed	-0.5242298
106	0x3c644e5a	0.013934696
107	0x3dfa5d18	0.122247875
108	0x3e60f9e5	0.21970327
109	0x3f2c5d07	0.6732945
110	0x3f6a7165	0.91579276
111	0xbf20f318	-0.6287093
112	0xbf350573	-0.7071144
113	0x3eb681a3	0.3564578
114	0xbcb1e703	-0.0217166
115	0xbe3a52aa	-0.18195596
116	0x3f59e8fc	0.8512113
117	0x3edbe742	0.42949873
118	0xbe7c6c84	-0.2465077
119	0xbf06acc5	-0.52607375
120	0xbf7ec642	-0.9952127
121	0xbf22bba2	-0.63567555
122	0xbe2af84f	-0.16696285
123	0x3f66d7f5	0.90173274
124	0x3f7a0452	0.9766284
125	0x3da34877	0.07972806
126	0xbc3f20fb	-0.011665578
127	0x3e4329ce	0.19058916
128	0x3e482dd1	0.19548728
129	0x3f136a7f	0.57584375
130	0x3f611892	0.87928116
131	0x3f81bdb9	1.0136024
132	0x3ea95d21	0.33078864
133	0x3ec1592f	0.37763354
134	0x3f12c593	0.57332724
135	0x3d2c8f64	0.042128935
136	0x3e0635f7	0.13106523
137	0xbc1cd70a	-0.009572754
138	0xbd91059e	-0.070811495
139	0xbe0c1edd	-0.13683648
140	0xbf61d9a6	-0.8822273
141	0x3e50d312	0.20393017
142	0x3ea0a183	0.31373224
143	0xbd4f92fd	-0.05067729
144	0x3fae2fb5	1.3608309
145	0x3ec1a1d5	0.3781878
146	0xbf7ad2d0	-0.97977924
147	0x3f9210b3	1.1411346
148	0x3edefdb4	0.43552935
149	0xbe5a4a36	-0.21317372
150	0xbe89cf1c	-0.26915824
151	0xbedbd856	-0.4293849
152	0xbe03937c	-0.1284923
153	0x3e2ce45c	0.16883987
154	0xbe932a15	-0.28743044
155	0xbf089303	-0.5334932
156	0xbf249e62	-0.64304173
157	0xbf12aae3	-0.57292
158	0xbf0cfaa3	-0.5506994
159	0xbee12179	-0.4397085
160	0xbf181978	-0.5941386
161	0xbf27e8ad	-0.6558941
162	0xbf97102a	-1.1801808
163	0xbf630a2c	-0.88687396
164	0xbf3af629	-0.7303186
165	0xbdca1cc6	-0.09868769
166	0xbe0b859a	-0.13625184
167	0xbe860a39	-0.26179674
168	0x3f7c9a43	0.98672885
169	0x3ee9913c	0.45618618
170	0x3e3d1114	0.18463546
171	0xbf3f81da	-0.7480751
172	0xbed772fb	-0.4207991
173	0x3d8b3e8f	0.067990415
174	0xbe3cc398	-0.18433988
175	0xbe6137d3	-0.21993951
176	0x3e9fed6e	0.31235832
177	0xbf6c4d99	-0.92305905
178	0xbf0c4043	-0.54785556
179	0xbe9b29b2	-0.30305248
180	0xbe9895fa	-0.29801923
181	0x3e24fdf8	0.16112506
182	0x3e966cad	0.29379788
183	0xbe265334	-0.16242677
184	0x3e073cbc	0.13206762
185	0x3e9f3374	0.31093943
186	0xbf09cb5e	-0.5382594
187	0xbec78fc2	-0.38976866
188	0xbe426adc	-0.18986076
189	0x3e454846	0.19265851
190	0x3de21b18	0.11040324
191	0xbe77670c	-0.24160403
192	0xbeb63c65	-0.35592952
193	0xbf235c85	-0.6381305
194	0xbf3ec6ab	-0.74521893
195	0xbf0e5986	-0.5560535
196	0xbee061cd	-0.43824616
197	0xbf0ad5e9	-0.5423265
198	0x3ed73606	0.42033404
199	0x3d9d9f1e	0.07696365
200	0x3f09a9ba	0.5377461
201	0xbad71127	-0.001640831
202	0xbeb2955f	-0.34879586
203	0xbe8370c0	-0.2567196
204	0xbc9a4cb6	-0.018835407
205	0xbe5c2892	-0.21499851
206	0xbeb36c03	-0.35043344
207	0x3e9a4849	0.30133274
208	0x3f30faaa	0.69132483
209	0x3c1e0371	0.009644375
210	0x3f3629fb	0.7115781
211	0x3ef19e1c	0.4719094
212	0x3cebc4c6	0.028780352
213	0x3eeaabde	0.4583425
214	0x3f3cbb32	0.7372314
215	0x3dd954c2	0.106118694
216	0xbf171b0c	-0.59025645
217	0xbe8a2a7e	-0.26985544
218	0x3e3641cb	0.17798536
219	0x3e57ee7d	0.2108707
220	0xbf1fea7c	-0.6246717
221	0xbe42b563	-0.19014506
222	0xbd3b96ec	-0.045798227
223	0xbd95c074	-0.07312098
224	0x3e2bb2bd	0.16767402
225	0xbf86325f	-1.0484122
226	0xbf662ce5	-0.89912254
227	0xbe8231df	-0.25428674
228	0xbda1d040	-0.07901049
229	0x3e9e7bc5	0.30953804
230	0xbe8d109b	-0.2755173
231	0xbe7935b1	-0.24336888
232	0xbe648e67	-0.22319947
233	0xbde9428b	-0.11389645
234	0x3e51da9d	0.2049355
235	0xbeb24946	-0.34821528
236	0xbed095e4	-0.40739357
237	0xbedbb532	-0.4291168
238	0xbf2cba38	-0.6747165
239	0xbf4cb81f	-0.79968446
240	0x3f246b1b	0.6422593
241	0x3f5d2407	0.863831
242	0x3fc29eb6	1.5204685
243	0xbe2ce343	-0.16883568
244	0xbe980267	-0.29689333
245	0xbcbb978b	-0.02289941
246	0xbd9cb52b	-0.076517425
247	0xbec5cc39	-0.38632372
248	0xbe675b6d	-0.2259347
249	0xbf9c1e79	-1.21968
250	0xbefdde02	-0.4958344
251	0x3eab7149	0.33484867
252	0x3ecd5827	0.40106317
253	0x3e7de4a6	0.24794254
254	0x3bfd6b1e	0.0077337166
255	0x3ea108f3	0.3145214

layer2.0.bias f4 [32]
0	0xbd00b303	-0.03142072
1	0xbe4179cf	-0.18894123
2	0xbced607b	-0.02897667
3	0x3d8320e8	0.06402761
4	0x3d507234	0.050890163
5	0xbda373a6	-0.079810426
6	0xbe70b7a5	-0.23507555
7	0x3d54e4c3	0.051975977
8	0x3e2fc572	0.17165163
9	0x3d38cb54	0.045115784
10	0x3ddbd98c	0.10734853
11	0x3e37f281	0.17963602
12	0x3e36db6a	0.17857137
13	0xbe846bf4	-0.25863612
14	0x3e7cfd01	0.24705888
15	0x3d83f139	0.06442494
16	0xbe4ee347	-0.20203887
17	0xbd948b16	-0.07253091
18	0x3b922d9a	0.0044610025
19	0xbd81c37c	-0.06336114
20	0xbe7f2302	-0.24915698
21	0x3d313d8f	0.043271597
22	0x3f15a458	0.58453894
23	0xbece1126	-0.40247458
24	0x3d9a7305	0.075414695
25	0xbd6e84ce	-0.05823212
26	0xbe398615	-0.18117554
27	0xbdfd6224	-0.123722345
28	0x3df23895	0.118271984
29	0xbe0484eb	-0.12941329
30	0xbda565c3	-0.0807605
31	0xbd21d5fd	-0.039510716

layer2.1.weight f4 [32]
0	0x3f828a73	1.0198501
1	0x3fa71426	1.3053024
2	0x3f899a34	1.0750184
3	0x3eb8badb	0.3608006
4	0x3fdb92c5	1.7154166
5	0x3f894cab	1.0726522
6	0x400ee57e	2.232757
7	0x3f915cf9	1.1356498
8	0x3f63a282	0.8891984
9	0x3fabfbfb	1.3436273
10	0x3f7ea70c	0.99473643
11	0x3ebf38e7	0.373481
12	0x3f686baa	0.9078928
13	0x3f89f989	1.0779277
14	0x3fbe2cf2	1.4857466
15	0x3f035a32	0.513095
16	0x3f9d24f0	1.2276897
17	0x3f937fa7	1.1523331
18	0x3f15e76b	0.5855624
19	0x3fee0eb2	1.8598235
20	0x3f4f914a	0.8108107
21	0x3ec92d9b	0.39292607
22	0x3fb35dc1	1.4012986
23	0x3fd26e96	1.6439998
24	0x400b358d	2.1751435
25	0x3f92e8bd	1.1477276
26	0x3f5569ba	0.8336445
27	0x3f5e0b1d	0.8673571
28	0x3fbd9ca0	1.4813423
29	0x3f84c56e	1.0372751
30	0x3f154d6a	0.5832125
31	0x3f96e5fb	1.1788934

layer2.1.bias f4 [32]
0	0xbfd343f4	-1.6505113
1	0xbfe9523d	-1.8228222
2	0xbf9a3a15	-1.2048975
3	0xbf74c7f3	-0.956176
4	0xbfe0267b	-1.7511743
5	0xbf847eaf	-1.0351161
6	0xc001c5fa	-2.0277085
7	0xbf2c5b15	-0.6732648
8	0x4003fcb6	2.0622993
9	0xbe24f149	-0.16107668
10	0xbf920596	-1.1407955
11	0x3f5846a2	0.8448278
12	0x3fd78c7f	1.6839751
13	0x3f99427e	1.1973417
14	0x3f989718	1.192111
15	0x3e0a1107	0.13483058
16	0x3ff303d9	1.8985549
17	0xbf14a138	-0.580585
18	0xbfa19452	-1.2623389
19	0xbf7d31a2	-0.9890386
20	0x3f05b484	0.5222857
21	0x3eba645a	0.36404687
22	0x4005992e	2.0874743
23	0x3d1a9a81	0.037745003
24	0xbf36f379	-0.7146526
25	0xbf8022ef	-1.0010661
26	0x3f631add	0.88712865
27	0x3f5f057f	0.8711776
28	0x3eba1100	0.36341095
29	0xbfbbfa7f	-1.468582
30	0x3f8eaf68	1.114728
31	0xbfb5172e	-1.4147699

layer2.1.running_mean f4 [32]
0	0xc003c4b1	-2.05888
1	0x3f9010ad	1.1255089
2	0xc08bbe93	-4.3670135
3	0xbfffcbbf	-1.9984053
4	0x407d65ae	3.959331
5	0xc08add96	-4.339549
6	0xc0f6ed16	-7.716441
7	0xc08c248e	-4.3794622
8	0x4046b0d2	3.1045423
9	0x4021a83b	2.525893
10	0xc0a61328	-5.1898384
11	0x40f4da51	7.65165
12	0xbcbbda21	-0.02293116
13	0xc08216df	-4.065292
14	0xbfd08c02	-1.6292727
15	0x4023e4b4	2.560834
16	0xbffced9b	-1.9760011
17	0x3d90ffaa	0.07080014
18	0xc09dcf8a	-4.9315844
19	0x40813099	4.0371823
20	0xc07a8640	-3.914444
21	0x3fa1fe49	1.2655727
22	0x406999a1	3.6500018
23	0xc0eb80d9	-7.3594785
24	0xc00c7f05	-2.1952527
25	0xbfd48655	-1.6603495
26	0xbfa02ad2	-1.2513068
27	0xc0b2438c	-5.5707455
28	0x3fe4706f	1.7846812
29	0xbfbd8f4b	-1.4809355
30	0xbf028053	-0.5097706
31	0x3f87c8dd	1.0608174

layer2.1.running_var f4 [32]
0	0x4009e917	2.1548517
1	0x3f22f12d	0.63649255
2	0x3f512818	0.81701803
3	0x3f46749c	0.7752168
4	0x3ebe2ddc	0.37144363
5	0x408ab76f	4.334892
6	0x4035d2a4	2.8409815
7	0x40316af3	2.7721527
8	0x3fd48337	1.6602544
9	0x3fc70bd7	1.5550488
10	0x3f347dda	0.70504534
11	0x41047e15	8.280782
12	0x3f6d1844	0.9261515
13	0x40042b27	2.0651338
14	0x3feffadb	1.874843
15	0x400f4d6b	2.2391002
16	0x401af743	2.4213417
17	0x3f58be83	0.846657
18	0x3fb73410	1.4312763
19	0x40a0ee86	5.0291166
20	0x40433328	3.0499973
21	0x403f1c38	2.9860973
22	0x3f1ecf10	0.620347
23	0x4049bfdf	3.152336
24	0x3fe0daa3	1.7566723
25	0x3f375358	0.7161155
26	0x4004b931	2.0738032
27	0x40165829	2.3491309
28	0x41011f51	8.070146
29	0x3fa49217	1.2857083
30	0x3fc7b80e	1.5603044
31	0x3f7ee5f7	0.9956965

layer3.0.weight f4 [64, 32, 3]
0	0x3f57f165	0.84352714
1	0xbc1c4f6d	-0.009540421
2	0xbe22a38d	-0.15882702
3	0xbf203c26	-0.6259178
4	0xbe694daf	-0.2278354
5	0x3ecc156d	0.39860097
6	0x3f0487f7	0.51769966
7	0x3e0f3e7f	0.13988684
8	0xbe96e560	-0.29471874
9	0x3eb6c851	0.35699704
10	0xbca9d268	-0.020730212
11	0x3c01a1a7	0.007912076
12	0x3f23c232	0.63968194
13	0x3ef151d5	0.47132745
14	0x3e44bdc1	0.1921301
15	0x3f335ae5	0.7006057
16	0x3ed45d70	0.41477537
17	0x3eac4d91	0.33652928
18	0x3f217651	0.6307116
19	0x3f003bf5	0.5009149
20	0x3da66cf4	0.0812625
21	0x3f4ccea8	0.8000283
22	0x3f1cbd8c	0.61226726
23	0x3ed4e6b8	0.41582274
24	0xbfacca76	-1.3499286
25	0xbf83464a	-1.0255826
26	0xbffe1966	-1.9851501
27	0x3e3a7cd8	0.18211687
28	0x3f0634c3	0.5242426
29	0x3ea9d80b	0.3317264
30	0xbe00a666	-0.12563476
31	0xbd76f2f6	-0.0602903
32	0x3e8ad5ed	0.27116337
33	0xbf912464	-1.133923
34	0xbf865c9a	-1.049701
35	0xbf6b9373	-0.92021865
36	0x3ed82b92	0.42220742
37	0x3f079164	0.52956223
38	0x3e457b6c	0.19285363
39	0xbeb8728f	-0.360249
40	0xbeb73a92	-0.35786873
41	0xbf06092b	-0.5235774
42	0xbebf95fb	-0.37419114
43	0xbf0f38ad	-0.55945855
44	0xbf528741	-0.8223763
45	0xbf197087	-0.5993733
46	0x3e7f895a	0.24954739
47	0x3fab717c	1.3394008
48	0xbf07f22d	-0.53103906
49	0xbf14d02c	-0.58130145
50	0xbfa03585	-1.2516333
51	0x3d6ebb62	0.05828417
52	0x3f03ffd7	0.51562256
53	0x3e9f535b	0.31118283
54	0x3ed52ebc	0.41637218
55	0x3b62593d	0.0034538053
56	0xbb8454cc	-0.004038429
57	0xbea785de	-0.3271932
58	0xbdc6818b	-0.09692677
59	0x3e2fa4cd	0.1715271
60	0xbde1bde8	-0.1102255
61	0x3f204dfc	0.62618995
62	0x3fb57009	1.4174815
63	0xbede6675	-0.43437544
64	0xbecde511	-0.40213826
65	0xbe5befc9	-0.2147819
66	0x3e87aaf2	0.26497608
67	0xbe2c4b52	-0.16825607
68	0xbf0c9b4f	-0.5492448
69	0xbf8655d5	-1.0494944
70	0xbf401f62	-0.75047886
71	0xbecd8aa1	-0.40144828
72	0x3db4a6f1	0.08820904
73	0x3f1a0433	0.6016266
74	0x3ef8dd7a	0.48606473
75	0x3efeaba9	0.4974034
76	0x3e36c5a8	0.17848837
77	0xbe8ec600	-0.27885437
78	0xbec6c2de	-0.38820547
79	0x3e82414d	0.25440446
80	0x3ec80c01	0.39071658
81	0xbd805e3c	-0.06267974
82	0x3cdafdd1	0.026732357
83	0xbcd872c3	-0.02642191
84	0xbe81449f	-0.25247666
85	0x3dad5615	0.084636845
86	0x3e88a852	0.26690918
87	0xbd46ec55	-0.048565228
88	0x3c73b57b	0.014874811
89	0xbe628029	-0.22119202
90	0x3ea9978a	0.33123428
91	0x3ebb64b9	0.36600283
92	0x3e86542b	0.2623609
93	0xbf13f41a	-0.57794344
94	0x3df9477e	0.12171839
95	0x3e35b296	0.17743906
96	0x3ece8e5c	0.40342987
97	0x3f25666b	0.646094
98	0x3f5dfe3d	0.8671606
99	0xbe953415	-0.29141298
100	0xbda9e607	-0.08295827
101	0x3dc36b07	0.09541898
102	0xbd0ce987	-0.034402397
103	0x3d2684bf	0.04065394
104	0x3efa6d4a	0.48911506
105	0xbf6a25f2	-0.9146415
106	0xbe95a857	-0.29229996
107	0x3ea56f03	0.32311258
108	0x3e831efc	0.25609577
109	0x3f4498fd	0.7679594
110	0x3faa8f6d	1.332502
111	0x3db192d2	0.08670582
112	0xbec6aebe	-0.38805193
113	0xbf797694	-0.9744656
114	0xbf645d4f	-0.8920488
115	0xbe46721d	-0.19379468
116	0x3e3393b8	0.17536819
117	0x3f8961ea	1.0733006
118	0x3f185ec3	0.59519595
119	0x3e735f92	0.23766926
120	0x3f1bd8de	0.6087779
121	0x3eae2c0d	0.34017983
122	0xbd133f09	-0.035948787
123	0x3ec02953	0.37531528
124	0x3db73d54	0.08947244
125	0xbe766529	-0.24062027
126	0xbf2af3cc	-0.66778255
127	0x3ed64eb4	0.4185692
128	0xbc8a00f5	-0.01684616
129	0xbe985a4b	-0.29756388
130	0xbeee3c92	-0.46530586
131	0xbf4ca410	-0.7993784
132	0xbddde79d	-0.10835192
133	0xbf2c1c64	-0.6723082
134	0xbf7c4260	-0.9853878
135	0xbf0b587e	-0.54431903
136	0x3d344db1	0.044019405
137	0x3f3fbf88	0.7490163
138	0x3cde38fb	0.02712678
139	0x3f2cb08d	0.67456895
140	0x3f593a3c	0.84854484
141	0x3ecfc71c	0.40581596
142	0xbe5a28aa	-0.21304575
143	0xbf59a8bb	-0.8502309
144	0xbe25f347	-0.16206084
145	0x3de5bec1	0.11218024
146	0x3e676fbb	0.22601216
147	0xbf1dd7ea	-0.61657584
148	0xbf03a7d9	-0.5142799
149	0xbd0ca0ff	-0.034333225
150	0x3f12f0d9	0.57398754
151	0x3da9a12b	0.082826935
152	0xbf0d332c	-0.5515621
153	0xbd9011e2	-0.07034661
154	0x3ea41544	0.32047474
155	0x3f116418	0.56793356
156	0xbe88daf0	-0.26729536
157	0x3c214f9b	0.00984564
158	0x3dd86305	0.105657615
159	0xbebd2548	-0.36942506
160	0xbe21ab54	-0.15788013
161	0xbe932cf6	-0.2874524
162	0xbf222512	-0.63337815
163	0xbf17bb3c	-0.5927007
164	0xbf79449a	-0.973703
165	0xbe1f5bcb	-0.1556236
166	0x3e566ab2	0.20939139
167	0xbe9c8baf	-0.3057532
168	0xbd1e7df0	-0.038694322
169	0x3f1e5eb5	0.6186326
170	0x3f611686	0.87924993
171	0x3da12110	0.07867634
172	0xbe16cf17	-0.14727436
173	0xbe4aa91c	-0.19791073
174	0xbe844512	-0.25833946
175	0xbc874720	-0.016513407
176	0xbc8e0069	-0.01733418
177	0xbf0db39e	-0.553522
178	0xbeaa1afc	-0.33223712
179	0xbe71ccde	-0.23613307
180	0xbe411f56	-0.1885961
181	0xbd992350	-0.074774384
182	0x3e79a10e	0.24377844
183	0xbf2bc0cf	-0.6709108
184	0xbc08899e	-0.008333592
185	0x3f10e140	0.56593704
186	0x3f680c19	0.9064346
187	0x3e9647b3	0.29351577
188	0x3f177148	0.5915723
189	0xbe52a503	-0.2057076
190	0x3dead51c	0.11466429
191	0x3f28c330	0.6592283
192	0xbe795381	-0.2434826
193	0x3ebfa752	0.37432343
194	0xbe38d3ce	-0.18049547
195	0xbe9e043e	-0.30862612
196	0x3ec067ab	0.37579092
197	0x3f41b217	0.7566237
198	0xbe863519	-0.26212385
199	0xbf0eb195	-0.5573972
200	0xbded2f01	-0.11581231
201	0xbf3d9b8f	-0.7406549
202	0x3dd466a7	0.10371142
203	0x3e60fce2	0.21971467
204	0xbea4b0af	-0.3216605
205	0xbe04390c	-0.12912387
206	0x3e1a5911	0.15073039
207	0x3e3f5bee	0.18687412
208	0x3f53dbdc	0.82757354
209	0x3e947e75	0.2900273
210	0x3c773c74	0.015090097
211	0xbedb9c6e	-0.42892784
212	0x3eafa8f5	0.3430859
213	0xbf093ff5	-0.53613216
214	0xbe23eec5	-0.16009052
215	0xbde73943	-0.11290219
216	0xbf4bdda7	-0.7963509
217	0xbe8aff97	-0.27148125
218	0xbf26700f	-0.6501474
219	0x3ca40c60	0.020025432
220	0x3ec0d078	0.3765905
221	0x3e81b02b	0.25329718
222	0x3f065d74	0.5248635
223	0x3f3e6b0f	0.7438211
224	0x3ed5185f	0.41620156
225	0x3edfc85f	0.4370756
226	0xbeacce2f	-0.33751056
227	0xbf1959d1	-0.59902674
228	0x3f93de04	1.1552129
229	0x3f4cfbcd	0.8007172
230	0x3cbb14a5	0.022836993
231	0xbea96497	-0.33084556
232	0xbf58068a	-0.8438498
233	0xbf7b76c9	-0.98228127
234	0xbeec4324	-0.46144974
235	0xbe89245b	-0.2678555
236	0x3e0e2030	0.13879466
237	0xbe705140	-0.23468494
238	0x3d2b1b32	0.041773982
239	0x3e833639	0.25627306
240	0x3ec49d9a	0.3840149
241	0x3e1f8ca3	0.15580992
242	0xbaa364a6	-0.0012465909
243	0x3eeecbab	0.4663976
244	0xbed18864	-0.4092437
245	0xbedd13c2	-0.43179137
246	0xbcc195b4	-0.023630954
247	0x3f4559f4	0.7709038
248	0x3f32cff7	0.6984858
249	0xbefea5a1	-0.4973574
250	0xbef4998d	-0.477734
251	0xbe920364	-0.28518212
252	0xbec7e783	-0.39043817
253	0xbdb1282e	-0.08650242
254	0x3f1bc1b5	0.6084245
255	0xbe43cfbe	-0.19122216

layer3.0.bias f4 [64]
0	0xbdb84728	-0.08997947
1	0xbda1fe8b	-0.07909878
2	0xbbc906f2	-0.006134861
3	0x3df21da0	0.11822057
4	0xbda7ab2d	-0.08186946
5	0xbd7b44de	-0.061344974
6	0x3d1a1c8f	0.03762489
7	0xbdace6d0	-0.084424615
8	0x3e012676	0.12612328
9	0xbdf0b272	-0.11752786
10	0xbdd09d20	-0.10186219
11	0x3cc6c2ba	0.024262775
12	0xbda65c47	-0.08123069
13	0x3d5f90a0	0.054581285
14	0x3d44ef25	0.04807963
15	0xbde97edc	-0.1140115
16	0xbd835f9b	-0.0641472
17	0x3da34ae5	0.079732694
18	0x3dea8871	0.114518054
19	0x3e796110	0.24353433
20	0xbd3576c4	-0.044302717
21	0xbcaaa92f	-0.020832626
22	0xbd70bba8	-0.058772713
23	0x3e37cb7c	0.17948717
24	0xbd444ca9	-0.04792467
25	0x3c29caef	0.010363325
26	0x3d174fb8	0.03694126
27	0xbcf9ffa6	-0.03051741
28	0xbdb3f25a	-0.08786459
29	0x3ccda2fc	0.025102131
30	0x3da1461e	0.07874702
31	0x3db19d1b	0.086725436
32	0xbe02a847	-0.12759505
33	0xbe1641d8	-0.14673555
34	0xbe07b455	-0.13252385
35	0xbc82e747	-0.015979422
36	0x3c0abd32	0.008467959
37	0xbcc840f3	-0.024445033
38	0x3d5581fa	0.05212591
39	0xbd8a6033	-0.0675663
40	0xbc7d0ca1	-0.0154449055
41	0xbda80208	-0.082035124
42	0xbe409403	-0.18806462
43	0xbd74caea	-0.059763826
44	0xbdbbf541	-0.09177638
45	0x3db2f6d7	0.08738487
46	0x3e2d8a94	0.16947395
47	0x3d64d208	0.055864364
48	0x3da2b458	0.07944554
49	0xbd5ca4b3	-0.053868007
50	0xbd42de8d	-0.047575522
51	0x3db3b021	0.08773828
52	0x3bf97fed	0.007614127
53	0x3bd49d97	0.0064885127
54	0x3d817cde	0.06322645
55	0xbda74d40	-0.08169031
56	0x3cded0c8	0.027199164
57	0xbc894e86	-0.016761076
58	0x3dbde2ff	0.09271812
59	0x3d73eaac	0.059549972
60	0x3e7c36d5	0.24630292
61	0xbe14d946	-0.14536008
62	0xbe1e86f6	-0.15481171
63	0x3d012167	0.031525996

layer3.1.weight f4 [64]
0	0x4100f4e8	8.059792
1	0x4037a225	2.8692715
2	0x41085d93	8.522845
3	0x40952cd0	4.6617203
4	0x40c18af9	6.0482144
5	0x408329a2	4.098832
6	0x40b8d829	5.7763867
7	0x410468e7	8.275611
8	0x40d48902	6.6417246
9	0x40d2ac10	6.5835037
10	0x40efb94f	7.4913707
11	0x4136fef4	11.437244
12	0x40c0c9b8	6.024624
13	0x412a6952	10.650713
14	0x4099bf18	4.804577
15	0x40d0743e	6.5141897
16	0x4119bf96	9.609274
17	0x409a2611	4.817147
18	0x40ab2e23	5.349382
19	0x40ab0f0d	5.3455873
20	0x40ab5f5f	5.355392
21	0x40b25238	5.5725365
22	0x40d1b670	6.55352
23	0x40b6e6dc	5.715681
24	0x40771e49	3.8612235
25	0x40874c4b	4.228063
26	0x4081e0dc	4.0586987
27	0x40ba4fb7	5.822231
28	0x40d441d8	6.6330376
29	0x40f267e7	7.5751834
30	0x40a8b7aa	5.27242
31	0x4081dc15	4.0581155
32	0x4105412d	8.328412
33	0x40933225	4.599871
34	0x40c30f13	6.09559
35	0x40db326a	6.849904
36	0x40cb42b3	6.351892
37	0x410e8a63	8.908786
38	0x40a02154	5.0040684
39	0x40949b78	4.643978
40	0x4056102c	3.344737
41	0x4103911b	8.222926
42	0x414d1bdf	12.819304
43	0x41237191	10.215226
44	0x416a1c1b	14.631862
45	0x4119b34d	9.606275
46	0x4100d430	8.051804
47	0x41177ad7	9.46749
48	0x40d72369	6.7230725
49	0x41189a75	9.537709
50	0x40c77476	6.2329664
51	0x408ec069	4.4609876
52	0x40b54ccf	5.665626
53	0x409fc64a	4.992955
54	0x40a12ebb	5.0369544
55	0x40b611a1	5.689652
56	0x40afc666	5.4929686
57	0x40f37a18	7.608654
58	0x40b1094f	5.5323863
59	0x4059957b	3.3997486
60	0x4089d2de	4.3069906
61	0x4062644a	3.5373712
62	0x4090e34d	4.5277467
63	0x40e53537	7.162746

layer3.1.bias f4 [64]
0	0xbd156d97	-0.036481466
1	0xbe57cf6c	-0.21075219
2	0xbdb7d70c	-0.08976564
3	0x3f0395fc	0.51400733
4	0xbe9c04fc	-0.30472553
5	0x3f1dd237	0.6164889
6	0x3e778b8c	0.24174327
7	0x3d937b06	0.07201199
8	0xbe5f23ac	-0.21790951
9	0x3f175619	0.5911575
10	0x3eba181a	0.36346513
11	0x3ddf7610	0.109111905
12	0xbe71d7a0	-0.2361741
13	0x3d054b18	0.032542318
14	0x3f05a137	0.5219912
15	0x3ed837d6	0.422301
16	0xbe04f42e	-0.12983772
17	0xbdc480f1	-0.09594906
18	0x3ea9513a	0.33069783
19	0x3e8db06f	0.2767367
20	0xbe122592	-0.14272144
21	0x3e9a39f6	0.30122346
22	0xbdbc4afe	-0.09193991
23	0x3cfc09ca	0.030766387
24	0x3f05616f	0.52101797
25	0x3edef2ec	0.4354471
26	0xbea73553	-0.3265787
27	0x3dffa192	0.12481989
28	0x3c056cef	0.008143648
29	0x3e679911	0.22616984
30	0xbe9ded4a	-0.308451
31	0xbe66fd49	-0.22557558
32	0xbcd930d0	-0.026512533
33	0xbf0e2d3e	-0.55537784
34	0xbeddd6b4	-0.43327868
35	0x3da665c4	0.08124879
36	0x3ec10fff	0.37707517
37	0xbece5be7	-0.4030449
38	0xbf078a3a	-0.5294529
39	0x3f12b304	0.57304406
40	0xbeded8b2	-0.435247
41	0x3e3ab724	0.18233925
42	0xbd174647	-0.036932256
43	0xbe1d31e8	-0.15351069
44	0xbc8c9bc7	-0.017164124
45	0xbe171946	-0.14755735
46	0x3e72bcd8	0.2370485
47	0xbe98395c	-0.29731262
48	0x3e1e001f	0.15429734
49	0x3c04db54	0.0081089325
50	0x3e664110	0.22485757
51	0x3ecb8bae	0.39755005
52	0x3d8711ba	0.06595178
53	0x3e854701	0.26030734
54	0xbe1c59e9	-0.15268673
55	0x3e65d173	0.2244318
56	0x3f0582c0	0.52152634
57	0xbd8815a3	-0.06644752
58	0xbecc38d8	-0.39887118
59	0x3e96fb20	0.29488468
60	0xbf104bf7	-0.56365913
61	0x3e7e0274	0.24805623
62	0x3e8ff2bb	0.28114876
63	0xbde16b92	-0.110068455

layer3.1.running_mean f4 [64]
0	0xc143a685	-12.228154
1	0xc08f4ba9	-4.477986
2	0x3fb3d354	1.4048867
3	0x40e5f8e4	7.186632
4	0xbeffe4b9	-0.4997919
5	0xc098be73	-4.773248
6	0xbf088009	-0.53320366
7	0xc0cd12ed	-6.4085603
8	0xbf652eb7	-0.89524406
9	0x4191cb60	18.224304
10	0xbf4cea15	-0.8004468
11	0x406fe214	3.7481737
12	0xc097b7af	-4.7411723
13	0x410f4b7c	8.955929
14	0x406e0799	3.7192137
15	0x40f66419	7.699719
16	0xc0cf97ef	-6.4872966
17	0x3d0efd1c	0.034909353
18	0x40ec9396	7.393016
19	0x4049669f	3.1468885
20	0xbf0339de	-0.51260173
21	0x408fd5a3	4.4948287
22	0xbfa993f2	-1.3248274
23	0x3f7f6cd2	0.9977542
24	0x405c90f5	3.4463475
25	0xc0064cfc	-2.0984488
26	0x4055105c	3.3291235
27	0x3fe7a3b4	1.8096833
28	0x40f7721b	7.732679
29	0x40058687	2.086336
30	0xc14026de	-12.009489
31	0xc0526977	-3.287687
32	0x3fb77ae6	1.4334381
33	0xbf160104	-0.585953
34	0x40675645	3.6146405
35	0xc18097fc	-16.074211
36	0xbf016103	-0.50538653
37	0xc08e541f	-4.4477687
38	0xc06c7fd8	-3.695303
39	0x3f851fd9	1.0400344
40	0xc10012a8	-8.004555
41	0xc07bb0f8	-3.9326763
42	0x410bd270	8.738876
43	0x40963c52	4.6948633
44	0x40e07388	7.014103
45	0x40c90f45	6.283114
46	0xc1215a8f	-10.084609
47	0xc15fe630	-13.993698
48	0x40ab4cde	5.353133
49	0x40b054e2	5.5103617
50	0x40d1c35f	6.555099
51	0x40a91368	5.283619
52	0xbfc9f5da	-1.5778153
53	0xc09305a5	-4.594439
54	0xc0b5dc7d	-5.683165
55	0xc13587ec	-11.345684
56	0x3f998455	1.199351
57	0xc1033ef4	-8.202869
58	0xc121d95e	-10.115568
59	0x402eaedb	2.7294223
60	0x408dae9f	4.427566
61	0x41329427	11.16117
62	0x400fdfcd	2.2480347
63	0x40c4dc32	6.1518793

layer3.1.running_var f4 [64]
0	0x4137f6f7	11.497794
1	0x41437f52	12.218584
2	0x4186eb20	16.864807
3	0x41fec0a8	31.84407
4	0x4185fb92	16.747837
5	0x40b351b8	5.6037254
6	0x4168a1e1	14.539521
7	0x41cbc350	25.470367
8	0x41f23b0e	30.278835
9	0x415f7a5e	13.967375
10	0x410dc610	8.860855
11	0x413e96ec	11.911846
12	0x41bc2158	23.516281
13	0x41d6b605	26.838877
14	0x41a9095e	21.129574
15	0x409d0fe1	4.9081883
16	0x4167817b	14.469111
17	0x4199490e	19.160671
18	0x41261ee7	10.3825445
19	0x41b0d10d	22.102076
20	0x418a1677	17.26097
21	0x41bd3ec6	23.655651
22	0x410792be	8.473326
23	0x41311804	11.068363
24	0x4184930c	16.5718
25	0x41add274	21.72776
26	0x40a6fd44	5.218416
27	0x415e745f	13.903411
28	0x41b54aaf	22.661467
29	0x413c6ad9	11.776086
30	0x41430cec	12.190655
31	0x4146f979	12.435906
32	0x4172bbec	15.170879
33	0x414e76a6	12.903967
34	0x4126b2a9	10.418618
35	0x41789450	15.536209
36	0x41b5892d	22.69198
37	0x41847f9c	16.56231
38	0x4171dc12	15.116228
39	0x418ee2d5	17.860758
40	0x411715b4	9.442799
41	0x4197ea30	18.98935
42	0x4148d4c2	12.551943
43	0x41a46b60	20.55243
44	0x41605d32	14.022753
45	0x414518bf	12.318542
46	0x41320dd6	11.128378
47	0x41776a59	15.463464
48	0x416cf272	14.809191
49	0x414beb38	12.744926
50	0x418f64db	17.924246
51	0x41087348	8.528145
52	0x419f91a7	19.94612
53	0x41c8fe7c	25.12426
54	0x4112ece2	9.182833
55	0x4205c47b	33.441875
56	0x41bb581e	23.418026
57	0x415718ab	13.443522
58	0x425ff6e5	55.991108
59	0x4188060e	17.002956
60	0x4134ca55	11.299397
61	0x4184fe7b	16.624258
62	0x4149f25e	12.621672
63	0x41ed29b5	29.645365

layer5.0.weight f4 [10, 64]
0	0xc053ba54	-3.3082476
1	0x3fa6eeba	1.3041604
2	0x3f75bbfa	0.95989954
3	0xbf51eaa0	-0.81998634
4	0xbe945c11	-0.2897649
5	0xc0b4713e	-5.6388235
6	0xbe5050f0	-0.20343375
7	0xbf50d150	-0.81569386
8	0x40706ec2	3.7567601
9	0x3fa10552	1.2579749
10	0x3eda61b5	0.4265267
11	0x4029258a	2.6429162
12	0x3f8a2596	1.079272
13	0x403e4ca0	2.9734268
14	0xbfef0448	-1.8673182
15	0x4110c615	9.04836
16	0xc012bb06	-2.292665
17	0x3e17dc63	0.14830165
18	0x404dbbcd	3.2145875
19	0xbfc2368f	-1.51729
20	0x3faf65e7	1.3702973
21	0x3f12dfb5	0.573726
22	0x3f51dc8e	0.81977165
23	0x40943653	4.6316314
24	0xc01ca685	-2.4476635
25	0xbfcabd0a	-1.583894
26	0x3f006c4a	0.50165236
27	0x3f6aedb8	0.9176898
28	0x3d8b2d98	0.06795806
29	0x3f848599	1.0353271
30	0xc0395a14	-2.896123
31	0xbc831a07	-0.016003622
32	0x3f25a9bf	0.64712137
33	0x3ec6d32c	0.38832986
34	0xbd66f0c9	-0.056381974
35	0xbf8047da	-1.0021927
36	0x3e8d4d41	0.27598003
37	0x41277d09	10.468026
38	0xbee38368	-0.44436193
39	0xc0ae86be	-5.453948
40	0xbd5008de	-0.050789706
41	0xbf0548e7	-0.52064365
42	0x3ff203ce	1.8907411
43	0x406cc7e3	3.6997
44	0x40962ffc	4.6933575
45	0x3f5ff914	0.8748944
46	0xc0d216d4	-6.5652866
47	0xc0dbf7f4	-6.8740177
48	0xbf9e9d52	-1.239176
49	0x407f87a5	3.992654
50	0x3e00adda	0.12566319
51	0x3f0c47a8	0.5479684
52	0xbfa57e75	-1.2929217
53	0x3dd4a699	0.103833385
54	0xbf67ac54	-0.90497327
55	0xc112ebb2	-9.182543
56	0x3feac379	1.8340904
57	0xbf355c02	-0.7084352
58	0x3ebe9c17	0.37228462
59	0xbf077026	-0.529055
60	0x40eb1f00	7.347534
61	0x3f917dcf	1.1366519
62	0xc041c84f	-3.0278509
63	0x400e3360	2.2218857
64	0x40f5dc44	7.683138
65	0x3de9261e	0.113842234
66	0x403f38bf	2.9878385
67	0x3f2f3043	0.68433017
68	0x3f5d8f44	0.8654673
69	0x3dfdd0f7	0.123933725
70	0x3f0e8e35	0.5568574
71	0x4022efcb	2.5458858
72	0xc04d881d	-3.2114327
73	0xc04f2e1d	-3.2371895
74	0x3fd577ef	1.6677226
75	0xbf85f68e	-1.0465868
76	0xbf6b5f87	-0.9194264
77	0xc083215e	-4.097823
78	0xc020290f	-2.502506
79	0xc090c69e	-4.5242453
80	0xc083592d	-4.1046357
81	0x3ea90385	0.33010498
82	0x402eaf18	2.7294369
83	0x4033864f	2.8050725
84	0x407065c7	3.756212
85	0xc04ec94c	-3.2310362
86	0x3f7f1d77	0.99654335
87	0x40985139	4.759915
88	0xbf53fb42	-0.82805264
89	0x3fdc7d9e	1.7225835
90	0x3dd93407	0.106056266
91	0x408b41c9	4.3517804
92	0xbf809659	-1.0045882
93	0xbf7a705d	-0.978277
94	0x40c51585	6.158877
95	0x3f94fe69	1.164014
96	0xbf9b0180	-1.2109833
97	0xbc8df5b4	-0.017329074
98	0x4048214f	3.127033
99	0x3e84ab0c	0.25911748
100	0x400f6772	2.2406888
101	0x40386baf	2.8815725
102	0xc03b5e9e	-2.92765
103	0x3f41b2b6	0.75663316
104	0xbe73d373	-0.2381113
105	0x40214441	2.519791
106	0x40d49b3b	6.643949
107	0x40a2c5d5	5.0866494
108	0x3e0541b6	0.13013348
109	0x41104cbf	9.018737
110	0xbf46db52	-0.77678406
111	0x3ffc3f31	1.9706784
112	0x3f051aa5	0.5199378
113	0x40cb1270	6.3460007
114	0x4019faa9	2.405924
115	0x3fa9f97a	1.3279259
116	0x3ff2af22	1.8959696
117	0xbe8cce86	-0.27501315
118	0xc04cf352	-3.202351
119	0xbee8acb9	-0.45444277
120	0xbfb26aff	-1.3938903
121	0xbfb36a18	-1.4016752
122	0xc0802a5a	-4.00517
123	0x3ebb6ee5	0.36608043
124	0x3f9c9554	1.2233071
125	0xbe83bce6	-0.25730056
126	0xc0c417bf	-6.1278987
127	0xbf29c6b8	-0.66318846
128	0xbf9888aa	-1.1916707
129	0x3fab7b1f	1.3396949
130	0xbff8f572	-1.9449904
131	0xc03cc42e	-2.9494739
132	0xbf569ba0	-0.83831215
133	0xc006d8ce	-2.1069827
134	0x3f91acd2	1.1380866
135	0x40360a5d	2.8443825
136	0x407cb143	3.9483192
137	0xbf289d4d	-0.6586502
138	0xc0f0d455	-7.5259194
139	0xc025d9e1	-2.5914233
140	0xbeda365e	-0.42619604
141	0x40cade0f	6.339607
142	0xbfdaf79e	-1.7106817
143	0xbfc3de45	-1.5302206
144	0xc066adb0	-3.604351
145	0x3f8db68f	1.1071337
146	0xbf248860	-0.6427059
147	0xc0955815	-4.667002
148	0x4096ff9b	4.718702
149	0xc022d53a	-2.5442643
150	0xbfe99dbc	-1.8251262
151	0xbe745d1b	-0.23863642
152	0xc0176d70	-2.3660545
153	0x3f7bd354	0.98369336
154	0x40b39311	5.6117024
155	0xc0c980ee	-6.2969885
156	0xbffc22e5	-1.9698149
157	0x3f36b2c4	0.71366525
158	0x4075856a	3.836268
159	0x3db99701	0.09062005
160	0x3f953add	1.1658589
161	0x3f9c98d8	1.2234144
162	0xbfc9a011	-1.5751973
163	0xbf3ea150	-0.74464893
164	0x3f840fa8	1.0317278
165	0x405512ab	3.3292644
166	0xbf55ed12	-0.83564866
167	0x3f96f035	1.1792055
168	0x4002775b	2.0385349
169	0x3f7d1fe8	0.9887681
170	0xbf5e388e	-0.86805046
171	0xc051b164	-3.276452
172	0xc077b06f	-3.8701437
173	0xbfdb0dde	-1.7113607
174	0x3e9e0dc0	0.30869865
175	0xbfc79b38	-1.5594244
176	0xc0460dd0	-3.094593
177	0xbef24210	-0.47316027
178	0xbec24925	-0.3794643
179	0xbfbf9f5b	-1.4970506
180	0x3ef9f893	0.4882246
181	0xbdbe87ce	-0.093032464
182	0x3f6a0b79	0.91423756
183	0xbe46f62a	-0.19429842
184	0xbe875878	-0.26434684
185	0xbff357c5	-1.901116
186	0x3ffd1e25	1.9774824
187	0xc0021cff	-2.0330198
188	0xbe8acd25	-0.27109638
189	0xbf5cccc9	-0.8624998
190	0x3ea303f1	0.31838945
191	0xbff731b8	-1.9312048
192	0x40098649	2.148821
193	0x3f83af62	1.0287898
194	0x40808e21	4.0173497
195	0x3faaaa53	1.3333229
196	0x405637e4	3.3471613
197	0xbeb40d5d	-0.35166445
198	0xc0af061d	-5.4694963
199	0xc07a686d	-3.9126236
200	0x4008b01f	2.1357496
201	0x4013b62f	2.3079946
202	0xc00ea8fc	-2.229064
203	0xc026db6b	-2.6071422
204	0xbf363900	-0.71180725
205	0xbf7f7a33	-0.99795836
206	0xbf91cafc	-1.1390071
207	0xbfec71ad	-1.8472191
208	0x3fcf4442	1.6192706
209	0xbf2c2bb4	-0.67254186
210	0xbda03678	-0.07822889
211	0xbfca2117	-1.5791348
212	0xbf605352	-0.87627137
213	0xbfeb175d	-1.8366505
214	0x3e0cff85	0.13769348
215	0xbf5b092e	-0.8556088
216	0xbfd65b9a	-1.6746705
217	0xbfd1261a	-1.6339753
218	0xbe6e454e	-0.23268625
219	0xbf8b96ec	-1.0905433
220	0xbcf42799	-0.029804038
221	0xc096f3e1	-4.7172704
222	0x3fed0eab	1.8520101
223	0x3f159a7c	0.5843885
224	0xc00dda22	-2.2164388
225	0x40d1cbd7	6.556133
226	0x4068c204	3.6368418
227	0xc028290d	-2.6275055
228	0x3e4cba4a	0.19992939
229	0x3f4b4e7a	0.7941662
230	0x40942871	4.6299367
231	0x3f24824f	0.64261335
232	0x4093eeb7	4.62289
233	0xc0a16824	-5.0439625
234	0x3f9d026d	1.2266365
235	0xbfb6376d	-1.4235665
236	0x40a2e960	5.090988
237	0x402b557d	2.6770928
238	0xc0d03f56	-6.5077314
239	0x3fe028b0	1.7512417
240	0xbf395d73	-0.7240822
241	0xbf437dcb	-0.7636382
242	0x3fb4d1a6	1.412648
243	0xc113b119	-9.230737
244	0xc0578610	-3.3675575
245	0x4004fa02	2.0777593
246	0x3fa39ada	1.2781632
247	0x3f5bb8a5	0.8582862
248	0xc08abdab	-4.335653
249	0x3f96a6d5	1.1769663
250	0x4036897d	2.8521416
251	0xbfef1760	-1.8679008
252	0x40051156	2.079183
253	0x3f210b0b	0.62907475
254	0xbee90cc3	-0.4551755
255	0x3fd14b6e	1.6351144

layer5.0.bias f4 [10]
0	0xbfafbfd8	-1.3730421
1	0xbf2ab660	-0.6668453
2	0xbf1ced6b	-0.6129977
3	0xbf9958ed	-1.1980263
4	0xbf3e20b6	-0.7426866
5	0xbf0550b0	-0.52076244
6	0xbed867c5	-0.4226667
7	0xbfb34703	-1.4006046
8	0xbe8d04bc	-0.27542675
9	0xbf9f47f7	-1.2443837
