GSTENG_Datasets/v-net_ks=3_lr=0.001_epoch=100_tanh2.pth (torch, 45317 bytes, 20 tensors)

layer1.0.weight f4 [16, 6, 3]
0	0xbc4f4c19	-0.01265242
1	0xbb065c6d	-0.0020501867
2	0xba2987cc	-0.00064670737
3	0x3d78fdd3	0.06078894
4	0x3de50319	0.111822315
5	0x3ddb4b24	0.10707691
6	0x3bada54c	0.005299246
7	0x3c80e602	0.015734676
8	0x3cc3fd5b	0.02392452
9	0xbf28ef01	-0.6598969
10	0xbefd96e4	-0.49529183
11	0xbec3874a	-0.38189155
12	0xbe139849	-0.14413561
13	0x3e507366	0.20356521
14	0x3d8d9fa0	0.06915212
15	0x3f4177a3	0.75573176
16	0x3f8e4107	1.1113595
17	0x3f1a3717	0.6024031
18	0x3f3e3cea	0.743117
19	0x3f4342ef	0.7627401
20	0x3f92075a	1.1408494
21	0x3e6d42d5	0.23170026
22	0x3d50567b	0.050863724
23	0x3d8c4c28	0.06850463
24	0x3e96e60b	0.29472384
25	0x3e6573c8	0.22407448
26	0x3e8f3247	0.27968046
27	0xbec1dd50	-0.3786416
28	0xbeac5ecc	-0.33666074
29	0xbe86c33b	-0.26320824
30	0xbe4b9273	-0.19880085
31	0xbd3c44f4	-0.045964196
32	0xbea74d06	-0.32675952
33	0x3e5d6add	0.21622796
34	0xbe1b8a45	-0.15189464
35	0xbe85c138	-0.26123977
36	0xbcabfd73	-0.020994877
37	0x3d0b08d2	0.03394396
38	0x3d04106a	0.032242216
39	0x3d3c9037	0.04603597
40	0xbc9fda37	-0.019513233
41	0xba640f5e	-0.00086997997
42	0x3bbbc345	0.005730065
43	0x3cbce98e	0.023060586
44	0x3d1d19e5	0.038354773
45	0xbf3b2640	-0.7310524
46	0xbe9407c2	-0.2891217
47	0xbd92928f	-0.0715686
48	0xbf162af4	-0.5865929
49	0x3e0c56a0	0.1370492
50	0x3f6a9bf6	0.9164423
51	0xbf8362ed	-1.0264565
52	0xbe39a04a	-0.18127552
53	0x3f6cf790	0.9256525
54	0x3e2929dc	0.16519874
55	0x3de72331	0.11286009
56	0xbbc2b16b	-0.00594156
57	0x3c081f24	0.008308206
58	0x3c89c340	0.016816735
59	0x3ccdb9f9	0.025113093
60	0x3dbc0a58	0.091816604
61	0x3aa48dd4	0.0012554475
62	0x3d170267	0.036867525
63	0x3d30ea39	0.043192122
64	0x3f14cec8	0.58128023
65	0x3f81b88e	1.0134447
66	0xbeeac4b0	-0.45853186
67	0xbf457bca	-0.7714201
68	0xbe7e8c86	-0.24858293
69	0xbea04814	-0.3130499
70	0xbf16ecd7	-0.5895514
71	0xbe52cba2	-0.20585492
72	0xbe33cfc2	-0.17559722
73	0xbdc12a78	-0.094319284
74	0xbe3b808c	-0.18310755
75	0xbf1514a7	-0.5823464
76	0xbf3a1486	-0.72687566
77	0xbf9bbda0	-1.2167244
78	0xbd2eca46	-0.04267337
79	0xbc66c395	-0.014084716
80	0xbd8f7f75	-0.070067324
81	0xbc21a8ca	-0.009866903
82	0x3f10ae82	0.5651628
83	0x3f46c6b2	0.77646935
84	0x3e9e4668	0.3091309
85	0xbd0e9c2f	-0.034816917
86	0x3e07335c	0.13203186
87	0x3e037395	0.1283706
88	0x3e164491	0.14674594
89	0x3e1f4732	0.15554503
90	0xbe19f9a9	-0.15036644
91	0xbe16fdaf	-0.1474521
92	0xbe0e45d6	-0.13893828
93	0x3f53f99b	0.8280274
94	0x3f8d01a4	1.1016126
95	0x3f2df35a	0.6794945
96	0xbbfd20c6	-0.007724854
97	0x3be47511	0.006971963
98	0xbd619729	-0.0550758
99	0x3f0baf3a	0.5456425
100	0x3e5723f8	0.21009815
101	0xbebb09fe	-0.3653106
102	0x3e5250cc	0.20538634
103	0xbe126143	-0.14294915
104	0xbe9cbbaa	-0.30611926
105	0x3e4f4765	0.20242079
106	0xbedc9e6e	-0.43089622
107	0xbf442ec8	-0.7663388
108	0x3e3cf71b	0.18453638
109	0x3e96fc5b	0.29489407
110	0x3e78f1a9	0.24310936
111	0xbf6ab375	-0.9168008
112	0xbf90bdb4	-1.1307893
113	0xbf680053	-0.90625495
114	0xbc54395e	-0.0129531305
115	0x3d176484	0.036961094
116	0xbc5cd5d7	-0.013478718
117	0x3d98c1e1	0.074588545
118	0xbd014295	-0.03155764
119	0xbf16d641	-0.58920676
120	0x3e90a5ff	0.28251645
121	0x3f187f02	0.595688
122	0x3eddd1cf	0.43324134
123	0x3e8248a0	0.25446033
124	0x3e010b71	0.12602021
125	0xbe62e529	-0.2215773
126	0xbf069c58	-0.5258231
127	0x3eaeaf05	0.34117904
128	0x3f257275	0.6462777
129	0xbe2d5ccb	-0.16929929
130	0xbe0781bd	-0.13233085
131	0xbdb6f075	-0.08932582
132	0xbe63e5cb	-0.22255628
133	0x3e1d898b	0.153845
134	0x3e8d8047	0.2763693
135	0x3ebfd622	0.37468058
136	0xbe55329e	-0.2082009
137	0xbeb1f28b	-0.34755358
138	0x3f07ffba	0.5312458
139	0xbd830697	-0.06397741
140	0x3d1da93d	0.038491476
141	0x3f845830	1.0339413
142	0x3d93b759	0.07212705
143	0xbed036d5	-0.40666834
144	0xbda07e78	-0.07836622
145	0x3ca1e9e5	0.01976485
146	0xbc9b39ca	-0.018948454
147	0xbf968f9b	-1.1762575
148	0xbfa59d7f	-1.2938689
149	0xbf81f7a9	-1.0153705
150	0xbdb124cd	-0.08649597
151	0xbdd5bfc1	-0.10436965
152	0xbd9dc8a0	-0.07704282
153	0xbd82f124	-0.0639365
154	0xbe5fe859	-0.21865977
155	0xbe6e1c79	-0.23253049
156	0xbe9fe7a0	-0.31231403
157	0xbf10691d	-0.5641039
158	0xbef813ba	-0.4845255
159	0x3e9e4fe8	0.3092034
160	0x3e963e29	0.293443
161	0x3e922199	0.28541258
162	0xbd5a4dc1	-0.05329681
163	0xbdc3a1c0	-0.09552336
164	0xbdd855e3	-0.105632566
165	0x3f8af44c	1.0855803
166	0x3f95d4a7	1.1705521
167	0x3f6427d4	0.8912327
168	0x3db82639	0.089916654
169	0xbbd6eb71	-0.0065588285
170	0xbc8694eb	-0.016428431
171	0xbdb7b577	-0.089701585
172	0x3d4d6e36	0.050153933
173	0x3f0c4005	0.54785186
174	0xbd12c20e	-0.035829596
175	0x3e99d241	0.30043224
176	0x3f171216	0.5901197
177	0xbe240127	-0.16016065
178	0x3d6f7528	0.05846134
179	0x3e6ac2b0	0.2292583
180	0xbeb428ca	-0.3518737
181	0xbe69649c	-0.22792286
182	0xbeba909d	-0.36438456
183	0x3eb1b59d	0.34708872
184	0x3f807e25	1.0038496
185	0x3f6bf3cc	0.9216888
186	0xbe7ae5c9	-0.24501719
187	0xbd231d04	-0.039822593
188	0xbd6aa6f3	-0.05728812
189	0xbe449137	-0.1919602
190	0xbf12ef8a	-0.5739676
191	0xbeb4ab89	-0.3528712
192	0x3e5acdcd	0.2136757
193	0x3f05e80d	0.52307206
194	0x3f004407	0.501038
195	0x3e92c14b	0.28663096
196	0x3e8321f4	0.25611842
197	0x3e8b3461	0.271884
198	0xbd87de34	-0.06634179
199	0xbd9a6acd	-0.07539902
200	0x3c009b90	0.007849589
201	0xbd125567	-0.035725977
202	0xbd55e3db	-0.052219253
203	0xbc9fb0fe	-0.019493576
204	0xbc26ab0d	-0.010172618
205	0xbce755b7	-0.028239114
206	0x3cd1d293	0.025613105
207	0xbe12f1e2	-0.14350083
208	0x3edac6ee	0.42729896
209	0xbe2efdb3	-0.17088966
210	0x3e02f0d6	0.12787184
211	0x3f8cad1f	1.0990332
212	0x3ebec28c	0.37257802
213	0xbf3e73e2	-0.74395573
214	0xc0000bf3	-2.0007293
215	0xbe9c27f9	-0.30499247
216	0xbcedc323	-0.029023713
217	0xbd28e9c2	-0.041238554
218	0xbd3e19e2	-0.046411403
219	0xbd266345	-0.040622015
220	0xbd171265	-0.036882777
221	0xbc0ea4e3	-0.008706304
222	0xbd10e30b	-0.035372775
223	0xbd0947c1	-0.033515695
224	0xbd2fe05d	-0.04293858
225	0x3edfc3c6	0.4370405
226	0x3f2641e1	0.64944273
227	0x3ed53d66	0.41648406
228	0xbf697b0d	-0.91203386
229	0xbf7e550d	-0.9934853
230	0xbfc29a01	-1.5203248
231	0xbd7bed38	-0.061505526
232	0x3dd1b895	0.10240284
233	0x3e8bf85f	0.2733793
234	0xbe32d728	-0.17464888
235	0xbba2f5a8	-0.004973132
236	0x3db961de	0.0905187
237	0xbbbda142	-0.0057870457
238	0x3c068cb2	0.008212255
239	0x3d4662ee	0.04843419
240	0xbd4d9f1c	-0.050200567
241	0x3ca23ac7	0.019803418
242	0x3d9724c8	0.07380062
243	0x3e8c44f8	0.2739637
244	0x3f0d584b	0.5521285
245	0x3f67a92f	0.9049253
246	0xbed88513	-0.42289028
247	0xbec7e375	-0.39040723
248	0xbe749d0a	-0.2388803
249	0xbe1da1f1	-0.15393807
250	0xbf4b1075	-0.79321986
251	0xbeb80b74	-0.35946238
252	0x3f07716b	0.5290744
253	0x3ea8c549	0.32963017
254	0x3ef192aa	0.47182208
255	0xbf1aa2a7	-0.6040444

layer1.0.bias f4 [16]
0	0x3ff8cbe2	1.943722
1	0xbd5e7135	-0.05430718
2	0xbbe540f4	-0.0069962684
3	0x3f5dc5b4	0.86629796
4	0xbeb11146	-0.3458349
5	0x3f16f690	0.58969975
6	0x400213fc	2.0324697
7	0x3f6410a2	0.8908788
8	0x3f436868	0.76331186
9	0x3ffef02a	1.9917042
10	0xbf042656	-0.51620996
11	0x3fb98522	1.4493754
12	0x4015c9f3	2.340451
13	0xbf277bfd	-0.65423566
14	0xbd09d758	-0.033652633
15	0xbedfc105	-0.4370195

layer1.1.weight f4 [16]
0	0x3f3ab5a8	0.72933435
1	0x3f36189f	0.7113132
2	0x3f6beb17	0.92155594
3	0x3f0e0ed1	0.5549136
4	0x3f48a2f9	0.78373677
5	0x3f1e8080	0.61914825
6	0x3eb7a862	0.35870653
7	0x3e993074	0.2991978
8	0x3f4126ff	0.7545013
9	0x3f2957d2	0.6614963
10	0x3ebc7309	0.36806515
11	0x3f4e351d	0.80549794
12	0x3f0f1b29	0.5590082
13	0x3f14226e	0.57865036
14	0x3ec76de4	0.38951027
15	0x3fc9313a	1.5718148

layer1.1.bias f4 [16]
0	0xbf5bcc76	-0.8585886
1	0xbf8f904f	-1.1215914
2	0x3f96c3cc	1.1778502
3	0x3f422ce6	0.7584976
4	0xbf9f0b31	-1.242529
5	0x3c0fb24f	0.008770539
6	0xbea2a73b	-0.31768212
7	0x3f173a0c	0.5907295
8	0xbf9d5b55	-1.2293497
9	0xbf62397c	-0.88368964
10	0x3ebfbbb0	0.37447882
11	0xbf30eb65	-0.69109184
12	0xbeb4d465	-0.35318294
13	0x3f019f46	0.50633657
14	0x3fcb1e07	1.5868539
15	0x3fb4191d	1.4070164

layer1.1.running_mean f4 [16]
0	0x3ffd7192	1.9800284
1	0xbd9eb6bc	-0.077496976
2	0x3d3061ca	0.04306201
3	0x3f53caf4	0.82731557
4	0xbedaefa5	-0.4276096
5	0x3f1d27b0	0.61388683
6	0x3fff0f88	1.9926615
7	0x3f5ad87b	0.85486573
8	0x3f501829	0.81286865
9	0x3ff9bc1d	1.9510533
10	0xbeed8443	-0.4638997
11	0x3fbab129	1.4585315
12	0x4016a060	2.3535385
13	0xbf319796	-0.69371927
14	0xbdc2658f	-0.09492027
15	0xbef5af22	-0.47985178

layer1.1.running_var f4 [16]
0	0x39d5547c	0.00040689472
1	0x3c6d31e5	0.014477228
2	0x3b0ff297	0.0021964663
3	0x3a979895	0.0011565859
4	0x3c031e35	0.008002807
5	0x3ad7f7ca	0.0016477045
6	0x3b18ff51	0.002334554
7	0x3ab7665d	0.0013992299
8	0x3b833ebe	0.004005282
9	0x3b6e578e	0.0036368105
10	0x3aac1607	0.0013129123
11	0x3a1b835e	0.0005932356
12	0x39a92ae5	0.0003226615
13	0x3a2f4b73	0.0006686963
14	0x3ab1c213	0.0013561867
15	0x3b2a657a	0.0026000426

layer2.0.weight f4 [32, 16, 3]
0	0x3f506414	0.8140271
1	0xbd7219fe	-0.05910682
2	0xbef72e2a	-0.48277408
3	0xbe8ad321	-0.27114204
4	0x3df9dfaf	0.122008674
5	0x3f0d523a	0.5520359
6	0xbe76d1a2	-0.24103406
7	0xbe53cea6	-0.20684299
8	0xbe6d50a5	-0.23175295
9	0xbe19273a	-0.1495637
10	0x3ea773c7	0.3270552
11	0xbc1ce85d	-0.009576884
12	0xbd5525ef	-0.05203813
13	0x3f0bb0a2	0.54566395
14	0x3f239359	0.6389671
15	0x3e3bbbeb	0.18333404
16	0x3c635cdc	0.01387712
17	0x3ea034c0	0.31290245
18	0x3e4ce0a4	0.20007569
19	0x3de0cb18	0.10976237
20	0x3d34be9b	0.044127088
21	0x3ee2788a	0.4423259
22	0x3ba3fd3e	0.005004554
23	0xbc3ab21b	-0.011395003
24	0x3e10673b	0.1410188
25	0xbe0c50ce	-0.137027
26	0x3e889cb1	0.26682046
27	0xbe8d3fec	-0.2758783
28	0xbf3f4d29	-0.7472711
29	0xbf654dba	-0.89571726
30	0x3eb44482	0.35208517
31	0xbebd59b1	-0.36982492
32	0xbebac9b5	-0.36482015
33	0xbf862413	-1.0479759
34	0xbe9c3b7f	-0.30514142
35	0x3dbea15a	0.09308119
36	0xbf3879e4	-0.7206099
37	0xbea920b1	-0.33032754
38	0x3e61b95c	0.22043365
39	0xbf14afc3	-0.5808069
40	0x3dafbf97	0.08581465
41	0x3e9222dc	0.2854222
42	0x3e8e19b8	0.27753997
43	0xbde0a102	-0.1096821
44	0xbe5256dc	-0.20540947
45	0xbda20f47	-0.0791307
46	0xbee1daa3	-0.4411212
47	0xbf255964	-0.64589524
48	0x3e92431e	0.2856683
49	0x3c37cced	0.011218292
50	0xbef60d39	-0.48056963
51	0xbe1774c8	-0.14790642
52	0x3d8ae9e6	0.06782894
53	0x3e05321f	0.13007401
54	0x3f34824a	0.70511305
55	0x3e9746d7	0.29546234
56	0xbe38ae1a	-0.18035164
57	0xbf242673	-0.6412117
58	0xbe9e2b78	-0.3089254
59	0xbd4063cd	-0.046970177
60	0xbdde1ff1	-0.10845936
61	0x3e9cb809	0.30609158
62	0x3e3781e4	0.17920643
63	0xbe48da7d	-0.19614597
64	0xbdf2b348	-0.118506014
65	0x3e5003bc	0.20313925
66	0x3f07a31f	0.5298328
67	0x3efde402	0.4958802
68	0x3f7e662e	0.99374664
69	0x3ed6802f	0.4189467
70	0x3e59a129	0.21252884
71	0x3e36110d	0.17779942
72	0xbf1259c4	-0.5716822
73	0xbf06931c	-0.5256822
74	0xbf261e95	-0.64890414
75	0x3e8cbe5e	0.2748899
76	0x3e9e7934	0.30951846
77	0x3e7aabb4	0.24479562
78	0x3e9f84f4	0.31156123
79	0x3eb571c7	0.35438368
80	0x3ea84b17	0.3286979
81	0x3f165723	0.5872671
82	0x3f05289f	0.5201511
83	0x3f473031	0.7780791
84	0x3eaaa76c	0.33330858
85	0x3e88d0db	0.26721844
86	0x3ebebddc	0.37254226
87	0xbf2338f4	-0.6375878
88	0xbecac572	-0.39603764
89	0xbeb06d4d	-0.3445839
90	0xbc917282	-0.017754797
91	0x3e1ebfcb	0.1550285
92	0x3e371019	0.17877235
93	0x3d66e575	0.05637117
94	0x3e27f4b3	0.16401939
95	0x3e438ad2	0.19095924
96	0xbe51323b	-0.20429318
97	0xbeb7fdab	-0.3593572
98	0xbd1b1500	-0.037861824
99	0xbca660b7	-0.02030979
100	0x3e34f67b	0.1767215
101	0x3ec2bce0	0.38034725
102	0xbe8ce66e	-0.27519554
103	0xbe50b04a	-0.20379749
104	0x3e7d2009	0.24719252
105	0xbefbee4f	-0.49205253
106	0xbe5b52e4	-0.21418339
107	0x3e99cdcf	0.30039832
108	0x3ebad7a6	0.36492652
109	0x3efa6b07	0.4890978
110	0x3f367d91	0.7128535
111	0xbf0f0e1b	-0.558809
112	0xbedae0ba	-0.42749578
113	0x3d883070	0.06649864
114	0x3d1530fd	0.036423672
115	0xbc5273c7	-0.012844986
116	0x3f1f362e	0.62192047
117	0x3e90556a	0.28190166
118	0xbda3774a	-0.07981737
119	0xbee7398b	-0.4516109
120	0xbf547b86	-0.8300098
121	0xbf09b2ab	-0.5378825
122	0xbdacf04e	-0.08444272
123	0x3f443cb1	0.7665511
124	0x3f289e12	0.65866196
125	0x3e9feb76	0.3123433
126	0x3da4a7de	0.080398306
127	0x3e10f630	0.14156413
128	0x3e6beb56	0.23038992
129	0x3ec4935f	0.38393685
130	0x3f28bbc5	0.65911514
131	0x3f4de29f	0.8042392
132	0x3ed11c4b	0.40841898
133	0x3efc9214	0.493302
134	0x3edf245d	0.4358243
135	0xbdb3c9dd	-0.08778737
136	0xbccdf45a	-0.02514093
137	0x3c2373b3	0.009976315
138	0x3cc57037	0.02410136
139	0xbe92646f	-0.2859225
140	0xbef72bf0	-0.4827571
141	0x3e255b65	0.16148145
142	0x3e487788	0.19576848
143	0xbcbb98af	-0.022899954
144	0x3f5fe4c0	0.8745842
145	0x3e5f1e14	0.21788818
146	0xbf2c80ef	-0.6738424
147	0x3f768fb4	0.96313024
148	0x3f005788	0.5013356
149	0xbddcca5a	-0.10780783
150	0xbebf72dd	-0.3739232
151	0xbef68373	-0.48147163
152	0xbe70c733	-0.23513488
153	0x3dd8a4c3	0.10578301
154	0xbe665ef7	-0.22497164
155	0xbeaddb48	-0.3395636
156	0xbe5d1d26	-0.2159315
157	0xbe08732b	-0.13325183
158	0xbec9487a	-0.39313108
159	0xbe88838f	-0.2666287
160	0xbe950a88	-0.29109597
161	0xbebf4395	-0.37356248
162	0xbf5beee2	-0.8591138
163	0xbf31cfec	-0.6945789
164	0xbf167def	-0.5878591
165	0x3cd7f74c	0.026363038
166	0xbdcea203	-0.10089495
167	0xbdc3294b	-0.095293604
168	0x3f4e176b	0.80504483
169	0x3e9174f5	0.28409544
170	0x3db2a57a	0.087229684
171	0xbf20efe1	-0.62866026
172	0xbea0841c	-0.3135079
173	0x3b609203	0.0034266717
174	0xbe0ef636	-0.1396111
175	0xbe86faaa	-0.26363117
176	0x3e03abf1	0.12858559
177	0xbf388e90	-0.72092533
178	0xbf076f2d	-0.52904016
179	0xbecd7efa	-0.40135938
180	0xbe8e72bf	-0.2782192
181	0x3d72176e	0.059104376
182	0x3da387a4	0.07984856
183	0x3d980165	0.07422141
184	0x3e7100ea	0.23535505
185	0x3ec3bf8d	0.3823208
186	0xbee87fc3	-0.45409974
187	0xbe9e97f7	-0.30975315
188	0x3e222410	0.15834069
189	0x3d2029b3	0.039102267
190	0x3dd65bfe	0.10466765
191	0xbe9b55ad	-0.30338803
192	0xbea1fa85	-0.31636444
193	0xbf055bed	-0.5209339
194	0xbf00f649	-0.503758
195	0xbe964e54	-0.29356635
196	0xbed490ee	-0.41516823
197	0xbed531ec	-0.4163965
198	0x3ea26803	0.3171998
199	0x3e37f227	0.17963468
200	0x3ee04849	0.4380515
201	0xbe077b19	-0.13230552
202	0xbe83bd32	-0.25730282
203	0xbe9003eb	-0.2812799
204	0xbdb10882	-0.08644201
205	0xbdd20be1	-0.10256172
206	0xbe014e47	-0.12627517
207	0x3e3c3c56	0.18382391
208	0x3ede4ded	0.43418828
209	0x3da5e55f	0.0810039
210	0x3f0ce495	0.5503629
211	0x3ec6b560	0.38810253
212	0x3d097702	0.03356076
213	0x3ef84710	0.48491716
214	0x3f22df74	0.6362221
215	0x3e4e40dc	0.2014193
216	0xbea5f9a9	-0.32417038
217	0xbe1a54e6	-0.15071449
218	0x3bd74ca9	0.006570418
219	0x3e57c29f	0.21070336
220	0xbed93846	-0.42425746
221	0xbe6c9790	-0.23104692
222	0xbe5504a3	-0.2080255
223	0xbe53a9bd	-0.20670219
224	0x3dd82032	0.10553016
225	0xbf5fbc7f	-0.87397
226	0xbf48efdf	-0.78491014
227	0xbe2e3a63	-0.1701446
228	0x3db104b0	0.08643472
229	0x3e86e684	0.26347744
230	0xbeb13998	-0.34614253
231	0xbe4e52d1	-0.2014878
232	0xbdd0ec25	-0.10201291
233	0xbdbc9a4a	-0.09209116
234	0x3e20d9d6	0.15708098
235	0xbe563600	-0.20919037
236	0xbe3e4069	-0.18579258
237	0xbeda7954	-0.4267069
238	0xbf097841	-0.5369912
239	0xbf171b00	-0.59025574
240	0x3e6c5b92	0.23081806
241	0x3f1a6680	0.6031265
242	0x3f882d26	1.0638778
243	0xbda3bfa2	-0.079955354
244	0xbe97a1c0	-0.29615593
245	0xbd54d63d	-0.051962126
246	0xbe32ce68	-0.1746155
247	0xbe8d114a	-0.27552253
248	0xbe504ead	-0.20342512
249	0xbf3fa0cd	-0.7485474
250	0xbf1edbc7	-0.62054104
251	0x3c9a9a23	0.018872326
252	0x3d191baa	0.037379898
253	0xbe3aa47c	-0.18226808
254	0xbdd35ff8	-0.10321039
255	0x3eaf8cf4	0.34287226

layer2.0.bias f4 [32]
0	0x3da4ccd1	0.08046878
1	0xbebee67e	-0.37285227
2	0x3d46f355	0.048571903
3	0xbc14e4a5	-0.009087716
4	0x3e40b261	0.18818046
5	0xbcca5e6a	-0.024703223
6	0xbca1aed6	-0.019736689
7	0xbc93422c	-0.01797589
8	0xbd8a7c74	-0.06762019
9	0x3c4d965b	0.012548055
10	0x3c333ef3	0.010940301
11	0x3d86f866	0.06590347
12	0x3dd9e1f0	0.10638797
13	0xbcfa5c78	-0.03056167
14	0x3e36f3f9	0.17866506
15	0x3b4c47f2	0.0031170812
16	0xbe895e31	-0.26829675
17	0xbd87430b	-0.06604584
18	0x3cfb720e	0.030694034
19	0xbdcae806	-0.09907536
20	0x3bdc1ae8	0.0067170747
21	0x3da86b92	0.082236424
22	0x3e46df48	0.19421113
23	0xbdaf6120	-0.08563447
24	0x3d0bb4e4	0.034108058
25	0xbdc274c6	-0.09494929
26	0xbbd138fc	-0.006384967
27	0xbdd23c16	-0.10265367
28	0x3e86626c	0.26246965
29	0xbd913114	-0.07089439
30	0xbe3c5d3f	-0.18394946
31	0x3dfe8555	0.12427775

layer2.1.weight f4 [32]
0	0x3f80bcbd	1.0057598
1	0x3fa389d4	1.2776437
2	0x3fa84061	1.3144647
3	0x3f0418fd	0.5160063
4	0x3fe071be	1.7534711
5	0x3f6d1263	0.9260618
6	0x4002e3de	2.045158
7	0x3f976f3a	1.1830819
8	0x3f48b08a	0.7839438
9	0x3fbba36f	1.4659251
10	0x3f9a4585	1.2052466
11	0x3eabc25f	0.3354673
12	0x3f6d4f17	0.92698807
13	0x3f814b40	1.010109
14	0x3f96aa4b	1.1770719
15	0x3f095acf	0.5365419
16	0x3f87634a	1.0577176
17	0x3f811a6b	1.0086187
18	0x3f0dffa6	0.55468214
19	0x3fdc4768	1.7209291
20	0x3f42b572	0.76058114
21	0x3f1d20d2	0.61378205
22	0x3f978a0b	1.1839002
23	0x3fcced99	1.6010009
24	0x3ffa553c	1.9557261
25	0x3f9503c7	1.1641778
26	0x3f05f88f	0.52332395
27	0x3f7ff8ad	0.99988824
28	0x3fb29cde	1.3954122
29	0x3f5e74f5	0.8689721
30	0x3f053743	0.5203745
31	0x3f8dd926	1.1081893

layer2.1.bias f4 [32]
0	0xbfb25d92	-1.3934805
1	0xbfddaae3	-1.7317775
2	0xbf86c74f	-1.0529574
3	0xbf15ad37	-0.5846743
4	0xbfccd11e	-1.6001318
5	0xbf6c15d0	-0.92220783
6	0xbfcc6e44	-1.597115
7	0xbf3f30a1	-0.74683577
8	0x3fec0cd4	1.8441415
9	0xbe2fd5e6	-0.1717144
10	0xbf61714a	-0.8806349
11	0x3f014f4e	0.50511634
12	0x3fc19cea	1.5126011
13	0x3f946885	1.1594397
14	0x3f74525e	0.9543818
15	0x3ed0ae33	0.40757903
16	0x3fcac484	1.5841222
17	0xbf0bc730	-0.5460081
18	0xbf8ff049	-1.1245204
19	0xbf607066	-0.87671506
20	0x3eaaef83	0.33385858
21	0x3e328416	0.174332
22	0x3fee86f9	1.863494
23	0x3dd71719	0.105024524
24	0xbf5828d5	-0.84437305
25	0xbf77b835	-0.9676545
26	0x3ef7110a	0.48255187
27	0x3f41a4ef	0.75642294
28	0x3e48341d	0.1955113
29	0xbfa22308	-1.2666941
30	0x3f4c12b2	0.79716027
31	0xbfa70a65	-1.3050047

layer2.1.running_mean f4 [32]
0	0xbf10a464	-0.5650084
1	0xbf5b5d13	-0.85688895
2	0xc05731ee	-3.3624225
3	0xbf84f611	-1.0387594
4	0x402e46d9	2.7230742
5	0xc05ff4d3	-3.499318
6	0xc0048afe	-2.0709834
7	0xbfa768f7	-1.3078908
8	0x3fbab7af	1.4587306
9	0x3f7b857f	0.98250574
10	0xc06da1ed	-3.7130082
11	0x4079c773	3.9027984
12	0x3eb8cfde	0.3609609
13	0xc0529437	-3.2902963
14	0x3e879b5f	0.26485726
15	0x3e3804ec	0.17970628
16	0xbfe3ba09	-1.7791148
17	0x3d8ab80b	0.06773385
18	0xc06755c8	-3.6146107
19	0x3fbb1a62	1.4617426
20	0xbf8c9279	-1.09822
21	0x3a4bf3da	0.0007780172
22	0x405978ec	3.3980055
23	0xc090d89a	-4.5264406
24	0xc05c1464	-3.4387445
25	0xbec85d21	-0.39133552
26	0xbf5faeb8	-0.87375975
27	0xc09b77d5	-4.858378
28	0x3fa4d936	1.2878788
29	0xc00b4cde	-2.1765666
30	0xbe821d9e	-0.2541322
31	0x3fd2fd68	1.6483583

layer2.1.running_var f4 [32]
0	0x3fae3686	1.3610389
1	0x3f0decff	0.5543975
2	0x3f016b31	0.50554186
3	0x3eecdf81	0.4626427
4	0x3e53972f	0.2066314
5	0x408641af	4.195518
6	0x40453c1b	3.0817935
7	0x4059965d	3.3998024
8	0x3f86d32a	1.0533192
9	0x3f413118	0.75465536
10	0x3f0c9c44	0.5492594
11	0x40cb4e8a	6.3533373
12	0x3f140846	0.57825124
13	0x3fa9585c	1.323009
14	0x3f8234de	1.0172384
15	0x3f90768c	1.1286178
16	0x3fade6d6	1.358607
17	0x3f8028d8	1.0012465
18	0x3f245860	0.6419735
19	0x403a0ef5	2.907163
20	0x3fa74849	1.3068935
21	0x40166d52	2.3504224
22	0x3f141168	0.5783906
23	0x3fdd720f	1.7300433
24	0x3fa7adf8	1.3099966
25	0x3f7ef133	0.9958679
26	0x3fc94948	1.5725489
27	0x4010672d	2.2562973
28	0x408fecea	4.49767
29	0x3f2fa7fd	0.68615705
30	0x3f29d2f2	0.663375
31	0x3f0b2519	0.5435348

layer3.0.weight f4 [64, 32, 3]
0	0x3f35c509	0.71003777
1	0x3e6af32b	0.22944324
2	0xbdcae04b	-0.09906062
3	0xbf57e932	-0.843402
4	0xbe9c80b2	-0.30566937
5	0x3e889963	0.26679525
6	0x3e85e20a	0.26149017
7	0x3e00f811	0.1259463
8	0xbe05835a	-0.13038388
9	0x3de47dae	0.11156784
10	0xbe3c2a61	-0.18375541
11	0x3a200431	0.000610414
12	0x3ecdccdc	0.40195358
13	0x3eb6a4e3	0.35672674
14	0x3b5a8e33	0.0033348917
15	0x3ef10ef7	0.4708173
16	0x3ea94c1d	0.33065882
17	0x3e611e08	0.21984112
18	0x3ed92c0c	0.42416418
19	0x3e973587	0.29533026
20	0x3e5a060c	0.21291369
21	0x3f02033a	0.50786173
22	0x3eb4238e	0.35183376
23	0x3e9158f6	0.28388184
24	0xbf6e9b67	-0.93205875
25	0xbf39354f	-0.7234697
26	0xbfaaaa73	-1.3333267
27	0x3d898612	0.06715025
28	0x3ed68d50	0.41904688
29	0x3f21f408	0.6326299
30	0x3bf0589e	0.0073347827
31	0xbdbc01ba	-0.09180017
32	0x3de80590	0.11329186
33	0xbf7b164d	-0.98080903
34	0xbf773acc	-0.9657409
35	0xbf626cdf	-0.88447374
36	0x3cb76fd8	0.022392198
37	0x3da89d6c	0.08233151
38	0xbe5d0ac0	-0.21586132
39	0xbe8d9ae1	-0.27657226
40	0xbe9f95a5	-0.31168857
41	0xbee80001	-0.45312503
42	0xbee0c804	-0.439026
43	0xbf183aa0	-0.59464455
44	0xbf39489b	-0.7237641
45	0xbf1d77fc	-0.61511207
46	0x3e2103ae	0.1572406
47	0x3f8c555d	1.0963551
48	0x3da02893	0.07820239
49	0xbb13c245	-0.0022546214
50	0xbf35494c	-0.7081497
51	0x3cc9a528	0.024614885
52	0x3e67d8ac	0.22641248
53	0x3e9b0611	0.30278066
54	0x3e78845e	0.24269244
55	0x3dbc1037	0.0918278
56	0x3e1d1390	0.15339494
57	0xbea5716a	-0.3231309
58	0x3a670273	0.00088123156
59	0xbc05e716	-0.008172771
60	0xbe81ae30	-0.25328207
61	0x3eb15e12	0.34642082
62	0x3f919c05	1.1375738
63	0xbe3b0b68	-0.1826607
64	0xbe54865d	-0.2075438
65	0xbccaea80	-0.024770021
66	0x3d5f59a0	0.054528832
67	0xbeb766f8	-0.35820746
68	0xbeb6de49	-0.35716465
69	0xbf843fe0	-1.0331993
70	0xbf24e620	-0.6441364
71	0xbe1d0eb3	-0.15337639
72	0x3e33d29c	0.1756081
73	0x3ef2d876	0.47430772
74	0x3e82f88c	0.2558025
75	0x3eb8685b	0.36017117
76	0x3d63d64c	0.05562429
77	0xbe1271f4	-0.14301282
78	0xbec57884	-0.3856851
79	0x3da236f2	0.07920636
80	0x3ea84f2b	0.328729
81	0xbe02ec44	-0.1278544
82	0x3de85e84	0.113461524
83	0x3e2c4fb7	0.16827284
84	0xbc996d87	-0.018728985
85	0x3e12fdd5	0.14354642
86	0x3e546620	0.20742083
87	0x3d309968	0.04311505
88	0x3c18933d	0.009312448
89	0xbd8d9251	-0.06912673
90	0x3eb2c9a7	0.34919474
91	0x3f0d386a	0.55164206
92	0x3e47ea7b	0.19523041
93	0xbe7b7619	-0.2455677
94	0x3da6a288	0.08136469
95	0x3e78968f	0.24276184
96	0x3f96f776	1.1794269
97	0x3f1712de	0.59013164
98	0xbc6f14e0	-0.014592379
99	0xbec32ebd	-0.38121596
100	0xbe47503e	-0.19464204
101	0x3e073e02	0.13207248
102	0x3efcbbbf	0.4936199
103	0x3ec6f7ae	0.3886084
104	0x3da21100	0.07913399
105	0x3e15f442	0.14643958
106	0x3c00c558	0.00785955
107	0xbe5a2803	-0.21304326
108	0x3e5ccab1	0.21561696
109	0xbed34263	-0.41261587
110	0xbf07e8b7	-0.5308947
111	0x3f64333b	0.8914067
112	0x3e78c598	0.24294126
113	0xbf853e58	-1.0409651
114	0xbf3ab121	-0.7292653
115	0xbec1d7fc	-0.37860096
116	0x3ecf0795	0.40435472
117	0x3ebbbeed	0.36669102
118	0x3e66b422	0.22529653
119	0xbdd2906c	-0.102814525
120	0x3ec988d1	0.39362195
121	0x3f7b7738	0.9822879
122	0x3f7fbc0a	0.998963
123	0x3e8c4bd8	0.27401614
124	0xbe1505bd	-0.1455297
125	0x3a815adc	0.0009868997
126	0x3e246603	0.1605454
127	0x3eab8103	0.33496866
128	0xbd18a197	-0.03726348
129	0xbe6c16a0	-0.23055506
130	0xbdabb8a4	-0.08384827
131	0x3d4d1921	0.050072793
132	0x3f0c6e4d	0.54855806
133	0x3e0ea874	0.13931447
134	0xbddb8f97	-0.10720747
135	0xbf037042	-0.51343167
136	0xbf3e6977	-0.74379677
137	0xbf2aa76c	-0.66661716
138	0xbf00234f	-0.50053877
139	0xbe9acb69	-0.30233315
140	0x3eff007c	0.49805057
141	0xbe2888ac	-0.16458386
142	0xbbedb81f	-0.007254615
143	0xbdb89ec0	-0.09014654
144	0xbeb2c89a	-0.34918672
145	0xbedc2bb3	-0.4300209
146	0xbf026e46	-0.50949514
147	0xbf0b1e29	-0.54342896
148	0x3e68f80c	0.22750872
149	0x3ebf7104	0.37390912
150	0x3f19f17c	0.601341
151	0x3f03f0f7	0.5153956
152	0xbebb3eab	-0.3657125
153	0x3e2ed2cf	0.17072605
154	0x3eae00d1	0.33984998
155	0x3d15b5f2	0.03655047
156	0x3f5653d5	0.8372167
157	0x3f048062	0.51758397
158	0x3da0fbdc	0.07860538
159	0xbe24c63b	-0.16091244
160	0x3e6e6556	0.23280844
161	0x3e732af6	0.23746857
162	0x3dc4f940	0.09617853
163	0x3d2c8d82	0.04212714
164	0x3e52d0bd	0.2058744
165	0xbe15a67b	-0.14614289
166	0xbdbac2e1	-0.091192015
167	0x3e38afc9	0.18035807
168	0xbf47d834	-0.78064275
169	0xbe298731	-0.16555478
170	0x3dc5e964	0.09663656
171	0x3e9961ac	0.2995733
172	0x3e3483ed	0.1762845
173	0xbe00125f	-0.12507008
174	0xbce98ea1	-0.028510394
175	0xbd46a109	-0.04849342
176	0xbe24a009	-0.16076674
177	0x3e84aab5	0.2591149
178	0x3de0c72d	0.1097549
179	0xbe93bfd8	-0.28857303
180	0xbe0741c2	-0.13208678
181	0xbe477f7a	-0.19482222
182	0xbe22e02a	-0.15905824
183	0x3e21d61f	0.15804337
184	0xbe1e6648	-0.15468705
185	0xbeb5a637	-0.35478374
186	0x3f8063ee	1.0030496
187	0x3f0d973c	0.5530889
188	0x3c2991c7	0.010349697
189	0xbe68cbc8	-0.22733986
190	0x3ea9e801	0.33184817
191	0x3dfc93cc	0.123328775
192	0xbde756db	-0.11295863
193	0x3f014aa1	0.505045
194	0x3e4b3e6a	0.19848028
195	0xbe103f19	-0.1408657
196	0x3f2e4c2a	0.6808497
197	0x3f8c2042	1.0947344
198	0xbe865375	-0.26235548
199	0xbee0506e	-0.43811363
200	0x3d243894	0.04009302
201	0xbf335bf1	-0.70062166
202	0x3d2ea2a3	0.04263557
203	0x3e84637d	0.25857154
204	0xbe8f013d	-0.27930632
205	0xbdb65516	-0.089029476
206	0xbe2e4e8d	-0.17022152
207	0xbc6a66f0	-0.014306769
208	0x3e8e7dec	0.27830446
209	0x3e2b92b1	0.16755177
210	0xbdf4ef99	-0.11959762
211	0xbebef521	-0.37296394
212	0x3e2cf400	0.16889954
213	0xbecf595d	-0.40497866
214	0xbc982348	-0.01857151
215	0x3db676e0	0.08909392
216	0xbed9a7c7	-0.42510816
217	0xbec81f8c	-0.39086568
218	0xbf093323	-0.53593653
219	0xbe12fae4	-0.1435352
220	0x3e819739	0.25310686
221	0x3f0d47a2	0.5518743
222	0x3e2427a0	0.1603074
223	0x3e4ae677	0.19814478
224	0x3e802b92	0.25033242
225	0x3f09ffae	0.5390576
226	0xbdae4229	-0.08508713
227	0xbeba5f8b	-0.36401019
228	0x3f39b5a0	0.7254276
229	0x3f13436f	0.5752477
230	0x3d24ee38	0.040266246
231	0xbe7f36da	-0.24923268
232	0xbf06ba90	-0.5262842
233	0xbf280670	-0.6563482
234	0xbea8184d	-0.3283104
235	0xbe35176b	-0.17684714
236	0x3d840613	0.06446471
237	0xbed8dc00	-0.42355347
238	0xbd9978b8	-0.074937284
239	0x3e03e88d	0.1288168
240	0x3e6d92cd	0.23200531
241	0xbded04e0	-0.115731955
242	0x3c73ae1e	0.014873056
243	0x3dd0f2ea	0.10202582
244	0xbe8e391c	-0.27777946
245	0xbecfb364	-0.40566552
246	0xbe717cba	-0.23582736
247	0x3ea9fffd	0.33203116
248	0x3ed231cf	0.41053626
249	0xbf157502	-0.58381665
250	0xbf04aaab	-0.5182292
251	0xbe9bc355	-0.30422464
252	0xbe88c955	-0.26716104
253	0xbe08a89d	-0.13345571
254	0x3e716666	0.23574218
255	0x3cff85d6	0.031191748

layer3.0.bias f4 [64]
0	0xbe28bc14	-0.16477996
1	0xbc664159	-0.014053666
2	0xbd1095da	-0.03529916
3	0xbdcbc173	-0.09949007
4	0x3da94d35	0.08266679
5	0xbe0df4f4	-0.13862973
6	0x3d951213	0.07278838
7	0xbd0d7560	-0.034535766
8	0xbcffd110	-0.031227618
9	0x3d18292a	0.037148632
10	0x3b580167	0.003295982
11	0x3db82716	0.0899183
12	0xbd5d7842	-0.054069765
13	0x3d34d78a	0.044150867
14	0x3b3a62e7	0.0028440298
15	0x3e135d40	0.14391041
16	0xbcb6bc49	-0.022306578
17	0x3ab7872c	0.0014002076
18	0x3dc8a743	0.09797528
19	0x3dd129b8	0.10213035
20	0x3d9ccfd9	0.07656831
21	0xbe008916	-0.12552294
22	0xbc98e14f	-0.018662123
23	0x3c38e305	0.011284594
24	0x3d9e9b2a	0.07744439
25	0x3caac603	0.020846372
26	0xbc6643d7	-0.01405426
27	0x3d116084	0.035492435
28	0xbd74ffa0	-0.059814095
29	0x3dce011c	0.10058805
30	0xbd4c6b29	-0.049906883
31	0x3a1c8b01	0.0005971641
32	0x3b9c6d0c	0.0047737416
33	0xbe6aa9ed	-0.22916384
34	0xbdc9b15a	-0.0984828
35	0x3e236bb5	0.15959056
36	0x3da603e8	0.08106214
37	0xbcf4af1a	-0.029868651
38	0x3d2fe452	0.042942353
39	0xbcceb988	-0.025234953
40	0x3e062b5f	0.13102482
41	0x3dd3c77c	0.10340783
42	0xbdb7e245	-0.08978704
43	0xbc141d05	-0.009040122
44	0xbd9461c2	-0.07245208
45	0x3da69677	0.08134168
46	0x3dad1c55	0.084526695
47	0xbdf207db	-0.118179046
48	0xbba16dcf	-0.0049264203
49	0x3dc411fd	0.095737435
50	0xbe2fce3d	-0.17168517
51	0x3dfcb393	0.123389386
52	0x3da4fc70	0.08055961
53	0x3d5d6dc4	0.05405976
54	0x3d1bd57a	0.038045384
55	0xbe508d3f	-0.20366381
56	0x3dbbeb4b	0.09175738
57	0x3c910101	0.017700674
58	0x3e13fdfe	0.14452359
59	0x3d94da35	0.07268182
60	0x3e02269e	0.12710044
61	0xbe20b7d6	-0.15695128
62	0x3c4233c4	0.011853162
63	0x3ade508c	0.0016961261

layer3.1.weight f4 [64]
0	0x40b55a98	5.667309
1	0x3fe80be0	1.8128624
2	0x40cc929a	6.3928957
3	0x4086b49d	4.2095475
4	0x40ad236c	5.410574
5	0x40761ebd	3.845626
6	0x40a5edbc	5.1852703
7	0x40c6dec3	6.2146926
8	0x40a6bf07	5.210819
9	0x40cc20f6	6.3790236
10	0x40d8d64f	6.7761607
11	0x410603e2	8.375948
12	0x40ad59d7	5.417217
13	0x40df54e1	6.979111
14	0x408f516c	4.478689
15	0x40cd39cc	6.4133053
16	0x4104d7eb	8.302714
17	0x4080bdc4	4.0231647
18	0x408f7064	4.4824696
19	0x408ee4dc	4.465437
20	0x408c8944	4.391756
21	0x4099924b	4.799108
22	0x408c15d9	4.377667
23	0x4088766e	4.2644567
24	0x4058cec6	3.3876204
25	0x407af187	3.9209917
26	0x40602df3	3.5028045
27	0x4087d2a5	4.2444634
28	0x4094a3f2	4.645013
29	0x40de84ab	6.953695
30	0x40925117	4.5723987
31	0x404949d7	3.1451318
32	0x40dffb1d	6.9994035
33	0x408b3d54	4.3512363
34	0x40b9f181	5.8107305
35	0x40bdc795	5.930613
36	0x40bdc2d8	5.9300346
37	0x40f9121c	7.7834606
38	0x40964975	4.696467
39	0x4086c094	4.211008
40	0x4043c4b1	3.05888
41	0x40d0c86a	6.5244646
42	0x4109fa70	8.623642
43	0x410683c5	8.40717
44	0x410f6a7a	8.963495
45	0x40f69cb9	7.706631
46	0x40eac989	7.3371015
47	0x4105af19	8.355248
48	0x40a424ab	5.129476
49	0x40c9737e	6.295348
50	0x40a0ca5c	5.024702
51	0x406d5533	3.7083251
52	0x408f0896	4.469798
53	0x40914642	4.5398264
54	0x40826a66	4.075488
55	0x409b7b54	4.8588047
56	0x40a66c8e	5.2007513
57	0x409bd338	4.8695335
58	0x409dfef0	4.9373703
59	0x4037a078	2.8691692
60	0x40845936	4.13589
61	0x40391658	2.8919888
62	0x40792a99	3.893225
63	0x40b77599	5.733105

layer3.1.bias f4 [64]
0	0xbe33c145	-0.17554195
1	0xbf391e78	-0.72312117
2	0x3caace29	0.020850258
3	0x3f08991a	0.53358614
4	0xbea03049	-0.3128684
5	0x3f11df25	0.56981117
6	0x3e76b3af	0.24091981
7	0xbd2b25f0	-0.041784227
8	0xbd3b0933	-0.04566307
9	0x3e83098c	0.2559322
10	0x3e164b22	0.14677098
11	0xbd046024	-0.03231825
12	0xbe38f6bd	-0.18062873
13	0x3d9a7424	0.07541683
14	0x3ee0cddd	0.4390706
15	0x3e8de0a1	0.2771044
16	0xbd4b2620	-0.049596906
17	0xbe7a80b9	-0.24463166
18	0x3ea40e2b	0.3204206
19	0x3e7f86eb	0.24953811
20	0xbe9151df	-0.28382775
21	0x3ecaf316	0.39638585
22	0xbe3c06e8	-0.1836201
23	0x3e3faa5b	0.18717329
24	0x3f071ec0	0.52781296
25	0x3e9b3037	0.30310223
26	0xbecb4edf	-0.3970861
27	0x3e5c62c1	0.21522047
28	0x3e14f14c	0.14545172
29	0x3dfbb2ec	0.12289986
30	0xbe5b9e95	-0.21447213
31	0xbeb71791	-0.35760167
32	0xbd59e5c6	-0.053197645
33	0xbecdac5a	-0.40170556
34	0xbead914f	-0.33899924
35	0x3e001529	0.12508072
36	0x3e9bc39b	0.30422673
37	0xbe069690	-0.13143373
38	0xbec41665	-0.38298336
39	0x3f09b9c5	0.53799087
40	0xbee53ced	-0.44773045
41	0x3d53c763	0.051703822
42	0xbd3092ef	-0.043108877
43	0xbdbe2fce	-0.09286462
44	0x3dbbdc96	0.09172933
45	0xbd1307d1	-0.035896126
46	0x3e28c17e	0.16480061
47	0xbe132dab	-0.1437289
48	0x3ba14cce	0.004922486
49	0xbc6fa84b	-0.0146275265
50	0x3ec1ec8d	0.37875786
51	0x3ee257d8	0.44207644
52	0x3d0e88f9	0.034798596
53	0x3e882b7f	0.26595685
54	0xbe44bac6	-0.19211873
55	0x3e5b49ea	0.21414915
56	0x3ee9571a	0.45574266
57	0x3d454a5f	0.04816663
58	0xbeaf9996	-0.34296864
59	0x3edfb389	0.43691662
60	0xbef5fca0	-0.480443
61	0x3ec3dc47	0.38253996
62	0x3eac1376	0.33608598
63	0xbda02212	-0.078189984

layer3.1.running_mean f4 [64]
0	0xc1079b8f	-8.475478
1	0xbe0fa271	-0.1402681
2	0x3f994fed	1.1977516
3	0x407dc636	3.9652228
4	0xbf99419e	-1.197315
5	0xbfee10a8	-1.8598833
6	0x3f893565	1.071942
7	0xc09efdd2	-4.968484
8	0xbf83fe84	-1.0312047
9	0x4119e37c	9.618038
10	0xbf303448	-0.68829775
11	0x400c0cd9	2.1882842
12	0xc03875b8	-2.882185
13	0x40945e30	4.6364975
14	0x3f3a4f0e	0.7277688
15	0x40fff4ee	7.9986486
16	0xc03040e3	-2.7539604
17	0xbfe0f97b	-1.7576135
18	0x40aca61d	5.3952775
19	0xbf884cf9	-1.064849
20	0xbedb6eb2	-0.4285789
21	0x402be14e	2.6856265
22	0xbe0f8d43	-0.14018731
23	0x40c5e3dc	6.184065
24	0x3f92eb4c	1.1478057
25	0x3dfd2606	0.12360768
26	0x3f67f3db	0.9060647
27	0x409ce97f	4.903503
28	0x402006f0	2.5004234
29	0x409c1fdd	4.8788896
30	0xc0a71a9f	-5.2219996
31	0xc09b6836	-4.856471
32	0x40098ce5	2.1492245
33	0xbf6be64b	-0.92148274
34	0x3f879451	1.0592138
35	0xc1074224	-8.453648
36	0xbfc1bbc1	-1.5135423
37	0xc011f08f	-2.2803075
38	0xc08e10f3	-4.439569
39	0x3fd0e62e	1.6320245
40	0xc007f1e5	-2.124139
41	0xc05a9a11	-3.4156535
42	0x40a34808	5.102543
43	0x408d6119	4.4181027
44	0x40cc79ca	6.389867
45	0x409a8305	4.8284936
46	0xc06b972d	-3.681102
47	0xc11bc869	-9.736428
48	0xbe7d183e	-0.24716279
49	0x4093a611	4.614022
50	0x406850e0	3.6299362
51	0x407f7069	3.991236
52	0xbfafed23	-1.3744243
53	0xc08da24c	-4.4260616
54	0xc0bef630	-5.967552
55	0xc0ae71b1	-5.4513783
56	0x3faa4efd	1.3305355
57	0xc0e91f79	-7.285092
58	0xc0df03f6	-6.9692335
59	0x3f522365	0.8208526
60	0x404c4c87	3.1921709
61	0x40a274ef	5.076774
62	0x3fe686d5	1.8009897
63	0x409ac6cd	4.8367677

layer3.1.running_var f4 [64]
0	0x40fd66a3	7.918779
1	0x40d894cc	6.7681637
2	0x40feeb05	7.966189
3	0x4177ef7b	15.495967
4	0x411fcfe0	9.988251
5	0x411422a4	9.258457
6	0x40d2bce4	6.585558
7	0x40e81f0c	7.25379
8	0x41780c22	15.502962
9	0x41252487	10.321418
10	0x40f7116b	7.720876
11	0x410357e4	8.208958
12	0x4130739d	11.028226
13	0x4162a425	14.165074
14	0x41819cd9	16.201586
15	0x40755c8e	3.833774
16	0x4130c6c6	11.048529
17	0x4171d69f	15.114898
18	0x40abe985	5.372256
19	0x418115b8	16.135605
20	0x41438ac0	12.2213745
21	0x40fadadf	7.8392177
22	0x410242c0	8.141296
23	0x411d46e8	9.829811
24	0x412b3cdd	10.702359
25	0x40c3c0e3	6.1172957
26	0x4054d0d3	3.3252456
27	0x414812bd	12.504575
28	0x4176fa00	15.436035
29	0x40df56b9	6.9793363
30	0x40c8988e	6.2686224
31	0x4179b335	15.606252
32	0x40a564b9	5.1685452
33	0x4112c36a	9.1727085
34	0x410abeeb	8.671611
35	0x411bf1ac	9.746502
36	0x4151eb66	13.11997
37	0x414adbfe	12.678709
38	0x41572f20	13.449005
39	0x4107c55a	8.485682
40	0x40e30c52	7.095254
41	0x41237e3e	10.218321
42	0x410cf783	8.810428
43	0x40ea1082	7.314515
44	0x4118e101	9.554933
45	0x411a96d4	9.661823
46	0x40b136b5	5.537928
47	0x41034076	8.203238
48	0x414943d1	12.579057
49	0x41821d9d	16.26446
50	0x40fbb38f	7.865669
51	0x412e7c16	10.905294
52	0x4106fe21	8.437043
53	0x4145eeee	12.370832
54	0x40d18c90	6.5484085
55	0x417681b6	15.406668
56	0x41216f60	10.089691
57	0x4180c650	16.096832
58	0x41b439bf	22.528196
59	0x41417854	12.091877
60	0x40fe6738	7.9501
61	0x4184fa2d	16.622156
62	0x410d990b	8.849864
63	0x4135340e	11.325209

layer5.0.weight f4 [10, 64]
0	0xbfb6d983	-1.4285129
1	0x3f8c848a	1.0977948
2	0x3f6b87b2	0.9200393
3	0xbf6f6fc8	-0.9352994
4	0xbea5613a	-0.3230074
5	0xc0859974	-4.174982
6	0x3d8f88d0	0.07008517
7	0xbf20b047	-0.6276898
8	0x4027841f	2.617439
9	0x3f21270c	0.62950206
10	0x3f3e9656	0.74448144
11	0x4016609d	2.3496468
12	0x3fca5d57	1.5809735
13	0x3fdfd301	1.7486268
14	0xbfc851f7	-1.5650014
15	0x40e4d55a	7.151044
16	0xbfdec519	-1.74039
17	0xbe351719	-0.17684592
18	0x3fa088cf	1.2541751
19	0xbf6d08f2	-0.92591774
20	0x3fc17cfc	1.5116267
21	0x3ed36e09	0.41294888
22	0x3ed2b5cd	0.41154328
23	0x404dcfa6	3.2157989
24	0xbffe56ae	-1.9870203
25	0xbff078d7	-1.8786877
26	0x3e71f63c	0.23629087
27	0xbf00f8f3	-0.50379866
28	0x3e08a15b	0.13342802
29	0x3f731236	0.9494966
30	0xbfd5fee0	-1.6718407
31	0xbe3fbfdc	-0.18725532
32	0x3f37922a	0.71707404
33	0xbe98ff42	-0.29882246
34	0xbe8103b9	-0.25198153
35	0xbe59712b	-0.21234576
36	0x3f15e341	0.58549887
37	0x40d7d0d6	6.7442427
38	0xbedc922b	-0.43080267
39	0xc0850519	-4.1568723
40	0xbdc30907	-0.09523206
41	0xbf1a9f3c	-0.6039922
42	0x3faac057	1.3339947
43	0x40556eaf	3.3348806
44	0x4052bb6e	3.2926898
45	0x3ef4241d	0.47683802
46	0xc089ad82	-4.30243
47	0xc085b64d	-4.1785035
48	0xbf5dd91e	-0.8665942
49	0x4036dbf9	2.857176
50	0xbdd0e88d	-0.102006055
51	0x3e63ef27	0.22259198
52	0xbfabe77a	-1.3430016
53	0x3e8720d4	0.26392233
54	0xbede219b	-0.43385014
55	0xc0bdc8d9	-5.9307675
56	0x3fcebee0	1.6152
57	0xbf5399a6	-0.82656324
58	0x3d474da8	0.048658043
59	0xbeaff606	-0.34367388
60	0x407b77a7	3.929178
61	0x3e757ccc	0.23973387
62	0xc01188b0	-2.2739677
63	0x3ff4bf7f	1.912094
64	0x408db692	4.4285364
65	0x3f1fd949	0.62440926
66	0x3febf0f6	1.843291
67	0x3f11484e	0.56750953
68	0x3f23c54e	0.6397294
69	0xbf6658f7	-0.899795
70	0x3f56a945	0.83852035
71	0x401bf4aa	2.436808
72	0xbfacfa1e	-1.351383
73	0xc0242fad	-2.56541
74	0x3f8f44c4	1.1192861
75	0xbf8d8773	-1.1056961
76	0xbf82a6d3	-1.0207161
77	0xc0291276	-2.6417518
78	0xc004db87	-2.075899
79	0xc0341511	-2.8137858
80	0xc048fc07	-3.1403825
81	0x3e64581e	0.22299239
82	0x4001f2a5	2.0304348
83	0x3feff890	1.874773
84	0x4007d2d2	2.1222425
85	0xc0451dc9	-3.079943
86	0x3f40304e	0.7507371
87	0x400bb529	2.1829321
88	0xbef48231	-0.47755578
89	0x3f810a77	1.0081319
90	0x3e8a5f81	0.2702599
91	0x4004e837	2.0766733
92	0xbf19ebcc	-0.6012542
93	0xbf2fc5f8	-0.6866145
94	0x403445c6	2.8167586
95	0x3f24fd43	0.64448947
96	0xbfa0ab1f	-1.2552222
97	0xbe9b0318	-0.30275798
98	0x40078ebd	2.118087
99	0xbe7d0de9	-0.24712338
100	0x3fe1e07a	1.764663
101	0x3fc9fb3c	1.5779796
102	0xbfe87f95	-1.8163935
103	0x3f79f495	0.9763883
104	0xbf02b944	-0.5106394
105	0x4001a6fe	2.0258174
106	0x40911ce1	4.5347753
107	0x407866ae	3.881267
108	0x3f878a41	1.0589067
109	0x40c76ab2	6.2317743
110	0xbe738a64	-0.2378326
111	0x3fa148c2	1.2600329
112	0x3f095a2d	0.5365322
113	0x408a1a94	4.3157444
114	0x3fb9ed7e	1.4525602
115	0x3e36604f	0.17810176
116	0x3f9b4a87	1.2132119
117	0xbf1afee0	-0.6054516
118	0xc037c377	-2.8713052
119	0xbf5531da	-0.8327919
120	0xbfbd32ad	-1.478109
121	0xbf50803c	-0.8144567
122	0xbfa38121	-1.2773782
123	0xbe7d0c54	-0.24711734
124	0x3f876c75	1.0579973
125	0xbef02791	-0.46905187
126	0xc084deb2	-4.1521845
127	0xbecd4a49	-0.40095738
128	0xbf603b6b	-0.87590665
129	0x3f79b864	0.9754698
130	0xbfaea15a	-1.364299
131	0xc001af30	-2.0263176
132	0xbf4b0a04	-0.7931216
133	0xbfdcbf33	-1.7245849
134	0x3f044b6f	0.516776
135	0x4022a5a6	2.5413604
136	0x401e376b	2.4721324
137	0xbe0569ad	-0.13028593
138	0xc0b5e41b	-5.684095
139	0xc00c7d3a	-2.1951432
140	0xbf53b0f7	-0.826919
141	0x40a44e23	5.134538
142	0xbfa4272f	-1.2824458
143	0xbf8518b9	-1.039817
144	0xc0445b60	-3.068077
145	0x3f69b1c2	0.9128686
146	0x3e1205b8	0.14259994
147	0xc02f3755	-2.7377522
148	0x407bd447	3.9348314
149	0xc028e86d	-2.6391861
150	0xbf40bbbd	-0.75286466
151	0xbd81b0bf	-0.0633254
152	0xbff864d3	-1.9405769
153	0x3f201efc	0.6254728
154	0x408e479a	4.4462404
155	0xc0828fee	-4.0800695
156	0xbfb2a1f7	-1.3955678
157	0x3f13eda2	0.57784474
158	0x4050cc2a	3.2624612
159	0xbd074d7b	-0.033032876
160	0x3f5f4aaa	0.87223303
161	0x3f4a4703	0.79014605
162	0xbf947cdb	-1.1600603
163	0xbf25f64d	-0.6482895
164	0x3f6da037	0.92822593
165	0x40227f12	2.5390058
166	0xbe9baf11	-0.30407003
167	0x3fac1430	1.3443661
168	0x3ff594a2	1.9185984
169	0x3f96c4ee	1.1778848
170	0xbf279550	-0.6546221
171	0xc017df1a	-2.372992
172	0xc0318a4d	-2.7740662
173	0xbfcd3524	-1.6031842
174	0xbe96148b	-0.29312548
175	0xbf5f6e3b	-0.87277573
176	0xbfa73695	-1.3063532
177	0xbf18669c	-0.5953157
178	0x3ed798c9	0.42108753
179	0xbf712546	-0.941975
180	0x3f3a7ed3	0.7284977
181	0x3ed84d26	0.4224636
182	0x3ff636e7	1.9235505
183	0xbe2a31b1	-0.16620518
184	0xbe4dddfb	-0.2010421
185	0xbfe83dbc	-1.814384
186	0x3fc4115f	1.5317801
187	0xbfce7886	-1.6130531
188	0x3f298b14	0.6622784
189	0xbf3f89ce	-0.7481965
190	0x3dcbbd08	0.09948164
191	0xbfe47bfd	-1.7850338
192	0x3fac1977	1.3445271
193	0x3f59aaf4	0.8502648
194	0x4041cd60	3.02816
195	0x3f853476	1.0406635
196	0x401d1d5a	2.4549165
197	0xbe89d934	-0.26923525
198	0xc0797fbd	-3.8984215
199	0xc034c5d3	-2.8245742
200	0x3fb5bed9	1.4198867
201	0x401947fe	2.395019
202	0xbfa5cf50	-1.2953892
203	0xc008280b	-2.127444
204	0xbee1ad63	-0.44077596
205	0xbf0fe66e	-0.5621098
206	0xbf3352de	-0.7004832
207	0xbfaff180	-1.3745575
208	0x3faed8d6	1.3659923
209	0xbeb610c8	-0.35559678
210	0x3eb63240	0.35585213
211	0xbfa987d6	-1.3244579
212	0xbf1c9fd7	-0.61181396
213	0xbf2d08e5	-0.67591697
214	0x3e9be101	0.30445102
215	0xbf859d46	-1.0438621
216	0xbf81c402	-1.0137942
217	0xbea63a31	-0.32466272
218	0x3f2b32df	0.668745
219	0xbeb50dad	-0.35361996
220	0xbef0b3cc	-0.47012174
221	0xc001bd8c	-2.027194
222	0x3fbb10cc	1.4614501
223	0x3f52526e	0.8215703
224	0xbff2b4c2	-1.8961413
225	0x40948a35	4.641871
226	0x40303315	2.7531178
227	0xbff5472e	-1.9162347
228	0xbe8dc68a	-0.27690536
229	0xbeed5073	-0.4635044
230	0x40643d52	3.5662427
231	0x3f01416a	0.5049044
232	0x4092fe1e	4.59352
233	0xc0559c14	-3.3376513
234	0x3f24a62c	0.6431606
235	0xbe513b21	-0.20432712
236	0x405d8e1b	3.4617984
237	0x40008a8e	2.0084567
238	0xc08b3157	-4.349773
239	0x3fa02102	1.2510073
240	0xbf1e12e4	-0.61747575
241	0xbf1298a4	-0.5726416
242	0x3f3cc379	0.7373577
243	0xc0c5bb67	-6.1791263
244	0xc02a8b0f	-2.6647375
245	0x3ecf0f51	0.40441373
246	0x3f3c924a	0.7366072
247	0x3f5a5a90	0.8529444
248	0xc0456898	-3.084509
249	0x3eab148a	0.33414108
250	0x3f555b48	0.8334241
251	0xbfbe355f	-1.4860038
252	0x3fce85b8	1.6134558
253	0xbe3c92a8	-0.1841532
254	0xbe6c5017	-0.23077427
255	0x3f4c5c45	0.7982829

layer5.0.bias f4 [10]
0	0xbf741e3c	-0.95358634
1	0xbf1db9e2	-0.6161176
2	0xbefbadd5	-0.4915606
3	0xbf49d6b5	-0.7884324
4	0xbf06f705	-0.5272067
5	0xbed77525	-0.42081562
6	0xbeae124a	-0.33998328
7	0xbf5db82a	-0.8660914
8	0xbe154984	-0.14578825
9	0xbf4f73ca	-0.81036055
